…
stepsize: 80000
snapshot: 0
snapshot_prefix: "resnet50_rfcn_ohem"
iter_size: 2
I1214 19:53:34.273602  6391 solver.cpp:81] Creating training net from train_net file: models/pascal_voc/ResNet-50/rfcn_end2end/train_agnostic_ohem.prototxt
I1214 19:53:34.280012  6391 net.cpp:58] Initializing net from parameters: 
name: "ResNet-50"
state {
  phase: TRAIN
}
layer {
  name: "input-data"
  type: "Python"
  top: "data"
  top: "im_info"
  top: "gt_boxes"
  python_param {
    module: "roi_data_layer.layer"
    layer: "RoIDataLayer"
    param_str: "\'num_classes\': 2"
  }
}
layer {
  name: "conv1"
  type: "Convolution"
  bottom: "data"
  top: "conv1"
  param {
    lr_mult: 0
  }
  param {
    lr_mult: 0
  }
  convolution_param {
    num_output: 64
    pad: 3
    kernel_size: 7
    stride: 2
  }
}
layer {
  name: "bn_conv1"
  type: "BatchNorm"
  bottom: "conv1"
  top: "conv1"
  param {
    lr_mult: 0
    decay_mult: 0
  }
  param {
    lr_mult: 0
    decay_mult: 0
  }
  param {
    lr_mult: 0
    decay_mult: 0
  }
  batch_norm_param {
    use_global_stats: true
  }
}
layer {
  name: "scale_conv1"
  type: "Scale"
  bottom: "conv1"
  top: "conv1"
  param {
    lr_mult: 0
    decay_mult: 0
  }
  param {
    lr_mult: 0
    decay_mult: 0
  }
  scale_param {
    bias_term: true
  }
}
layer {
  name: "conv1_relu"
  type: "ReLU"
  bottom: "conv1"
  top: "conv1"
}
layer {
  name: "pool1"
  type: "Pooling"
  bottom: "conv1"
  top: "pool1"
  pooling_param {
    pool: MAX
    kernel_size: 3
    stride: 2
  }
}
layer {
  name: "res2a_branch1"
  type: "Convolution"
  bottom: "pool1"
  top: "res2a_branch1"
  param {
    lr_mult: 0
  }
  convolution_param {
    num_output: 256
    bias_term: false
    pad: 0
    kernel_size: 1
    stride: 1
  }
}
layer {
  name: "bn2a_branch1"
  type: "BatchNorm"
  bottom: "res2a_branch1"
  top: "res2a_branch1"
  param {
    lr_mult: 0
    decay_mult: 0
  }
  param {
    lr_mult: 0
    decay_mult: 0
  }
  param {
    lr_mult: 0
    decay_mult: 0
  }
  batch_norm_param {
    use_global_stats: true
  }
}
layer {
  name: "scale2a_branch1"
  type: "Scale"
  bottom: "res2a_branch1"
  top: "res2a_branch1"
  param {
    lr_mult: 0
    decay_mult: 0
  }
  param {
    lr_mult: 0
    decay_mult: 0
  }
  scale_param {
    bias_term: true
  }
}
layer {
  name: "res2a_branch2a"
  type: "Convolution"
  bottom: "pool1"
  top: "res2a_branch2a"
  param {
    lr_mult: 0
  }
  convolution_param {
    num_output: 64
    bias_term: false
    pad: 0
    kernel_size: 1
    stride: 1
  }
}
layer {
  name: "bn2a_branch2a"
  type: "BatchNorm"
  bottom: "res2a_branch2a"
  top: "res2a_branch2a"
  param {
    lr_mult: 0
    decay_mult: 0
  }
  param {
    lr_mult: 0
    decay_mult: 0
  }
  param {
    lr_mult: 0
    decay_mult: 0
  }
  batch_norm_param {
    use_global_stats: true
  }
}
layer {
  name: "scale2a_branch2a"
  type: "Scale"
  bottom: "res2a_branch2a"
  top: "res2a_branch2a"
  param {
    lr_mult: 0
    decay_mult: 0
  }
  param {
    lr_mult: 0
    decay_mult: 0
  }
  scale_param {
    bias_term: true
  }
}
layer {
  name: "res2a_branch2a_relu"
  type: "ReLU"
  bottom: "res2a_branch2a"
  top: "res2a_branch2a"
}
layer {
  name: "res2a_branch2b"
  type: "Convolution"
  bottom: "res2a_branch2a"
  top: "res2a_branch2b"
  param {
    lr_mult: 0
  }
  convolution_param {
    num_output: 64
    bias_term: false
    pad: 1
    kernel_size: 3
    stride: 1
  }
}
layer {
  name: "bn2a_branch2b"
  type: "BatchNorm"
  bottom: "res2a_branch2b"
  top: "res2a_branch2b"
  param {
    lr_mult: 0
    decay_mult: 0
  }
  param {
    lr_mult: 0
    decay_mult: 0
  }
  param {
    lr_mult: 0
    decay_mult: 0
  }
  batch_norm_param {
    use_global_stats: true
  }
}
layer {
  name: "scale2a_branch2b"
  type: "Scale"
  bottom: "res2a_branch2b"
  top: "res2a_branch2b"
  param {
    lr_mult: 0
    decay_mult: 0
  }
  param {
    lr_mult: 0
    decay_mult: 0
  }
  scale_param {
    bias_term: true
  }
}
layer {
  name: "res2a_branch2b_relu"
  type: "ReLU"
  bottom: "res2a_branch2b"
  top: "res2a_branch2b"
}
layer {
  name: "res2a_branch2c"
  type: "Convolution"
  bottom: "res2a_branch2b"
  top: "res2a_branch2c"
  param {
    lr_mult: 0
  }
  convolution_param {
    num_output: 256
    bias_term: false
    pad: 0
    kernel_size: 1
    stride: 1
  }
}
layer {
  name: "bn2a_branch2c"
  type: "BatchNorm"
  bottom: "res2a_branch2c"
  top: "res2a_branch2c"
  param {
    lr_mult: 0
    decay_mult: 0
  }
  param {
    lr_mult: 0
    decay_mult: 0
  }
  param {
    lr_mult: 0
    decay_mult: 0
  }
  batch_norm_param {
    use_global_stats: true
  }
}
layer {
  name: "scale2a_branch2c"
  type: "Scale"
  bottom: "res2a_branch2c"
  top: "res2a_branch2c"
  param {
    lr_mult: 0
    decay_mult: 0
  }
  param {
    lr_mult: 0
    decay_mult: 0
  }
  scale_param {
    bias_term: true
  }
}
layer {
  name: "res2a"
  type: "Eltwise"
  bottom: "res2a_branch1"
  bottom: "res2a_branch2c"
  top: "res2a"
}
layer {
  name: "res2a_relu"
  type: "ReLU"
  bottom: "res2a"
  top: "res2a"
}
layer {
  name: "res2b_branch2a"
  type: "Convolution"
  bottom: "res2a"
  top: "res2b_branch2a"
  param {
    lr_mult: 0
  }
  convolution_param {
    num_output: 64
    bias_term: false
    pad: 0
    kernel_size: 1
    stride: 1
  }
}
layer {
  name: "bn2b_branch2a"
  type: "BatchNorm"
  bottom: "res2b_branch2a"
  top: "res2b_branch2a"
  param {
    lr_mult: 0
    decay_mult: 0
  }
  param {
    lr_mult: 0
    decay_mult: 0
  }
  param {
    lr_mult: 0
    decay_mult: 0
  }
  batch_norm_param {
    use_global_stats: true
  }
}
layer {
  name: "scale2b_branch2a"
  type: "Scale"
  bottom: "res2b_branch2a"
  top: "res2b_branch2a"
  param {
    lr_mult: 0
    decay_mult: 0
  }
  param {
    lr_mult: 0
    decay_mult: 0
  }
  scale_param {
    bias_term: true
  }
}
layer {
  name: "res2b_branch2a_relu"
  type: "ReLU"
  bottom: "res2b_branch2a"
  top: "res2b_branch2a"
}
layer {
  name: "res2b_branch2b"
  type: "Convolution"
  bottom: "res2b_branch2a"
  top: "res2b_branch2b"
  param {
    lr_mult: 0
  }
  convolution_param {
    num_output: 64
    bias_term: false
    pad: 1
    kernel_size: 3
    stride: 1
  }
}
layer {
  name: "bn2b_branch2b"
  type: "BatchNorm"
  bottom: "res2b_branch2b"
  top: "res2b_branch2b"
  param {
    lr_mult: 0
    decay_mult: 0
  }
  param {
    lr_mult: 0
    decay_mult: 0
  }
  param {
    lr_mult: 0
    decay_mult: 0
  }
  batch_norm_param {
    use_global_stats: true
  }
}
layer {
  name: "scale2b_branch2b"
  type: "Scale"
  bottom: "res2b_branch2b"
  top: "res2b_branch2b"
  param {
    lr_mult: 0
    decay_mult: 0
  }
  param {
    lr_mult: 0
    decay_mult: 0
  }
  scale_param {
    bias_term: true
  }
}
layer {
  name: "res2b_branch2b_relu"
  type: "ReLU"
  bottom: "res2b_branch2b"
  top: "res2b_branch2b"
}
layer {
  name: "res2b_branch2c"
  type: "Convolution"
  bottom: "res2b_branch2b"
  top: "res2b_branch2c"
  param {
    lr_mult: 0
  }
  convolution_param {
    num_output: 256
    bias_term: false
    pad: 0
    kernel_size: 1
    stride: 1
  }
}
layer {
  name: "bn2b_branch2c"
  type: "BatchNorm"
  bottom: "res2b_branch2c"
  top: "res2b_branch2c"
  param {
    lr_mult: 0
    decay_mult: 0
  }
  param {
    lr_mult: 0
    decay_mult: 0
  }
  param {
    lr_mult: 0
    decay_mult: 0
  }
  batch_norm_param {
    use_global_stats: true
  }
}
layer {
  name: "scale2b_branch2c"
  type: "Scale"
  bottom: "res2b_branch2c"
  top: "res2b_branch2c"
  param {
    lr_mult: 0
    decay_mult: 0
  }
  param {
    lr_mult: 0
    decay_mult: 0
  }
  scale_param {
    bias_term: true
  }
}
layer {
  name: "res2b"
  type: "Eltwise"
  bottom: "res2a"
  bottom: "res2b_branch2c"
  top: "res2b"
}
layer {
  name: "res2b_relu"
  type: "ReLU"
  bottom: "res2b"
  top: "res2b"
}
layer {
  name: "res2c_branch2a"
  type: "Convolution"
  bottom: "res2b"
  top: "res2c_branch2a"
  param {
    lr_mult: 0
  }
  convolution_param {
    num_output: 64
    bias_term: false
    pad: 0
    kernel_size: 1
    stride: 1
  }
}
layer {
  name: "bn2c_branch2a"
  type: "BatchNorm"
  bottom: "res2c_branch2a"
  top: "res2c_branch2a"
  param {
    lr_mult: 0
    decay_mult: 0
  }
  param {
    lr_mult: 0
    decay_mult: 0
  }
  param {
    lr_mult: 0
    decay_mult: 0
  }
  batch_norm_param {
    use_global_stats: true
  }
}
layer {
  name: "scale2c_branch2a"
  type: "Scale"
  bottom: "res2c_branch2a"
  top: "res2c_branch2a"
  param {
    lr_mult: 0
    decay_mult: 0
  }
  param {
    lr_mult: 0
    decay_mult: 0
  }
  scale_param {
    bias_term: true
  }
}
layer {
  name: "res2c_branch2a_relu"
  type: "ReLU"
  bottom: "res2c_branch2a"
  top: "res2c_branch2a"
}
layer {
  name: "res2c_branch2b"
  type: "Convolution"
  bottom: "res2c_branch2a"
  top: "res2c_branch2b"
  param {
    lr_mult: 0
  }
  convolution_param {
    num_output: 64
    bias_term: false
    pad: 1
    kernel_size: 3
    stride: 1
  }
}
layer {
  name: "bn2c_branch2b"
  type: "BatchNorm"
  bottom: "res2c_branch2b"
  top: "res2c_branch2b"
  param {
    lr_mult: 0
    decay_mult: 0
  }
  param {
    lr_mult: 0
    decay_mult: 0
  }
  param {
    lr_mult: 0
    decay_mult: 0
  }
  batch_norm_param {
    use_global_stats: true
  }
}
layer {
  name: "scale2c_branch2b"
  type: "Scale"
  bottom: "res2c_branch2b"
  top: "res2c_branch2b"
  param {
    lr_mult: 0
    decay_mult: 0
  }
  param {
    lr_mult: 0
    decay_mult: 0
  }
  scale_param {
    bias_term: true
  }
}
layer {
  name: "res2c_branch2b_relu"
  type: "ReLU"
  bottom: "res2c_branch2b"
  top: "res2c_branch2b"
}
layer {
  name: "res2c_branch2c"
  type: "Convolution"
  bottom: "res2c_branch2b"
  top: "res2c_branch2c"
  param {
    lr_mult: 0
  }
  convolution_param {
    num_output: 256
    bias_term: false
    pad: 0
    kernel_size: 1
    stride: 1
  }
}
layer {
  name: "bn2c_branch2c"
  type: "BatchNorm"
  bottom: "res2c_branch2c"
  top: "res2c_branch2c"
  param {
    lr_mult: 0
    decay_mult: 0
  }
  param {
    lr_mult: 0
    decay_mult: 0
  }
  param {
    lr_mult: 0
    decay_mult: 0
  }
  batch_norm_param {
    use_global_stats: true
  }
}
layer {
  name: "scale2c_branch2c"
  type: "Scale"
  bottom: "res2c_branch2c"
  top: "res2c_branch2c"
  param {
    lr_mult: 0
    decay_mult: 0
  }
  param {
    lr_mult: 0
    decay_mult: 0
  }
  scale_param {
    bias_term: true
  }
}
layer {
  name: "res2c"
  type: "Eltwise"
  bottom: "res2b"
  bottom: "res2c_branch2c"
  top: "res2c"
}
layer {
  name: "res2c_relu"
  type: "ReLU"
  bottom: "res2c"
  top: "res2c"
}
layer {
  name: "res3a_branch1"
  type: "Convolution"
  bottom: "res2c"
  top: "res3a_branch1"
  param {
    lr_mult: 1
  }
  convolution_param {
    num_output: 512
    bias_term: false
    pad: 0
    kernel_size: 1
    stride: 2
  }
}
layer {
  name: "bn3a_branch1"
  type: "BatchNorm"
  bottom: "res3a_branch1"
  top: "res3a_branch1"
  param {
    lr_mult: 0
    decay_mult: 0
  }
  param {
    lr_mult: 0
    decay_mult: 0
  }
  param {
    lr_mult: 0
    decay_mult: 0
  }
  batch_norm_param {
    use_global_stats: true
  }
}
layer {
  name: "scale3a_branch1"
  type: "Scale"
  bottom: "res3a_branch1"
  top: "res3a_branch1"
  param {
    lr_mult: 0
    decay_mult: 0
  }
  param {
    lr_mult: 0
    decay_mult: 0
  }
  scale_param {
    bias_term: true
  }
}
layer {
  name: "res3a_branch2a"
  type: "Convolution"
  bottom: "res2c"
  top: "res3a_branch2a"
  param {
    lr_mult: 1
  }
  convolution_param {
    num_output: 128
    bias_term: false
    pad: 0
    kernel_size: 1
    stride: 2
  }
}
layer {
  name: "bn3a_branch2a"
  type: "BatchNorm"
  bottom: "res3a_branch2a"
  top: "res3a_branch2a"
  param {
    lr_mult: 0
    decay_mult: 0
  }
  param {
    lr_mult: 0
    decay_mult: 0
  }
  param {
    lr_mult: 0
    decay_mult: 0
  }
  batch_norm_param {
    use_global_stats: true
  }
}
layer {
  name: "scale3a_branch2a"
  type: "Scale"
  bottom: "res3a_branch2a"
  top: "res3a_branch2a"
  param {
    lr_mult: 0
    decay_mult: 0
  }
  param {
    lr_mult: 0
    decay_mult: 0
  }
  scale_param {
    bias_term: true
  }
}
layer {
  name: "res3a_branch2a_relu"
  type: "ReLU"
  bottom: "res3a_branch2a"
  top: "res3a_branch2a"
}
layer {
  name: "res3a_branch2b"
  type: "Convolution"
  bottom: "res3a_branch2a"
  top: "res3a_branch2b"
  param {
    lr_mult: 1
  }
  convolution_param {
    num_output: 128
    bias_term: false
    pad: 1
    kernel_size: 3
    stride: 1
  }
}
layer {
  name: "bn3a_branch2b"
  type: "BatchNorm"
  bottom: "res3a_branch2b"
  top: "res3a_branch2b"
  param {
    lr_mult: 0
    decay_mult: 0
  }
  param {
    lr_mult: 0
    decay_mult: 0
  }
  param {
    lr_mult: 0
    decay_mult: 0
  }
  batch_norm_param {
    use_global_stats: true
  }
}
layer {
  name: "scale3a_branch2b"
  type: "Scale"
  bottom: "res3a_branch2b"
  top: "res3a_branch2b"
  param {
    lr_mult: 0
    decay_mult: 0
  }
  param {
    lr_mult: 0
    decay_mult: 0
  }
  scale_param {
    bias_term: true
  }
}
layer {
  name: "res3a_branch2b_relu"
  type: "ReLU"
  bottom: "res3a_branch2b"
  top: "res3a_branch2b"
}
layer {
  name: "res3a_branch2c"
  type: "Convolution"
  bottom: "res3a_branch2b"
  top: "res3a_branch2c"
  param {
    lr_mult: 1
  }
  convolution_param {
    num_output: 512
    bias_term: false
    pad: 0
    kernel_size: 1
    stride: 1
  }
}
layer {
  name: "bn3a_branch2c"
  type: "BatchNorm"
  bottom: "res3a_branch2c"
  top: "res3a_branch2c"
  param {
    lr_mult: 0
    decay_mult: 0
  }
  param {
    lr_mult: 0
    decay_mult: 0
  }
  param {
    lr_mult: 0
    decay_mult: 0
  }
  batch_norm_param {
    use_global_stats: true
  }
}
layer {
  name: "scale3a_branch2c"
  type: "Scale"
  bottom: "res3a_branch2c"
  top: "res3a_branch2c"
  param {
    lr_mult: 0
    decay_mult: 0
  }
  param {
    lr_mult: 0
    decay_mult: 0
  }
  scale_param {
    bias_term: true
  }
}
layer {
  name: "res3a"
  type: "Eltwise"
  bottom: "res3a_branch1"
  bottom: "res3a_branch2c"
  top: "res3a"
}
layer {
  name: "res3a_relu"
  type: "ReLU"
  bottom: "res3a"
  top: "res3a"
}
layer {
  name: "res3b_branch2a"
  type: "Convolution"
  bottom: "res3a"
  top: "res3b_branch2a"
  param {
    lr_mult: 1
  }
  convolution_param {
    num_output: 128
    bias_term: false
    pad: 0
    kernel_size: 1
    stride: 1
  }
}
layer {
  name: "bn3b_branch2a"
  type: "BatchNorm"
  bottom: "res3b_branch2a"
  top: "res3b_branch2a"
  param {
    lr_mult: 0
    decay_mult: 0
  }
  param {
    lr_mult: 0
    decay_mult: 0
  }
  param {
    lr_mult: 0
    decay_mult: 0
  }
  batch_norm_param {
    use_global_stats: true
  }
}
layer {
  name: "scale3b_branch2a"
  type: "Scale"
  bottom: "res3b_branch2a"
  top: "res3b_branch2a"
  param {
    lr_mult: 0
    decay_mult: 0
  }
  param {
    lr_mult: 0
    decay_mult: 0
  }
  scale_param {
    bias_term: true
  }
}
layer {
  name: "res3b_branch2a_relu"
  type: "ReLU"
  bottom: "res3b_branch2a"
  top: "res3b_branch2a"
}
layer {
  name: "res3b_branch2b"
  type: "Convolution"
  bottom: "res3b_branch2a"
  top: "res3b_branch2b"
  param {
    lr_mult: 1
  }
  convolution_param {
    num_output: 128
    bias_term: false
    pad: 1
    kernel_size: 3
    stride: 1
  }
}
layer {
  name: "bn3b_branch2b"
  type: "BatchNorm"
  bottom: "res3b_branch2b"
  top: "res3b_branch2b"
  param {
    lr_mult: 0
    decay_mult: 0
  }
  param {
    lr_mult: 0
    decay_mult: 0
  }
  param {
    lr_mult: 0
    decay_mult: 0
  }
  batch_norm_param {
    use_global_stats: true
  }
}
layer {
  name: "scale3b_branch2b"
  type: "Scale"
  bottom: "res3b_branch2b"
  top: "res3b_branch2b"
  param {
    lr_mult: 0
    decay_mult: 0
  }
  param {
    lr_mult: 0
    decay_mult: 0
  }
  scale_param {
    bias_term: true
  }
}
layer {
  name: "res3b_branch2b_relu"
  type: "ReLU"
  bottom: "res3b_branch2b"
  top: "res3b_branch2b"
}
layer {
  name: "res3b_branch2c"
  type: "Convolution"
  bottom: "res3b_branch2b"
  top: "res3b_branch2c"
  param {
    lr_mult: 1
  }
  convolution_param {
    num_output: 512
    bias_term: false
    pad: 0
    kernel_size: 1
    stride: 1
  }
}
layer {
  name: "bn3b_branch2c"
  type: "BatchNorm"
  bottom: "res3b_branch2c"
  top: "res3b_branch2c"
  param {
    lr_mult: 0
    decay_mult: 0
  }
  param {
    lr_mult: 0
    decay_mult: 0
  }
  param {
    lr_mult: 0
    decay_mult: 0
  }
  batch_norm_param {
    use_global_stats: true
  }
}
layer {
  name: "scale3b_branch2c"
  type: "Scale"
  bottom: "res3b_branch2c"
  top: "res3b_branch2c"
  param {
    lr_mult: 0
    decay_mult: 0
  }
  param {
    lr_mult: 0
    decay_mult: 0
  }
  scale_param {
    bias_term: true
  }
}
layer {
  name: "res3b"
  type: "Eltwise"
  bottom: "res3a"
  bottom: "res3b_branch2c"
  top: "res3b"
}
layer {
  name: "res3b_relu"
  type: "ReLU"
  bottom: "res3b"
  top: "res3b"
}
layer {
  name: "res3c_branch2a"
  type: "Convolution"
  bottom: "res3b"
  top: "res3c_branch2a"
  param {
    lr_mult: 1
  }
  convolution_param {
    num_output: 128
    bias_term: false
    pad: 0
    kernel_size: 1
    stride: 1
  }
}
layer {
  name: "bn3c_branch2a"
  type: "BatchNorm"
  bottom: "res3c_branch2a"
  top: "res3c_branch2a"
  param {
    lr_mult: 0
    decay_mult: 0
  }
  param {
    lr_mult: 0
    decay_mult: 0
  }
  param {
    lr_mult: 0
    decay_mult: 0
  }
  batch_norm_param {
    use_global_stats: true
  }
}
layer {
  name: "scale3c_branch2a"
  type: "Scale"
  bottom: "res3c_branch2a"
  top: "res3c_branch2a"
  param {
    lr_mult: 0
    decay_mult: 0
  }
  param {
    lr_mult: 0
    decay_mult: 0
  }
  scale_param {
    bias_term: true
  }
}
layer {
  name: "res3c_branch2a_relu"
  type: "ReLU"
  bottom: "res3c_branch2a"
  top: "res3c_branch2a"
}
layer {
  name: "res3c_branch2b"
  type: "Convolution"
  bottom: "res3c_branch2a"
  top: "res3c_branch2b"
  param {
    lr_mult: 1
  }
  convolution_param {
    num_output: 128
    bias_term: false
    pad: 1
    kernel_size: 3
    stride: 1
  }
}
layer {
  name: "bn3c_branch2b"
  type: "BatchNorm"
  bottom: "res3c_branch2b"
  top: "res3c_branch2b"
  param {
    lr_mult: 0
    decay_mult: 0
  }
  param {
    lr_mult: 0
    decay_mult: 0
  }
  param {
    lr_mult: 0
    decay_mult: 0
  }
  batch_norm_param {
    use_global_stats: true
  }
}
layer {
  name: "scale3c_branch2b"
  type: "Scale"
  bottom: "res3c_branch2b"
  top: "res3c_branch2b"
  param {
    lr_mult: 0
    decay_mult: 0
  }
  param {
    lr_mult: 0
    decay_mult: 0
  }
  scale_param {
    bias_term: true
  }
}
layer {
  name: "res3c_branch2b_relu"
  type: "ReLU"
  bottom: "res3c_branch2b"
  top: "res3c_branch2b"
}
layer {
  name: "res3c_branch2c"
  type: "Convolution"
  bottom: "res3c_branch2b"
  top: "res3c_branch2c"
  param {
    lr_mult: 1
  }
  convolution_param {
    num_output: 512
    bias_term: false
    pad: 0
    kernel_size: 1
    stride: 1
  }
}
layer {
  name: "bn3c_branch2c"
  type: "BatchNorm"
  bottom: "res3c_branch2c"
  top: "res3c_branch2c"
  param {
    lr_mult: 0
    decay_mult: 0
  }
  param {
    lr_mult: 0
    decay_mult: 0
  }
  param {
    lr_mult: 0
    decay_mult: 0
  }
  batch_norm_param {
    use_global_stats: true
  }
}
layer {
  name: "scale3c_branch2c"
  type: "Scale"
  bottom: "res3c_branch2c"
  top: "res3c_branch2c"
  param {
    lr_mult: 0
    decay_mult: 0
  }
  param {
    lr_mult: 0
    decay_mult: 0
  }
  scale_param {
    bias_term: true
  }
}
layer {
  name: "res3c"
  type: "Eltwise"
  bottom: "res3b"
  bottom: "res3c_branch2c"
  top: "res3c"
}
layer {
  name: "res3c_relu"
  type: "ReLU"
  bottom: "res3c"
  top: "res3c"
}
layer {
  name: "res3d_branch2a"
  type: "Convolution"
  bottom: "res3c"
  top: "res3d_branch2a"
  param {
    lr_mult: 1
  }
  convolution_param {
    num_output: 128
    bias_term: false
    pad: 0
    kernel_size: 1
    stride: 1
  }
}
layer {
  name: "bn3d_branch2a"
  type: "BatchNorm"
  bottom: "res3d_branch2a"
  top: "res3d_branch2a"
  param {
    lr_mult: 0
    decay_mult: 0
  }
  param {
    lr_mult: 0
    decay_mult: 0
  }
  param {
    lr_mult: 0
    decay_mult: 0
  }
  batch_norm_param {
    use_global_stats: true
  }
}
layer {
  name: "scale3d_branch2a"
  type: "Scale"
  bottom: "res3d_branch2a"
  top: "res3d_branch2a"
  param {
    lr_mult: 0
    decay_mult: 0
  }
  param {
    lr_mult: 0
    decay_mult: 0
  }
  scale_param {
    bias_term: true
  }
}
layer {
  name: "res3d_branch2a_relu"
  type: "ReLU"
  bottom: "res3d_branch2a"
  top: "res3d_branch2a"
}
layer {
  name: "res3d_branch2b"
  type: "Convolution"
  bottom: "res3d_branch2a"
  top: "res3d_branch2b"
  param {
    lr_mult: 1
  }
  convolution_param {
    num_output: 128
    bias_term: false
    pad: 1
    kernel_size: 3
    stride: 1
  }
}
layer {
  name: "bn3d_branch2b"
  type: "BatchNorm"
  bottom: "res3d_branch2b"
  top: "res3d_branch2b"
  param {
    lr_mult: 0
    decay_mult: 0
  }
  param {
    lr_mult: 0
    decay_mult: 0
  }
  param {
    lr_mult: 0
    decay_mult: 0
  }
  batch_norm_param {
    use_global_stats: true
  }
}
layer {
  name: "scale3d_branch2b"
  type: "Scale"
  bottom: "res3d_branch2b"
  top: "res3d_branch2b"
  param {
    lr_mult: 0
    decay_mult: 0
  }
  param {
    lr_mult: 0
    decay_mult: 0
  }
  scale_param {
    bias_term: true
  }
}
layer {
  name: "res3d_branch2b_relu"
  type: "ReLU"
  bottom: "res3d_branch2b"
  top: "res3d_branch2b"
}
layer {
  name: "res3d_branch2c"
  type: "Convolution"
  bottom: "res3d_branch2b"
  top: "res3d_branch2c"
  param {
    lr_mult: 1
  }
  convolution_param {
    num_output: 512
    bias_term: false
    pad: 0
    kernel_size: 1
    stride: 1
  }
}
layer {
  name: "bn3d_branch2c"
  type: "BatchNorm"
  bottom: "res3d_branch2c"
  top: "res3d_branch2c"
  param {
    lr_mult: 0
    decay_mult: 0
  }
  param {
    lr_mult: 0
    decay_mult: 0
  }
  param {
    lr_mult: 0
    decay_mult: 0
  }
  batch_norm_param {
    use_global_stats: true
  }
}
layer {
  name: "scale3d_branch2c"
  type: "Scale"
  bottom: "res3d_branch2c"
  top: "res3d_branch2c"
  param {
    lr_mult: 0
    decay_mult: 0
  }
  param {
    lr_mult: 0
    decay_mult: 0
  }
  scale_param {
    bias_term: true
  }
}
layer {
  name: "res3d"
  type: "Eltwise"
  bottom: "res3c"
  bottom: "res3d_branch2c"
  top: "res3d"
}
layer {
  name: "res3d_relu"
  type: "ReLU"
  bottom: "res3d"
  top: "res3d"
}
layer {
  name: "res4a_branch1"
  type: "Convolution"
  bottom: "res3d"
  top: "res4a_branch1"
  param {
    lr_mult: 1
  }
  convolution_param {
    num_output: 1024
    bias_term: false
    pad: 0
    kernel_size: 1
    stride: 2
  }
}
layer {
  name: "bn4a_branch1"
  type: "BatchNorm"
  bottom: "res4a_branch1"
  top: "res4a_branch1"
  param {
    lr_mult: 0
    decay_mult: 0
  }
  param {
    lr_mult: 0
    decay_mult: 0
  }
  param {
    lr_mult: 0
    decay_mult: 0
  }
  batch_norm_param {
    use_global_stats: true
  }
}
layer {
  name: "scale4a_branch1"
  type: "Scale"
  bottom: "res4a_branch1"
  top: "res4a_branch1"
  param {
    lr_mult: 0
    decay_mult: 0
  }
  param {
    lr_mult: 0
    decay_mult: 0
  }
  scale_param {
    bias_term: true
  }
}
layer {
  name: "res4a_branch2a"
  type: "Convolution"
  bottom: "res3d"
  top: "res4a_branch2a"
  param {
    lr_mult: 1
  }
  convolution_param {
    num_output: 256
    bias_term: false
    pad: 0
    kernel_size: 1
    stride: 2
  }
}
layer {
  name: "bn4a_branch2a"
  type: "BatchNorm"
  bottom: "res4a_branch2a"
  top: "res4a_branch2a"
  param {
    lr_mult: 0
    decay_mult: 0
  }
  param {
    lr_mult: 0
    decay_mult: 0
  }
  param {
    lr_mult: 0
    decay_mult: 0
  }
  batch_norm_param {
    use_global_stats: true
  }
}
layer {
  name: "scale4a_branch2a"
  type: "Scale"
  bottom: "res4a_branch2a"
  top: "res4a_branch2a"
  param {
    lr_mult: 0
    decay_mult: 0
  }
  param {
    lr_mult: 0
    decay_mult: 0
  }
  scale_param {
    bias_term: true
  }
}
layer {
  name: "res4a_branch2a_relu"
  type: "ReLU"
  bottom: "res4a_branch2a"
  top: "res4a_branch2a"
}
layer {
  name: "res4a_branch2b"
  type: "Convolution"
  bottom: "res4a_branch2a"
  top: "res4a_branch2b"
  param {
    lr_mult: 1
  }
  convolution_param {
    num_output: 256
    bias_term: false
    pad: 1
    kernel_size: 3
    stride: 1
  }
}
layer {
  name: "bn4a_branch2b"
  type: "BatchNorm"
  bottom: "res4a_branch2b"
  top: "res4a_branch2b"
  param {
    lr_mult: 0
    decay_mult: 0
  }
  param {
    lr_mult: 0
    decay_mult: 0
  }
  param {
    lr_mult: 0
    decay_mult: 0
  }
  batch_norm_param {
    use_global_stats: true
  }
}
layer {
  name: "scale4a_branch2b"
  type: "Scale"
  bottom: "res4a_branch2b"
  top: "res4a_branch2b"
  param {
    lr_mult: 0
    decay_mult: 0
  }
  param {
    lr_mult: 0
    decay_mult: 0
  }
  scale_param {
    bias_term: true
  }
}
layer {
  name: "res4a_branch2b_relu"
  type: "ReLU"
  bottom: "res4a_branch2b"
  top: "res4a_branch2b"
}
layer {
  name: "res4a_branch2c"
  type: "Convolution"
  bottom: "res4a_branch2b"
  top: "res4a_branch2c"
  param {
    lr_mult: 1
  }
  convolution_param {
    num_output: 1024
    bias_term: false
    pad: 0
    kernel_size: 1
    stride: 1
  }
}
layer {
  name: "bn4a_branch2c"
  type: "BatchNorm"
  bottom: "res4a_branch2c"
  top: "res4a_branch2c"
  param {
    lr_mult: 0
    decay_mult: 0
  }
  param {
    lr_mult: 0
    decay_mult: 0
  }
  param {
    lr_mult: 0
    decay_mult: 0
  }
  batch_norm_param {
    use_global_stats: true
  }
}
layer {
  name: "scale4a_branch2c"
  type: "Scale"
  bottom: "res4a_branch2c"
  top: "res4a_branch2c"
  param {
    lr_mult: 0
    decay_mult: 0
  }
  param {
    lr_mult: 0
    decay_mult: 0
  }
  scale_param {
    bias_term: true
  }
}
layer {
  name: "res4a"
  type: "Eltwise"
  bottom: "res4a_branch1"
  bottom: "res4a_branch2c"
  top: "res4a"
}
layer {
  name: "res4a_relu"
  type: "ReLU"
  bottom: "res4a"
  top: "res4a"
}
layer {
  name: "res4b_branch2a"
  type: "Convolution"
  bottom: "res4a"
  top: "res4b_branch2a"
  param {
    lr_mult: 1
  }
  convolution_param {
    num_output: 256
    bias_term: false
    pad: 0
    kernel_size: 1
    stride: 1
  }
}
layer {
  name: "bn4b_branch2a"
  type: "BatchNorm"
  bottom: "res4b_branch2a"
  top: "res4b_branch2a"
  param {
    lr_mult: 0
    decay_mult: 0
  }
  param {
    lr_mult: 0
    decay_mult: 0
  }
  param {
    lr_mult: 0
    decay_mult: 0
  }
  batch_norm_param {
    use_global_stats: true
  }
}
layer {
  name: "scale4b_branch2a"
  type: "Scale"
  bottom: "res4b_branch2a"
  top: "res4b_branch2a"
  param {
    lr_mult: 0
    decay_mult: 0
  }
  param {
    lr_mult: 0
    decay_mult: 0
  }
  scale_param {
    bias_term: true
  }
}
layer {
  name: "res4b_branch2a_relu"
  type: "ReLU"
  bottom: "res4b_branch2a"
  top: "res4b_branch2a"
}
layer {
  name: "res4b_branch2b"
  type: "Convolution"
  bottom: "res4b_branch2a"
  top: "res4b_branch2b"
  param {
    lr_mult: 1
  }
  convolution_param {
    num_output: 256
    bias_term: false
    pad: 1
    kernel_size: 3
    stride: 1
  }
}
layer {
  name: "bn4b_branch2b"
  type: "BatchNorm"
  bottom: "res4b_branch2b"
  top: "res4b_branch2b"
  param {
    lr_mult: 0
    decay_mult: 0
  }
  param {
    lr_mult: 0
    decay_mult: 0
  }
  param {
    lr_mult: 0
    decay_mult: 0
  }
  batch_norm_param {
    use_global_stats: true
  }
}
layer {
  name: "scale4b_branch2b"
  type: "Scale"
  bottom: "res4b_branch2b"
  top: "res4b_branch2b"
  param {
    lr_mult: 0
    decay_mult: 0
  }
  param {
    lr_mult: 0
    decay_mult: 0
  }
  scale_param {
    bias_term: true
  }
}
layer {
  name: "res4b_branch2b_relu"
  type: "ReLU"
  bottom: "res4b_branch2b"
  top: "res4b_branch2b"
}
layer {
  name: "res4b_branch2c"
  type: "Convolution"
  bottom: "res4b_branch2b"
  top: "res4b_branch2c"
  param {
    lr_mult: 1
  }
  convolution_param {
    num_output: 1024
    bias_term: false
    pad: 0
    kernel_size: 1
    stride: 1
  }
}
layer {
  name: "bn4b_branch2c"
  type: "BatchNorm"
  bottom: "res4b_branch2c"
  top: "res4b_branch2c"
  param {
    lr_mult: 0
    decay_mult: 0
  }
  param {
    lr_mult: 0
    decay_mult: 0
  }
  param {
    lr_mult: 0
    decay_mult: 0
  }
  batch_norm_param {
    use_global_stats: true
  }
}
layer {
  name: "scale4b_branch2c"
  type: "Scale"
  bottom: "res4b_branch2c"
  top: "res4b_branch2c"
  param {
    lr_mult: 0
    decay_mult: 0
  }
  param {
    lr_mult: 0
    decay_mult: 0
  }
  scale_param {
    bias_term: true
  }
}
layer {
  name: "res4b"
  type: "Eltwise"
  bottom: "res4a"
  bottom: "res4b_branch2c"
  top: "res4b"
}
layer {
  name: "res4b_relu"
  type: "ReLU"
  bottom: "res4b"
  top: "res4b"
}
layer {
  name: "res4c_branch2a"
  type: "Convolution"
  bottom: "res4b"
  top: "res4c_branch2a"
  param {
    lr_mult: 1
  }
  convolution_param {
    num_output: 256
    bias_term: false
    pad: 0
    kernel_size: 1
    stride: 1
  }
}
layer {
  name: "bn4c_branch2a"
  type: "BatchNorm"
  bottom: "res4c_branch2a"
  top: "res4c_branch2a"
  param {
    lr_mult: 0
    decay_mult: 0
  }
  param {
    lr_mult: 0
    decay_mult: 0
  }
  param {
    lr_mult: 0
    decay_mult: 0
  }
  batch_norm_param {
    use_global_stats: true
  }
}
layer {
  name: "scale4c_branch2a"
  type: "Scale"
  bottom: "res4c_branch2a"
  top: "res4c_branch2a"
  param {
    lr_mult: 0
    decay_mult: 0
  }
  param {
    lr_mult: 0
    decay_mult: 0
  }
  scale_param {
    bias_term: true
  }
}
layer {
  name: "res4c_branch2a_relu"
  type: "ReLU"
  bottom: "res4c_branch2a"
  top: "res4c_branch2a"
}
layer {
  name: "res4c_branch2b"
  type: "Convolution"
  bottom: "res4c_branch2a"
  top: "res4c_branch2b"
  param {
    lr_mult: 1
  }
  convolution_param {
    num_output: 256
    bias_term: false
    pad: 1
    kernel_size: 3
    stride: 1
  }
}
layer {
  name: "bn4c_branch2b"
  type: "BatchNorm"
  bottom: "res4c_branch2b"
  top: "res4c_branch2b"
  param {
    lr_mult: 0
    decay_mult: 0
  }
  param {
    lr_mult: 0
    decay_mult: 0
  }
  param {
    lr_mult: 0
    decay_mult: 0
  }
  batch_norm_param {
    use_global_stats: true
  }
}
layer {
  name: "scale4c_branch2b"
  type: "Scale"
  bottom: "res4c_branch2b"
  top: "res4c_branch2b"
  param {
    lr_mult: 0
    decay_mult: 0
  }
  param {
    lr_mult: 0
    decay_mult: 0
  }
  scale_param {
    bias_term: true
  }
}
layer {
  name: "res4c_branch2b_relu"
  type: "ReLU"
  bottom: "res4c_branch2b"
  top: "res4c_
I1214 19:53:34.280975  6391 layer_factory.hpp:77] Creating layer input-data
I1214 19:53:34.290238  6391 net.cpp:100] Creating Layer input-data
I1214 19:53:34.290253  6391 net.cpp:418] input-data -> data
I1214 19:53:34.290269  6391 net.cpp:418] input-data -> im_info
I1214 19:53:34.290278  6391 net.cpp:418] input-data -> gt_boxes
RoiDataLayer: name_to_top: {'gt_boxes': 2, 'data': 0, 'im_info': 1}
I1214 19:53:34.299932  6391 net.cpp:150] Setting up input-data
I1214 19:53:34.299948  6391 net.cpp:157] Top shape: 1 3 1140 1677 (5735340)
I1214 19:53:34.299952  6391 net.cpp:157] Top shape: 1 3 (3)
I1214 19:53:34.299957  6391 net.cpp:157] Top shape: 1 4 (4)
I1214 19:53:34.299959  6391 net.cpp:165] Memory required for data: 22941388
I1214 19:53:34.299963  6391 layer_factory.hpp:77] Creating layer data_input-data_0_split
I1214 19:53:34.299971  6391 net.cpp:100] Creating Layer data_input-data_0_split
I1214 19:53:34.299974  6391 net.cpp:444] data_input-data_0_split <- data
I1214 19:53:34.299980  6391 net.cpp:418] data_input-data_0_split -> data_input-data_0_split_0
I1214 19:53:34.299988  6391 net.cpp:418] data_input-data_0_split -> data_input-data_0_split_1
I1214 19:53:34.300015  6391 net.cpp:150] Setting up data_input-data_0_split
I1214 19:53:34.300022  6391 net.cpp:157] Top shape: 1 3 1140 1677 (5735340)
I1214 19:53:34.300026  6391 net.cpp:157] Top shape: 1 3 1140 1677 (5735340)
I1214 19:53:34.300029  6391 net.cpp:165] Memory required for data: 68824108
I1214 19:53:34.300032  6391 layer_factory.hpp:77] Creating layer im_info_input-data_1_split
I1214 19:53:34.300037  6391 net.cpp:100] Creating Layer im_info_input-data_1_split
I1214 19:53:34.300040  6391 net.cpp:444] im_info_input-data_1_split <- im_info
I1214 19:53:34.300045  6391 net.cpp:418] im_info_input-data_1_split -> im_info_input-data_1_split_0
I1214 19:53:34.300050  6391 net.cpp:418] im_info_input-data_1_split -> im_info_input-data_1_split_1
I1214 19:53:34.300072  6391 net.cpp:150] Setting up im_info_input-data_1_split
I1214 19:53:34.300078  6391 net.cpp:157] Top shape: 1 3 (3)
I1214 19:53:34.300082  6391 net.cpp:157] Top shape: 1 3 (3)
I1214 19:53:34.300084  6391 net.cpp:165] Memory required for data: 68824132
I1214 19:53:34.300087  6391 layer_factory.hpp:77] Creating layer gt_boxes_input-data_2_split
I1214 19:53:34.300091  6391 net.cpp:100] Creating Layer gt_boxes_input-data_2_split
I1214 19:53:34.300094  6391 net.cpp:444] gt_boxes_input-data_2_split <- gt_boxes
I1214 19:53:34.300098  6391 net.cpp:418] gt_boxes_input-data_2_split -> gt_boxes_input-data_2_split_0
I1214 19:53:34.300103  6391 net.cpp:418] gt_boxes_input-data_2_split -> gt_boxes_input-data_2_split_1
I1214 19:53:34.300127  6391 net.cpp:150] Setting up gt_boxes_input-data_2_split
I1214 19:53:34.300132  6391 net.cpp:157] Top shape: 1 4 (4)
I1214 19:53:34.300137  6391 net.cpp:157] Top shape: 1 4 (4)
I1214 19:53:34.300138  6391 net.cpp:165] Memory required for data: 68824164
I1214 19:53:34.300142  6391 layer_factory.hpp:77] Creating layer conv1
I1214 19:53:34.300153  6391 net.cpp:100] Creating Layer conv1
I1214 19:53:34.300158  6391 net.cpp:444] conv1 <- data_input-data_0_split_0
I1214 19:53:34.300164  6391 net.cpp:418] conv1 -> conv1
I1214 19:53:34.301728  6391 net.cpp:150] Setting up conv1
I1214 19:53:34.301743  6391 net.cpp:157] Top shape: 1 64 570 839 (30606720)
I1214 19:53:34.301746  6391 net.cpp:165] Memory required for data: 191251044
I1214 19:53:34.301755  6391 layer_factory.hpp:77] Creating layer bn_conv1
I1214 19:53:34.301762  6391 net.cpp:100] Creating Layer bn_conv1
I1214 19:53:34.301766  6391 net.cpp:444] bn_conv1 <- conv1
I1214 19:53:34.301771  6391 net.cpp:405] bn_conv1 -> conv1 (in-place)
I1214 19:53:34.302908  6391 net.cpp:150] Setting up bn_conv1
I1214 19:53:34.302920  6391 net.cpp:157] Top shape: 1 64 570 839 (30606720)
I1214 19:53:34.302924  6391 net.cpp:165] Memory required for data: 313677924
I1214 19:53:34.302934  6391 layer_factory.hpp:77] Creating layer scale_conv1
I1214 19:53:34.302942  6391 net.cpp:100] Creating Layer scale_conv1
I1214 19:53:34.302945  6391 net.cpp:444] scale_conv1 <- conv1
I1214 19:53:34.302950  6391 net.cpp:405] scale_conv1 -> conv1 (in-place)
I1214 19:53:34.302985  6391 layer_factory.hpp:77] Creating layer scale_conv1
I1214 19:53:34.305011  6391 net.cpp:150] Setting up scale_conv1
I1214 19:53:34.305023  6391 net.cpp:157] Top shape: 1 64 570 839 (30606720)
I1214 19:53:34.305027  6391 net.cpp:165] Memory required for data: 436104804
I1214 19:53:34.305033  6391 layer_factory.hpp:77] Creating layer conv1_relu
I1214 19:53:34.305039  6391 net.cpp:100] Creating Layer conv1_relu
I1214 19:53:34.305042  6391 net.cpp:444] conv1_relu <- conv1
I1214 19:53:34.305047  6391 net.cpp:405] conv1_relu -> conv1 (in-place)
I1214 19:53:34.305054  6391 net.cpp:150] Setting up conv1_relu
I1214 19:53:34.305058  6391 net.cpp:157] Top shape: 1 64 570 839 (30606720)
I1214 19:53:34.305061  6391 net.cpp:165] Memory required for data: 558531684
I1214 19:53:34.305063  6391 layer_factory.hpp:77] Creating layer pool1
I1214 19:53:34.305070  6391 net.cpp:100] Creating Layer pool1
I1214 19:53:34.305073  6391 net.cpp:444] pool1 <- conv1
I1214 19:53:34.305078  6391 net.cpp:418] pool1 -> pool1
I1214 19:53:34.305112  6391 net.cpp:150] Setting up pool1
I1214 19:53:34.305119  6391 net.cpp:157] Top shape: 1 64 285 419 (7642560)
I1214 19:53:34.305121  6391 net.cpp:165] Memory required for data: 589101924
I1214 19:53:34.305124  6391 layer_factory.hpp:77] Creating layer pool1_pool1_0_split
I1214 19:53:34.305130  6391 net.cpp:100] Creating Layer pool1_pool1_0_split
I1214 19:53:34.305132  6391 net.cpp:444] pool1_pool1_0_split <- pool1
I1214 19:53:34.305136  6391 net.cpp:418] pool1_pool1_0_split -> pool1_pool1_0_split_0
I1214 19:53:34.305142  6391 net.cpp:418] pool1_pool1_0_split -> pool1_pool1_0_split_1
I1214 19:53:34.305167  6391 net.cpp:150] Setting up pool1_pool1_0_split
I1214 19:53:34.305173  6391 net.cpp:157] Top shape: 1 64 285 419 (7642560)
I1214 19:53:34.305177  6391 net.cpp:157] Top shape: 1 64 285 419 (7642560)
I1214 19:53:34.305181  6391 net.cpp:165] Memory required for data: 650242404
I1214 19:53:34.305183  6391 layer_factory.hpp:77] Creating layer res2a_branch1
I1214 19:53:34.305191  6391 net.cpp:100] Creating Layer res2a_branch1
I1214 19:53:34.305196  6391 net.cpp:444] res2a_branch1 <- pool1_pool1_0_split_0
I1214 19:53:34.305200  6391 net.cpp:418] res2a_branch1 -> res2a_branch1
I1214 19:53:34.305337  6391 net.cpp:150] Setting up res2a_branch1
I1214 19:53:34.305344  6391 net.cpp:157] Top shape: 1 256 285 419 (30570240)
I1214 19:53:34.305347  6391 net.cpp:165] Memory required for data: 772523364
I1214 19:53:34.305352  6391 layer_factory.hpp:77] Creating layer bn2a_branch1
I1214 19:53:34.305358  6391 net.cpp:100] Creating Layer bn2a_branch1
I1214 19:53:34.305361  6391 net.cpp:444] bn2a_branch1 <- res2a_branch1
I1214 19:53:34.305366  6391 net.cpp:405] bn2a_branch1 -> res2a_branch1 (in-place)
I1214 19:53:34.305995  6391 net.cpp:150] Setting up bn2a_branch1
I1214 19:53:34.306007  6391 net.cpp:157] Top shape: 1 256 285 419 (30570240)
I1214 19:53:34.306010  6391 net.cpp:165] Memory required for data: 894804324
I1214 19:53:34.306020  6391 layer_factory.hpp:77] Creating layer scale2a_branch1
I1214 19:53:34.306027  6391 net.cpp:100] Creating Layer scale2a_branch1
I1214 19:53:34.306030  6391 net.cpp:444] scale2a_branch1 <- res2a_branch1
I1214 19:53:34.306036  6391 net.cpp:405] scale2a_branch1 -> res2a_branch1 (in-place)
I1214 19:53:34.306071  6391 layer_factory.hpp:77] Creating layer scale2a_branch1
I1214 19:53:34.306720  6391 net.cpp:150] Setting up scale2a_branch1
I1214 19:53:34.306731  6391 net.cpp:157] Top shape: 1 256 285 419 (30570240)
I1214 19:53:34.306735  6391 net.cpp:165] Memory required for data: 1017085284
I1214 19:53:34.306740  6391 layer_factory.hpp:77] Creating layer res2a_branch2a
I1214 19:53:34.306749  6391 net.cpp:100] Creating Layer res2a_branch2a
I1214 19:53:34.306753  6391 net.cpp:444] res2a_branch2a <- pool1_pool1_0_split_1
I1214 19:53:34.306759  6391 net.cpp:418] res2a_branch2a -> res2a_branch2a
I1214 19:53:34.307343  6391 net.cpp:150] Setting up res2a_branch2a
I1214 19:53:34.307354  6391 net.cpp:157] Top shape: 1 64 285 419 (7642560)
I1214 19:53:34.307358  6391 net.cpp:165] Memory required for data: 1047655524
I1214 19:53:34.307363  6391 layer_factory.hpp:77] Creating layer bn2a_branch2a
I1214 19:53:34.307370  6391 net.cpp:100] Creating Layer bn2a_branch2a
I1214 19:53:34.307374  6391 net.cpp:444] bn2a_branch2a <- res2a_branch2a
I1214 19:53:34.307379  6391 net.cpp:405] bn2a_branch2a -> res2a_branch2a (in-place)
I1214 19:53:34.307605  6391 net.cpp:150] Setting up bn2a_branch2a
I1214 19:53:34.307613  6391 net.cpp:157] Top shape: 1 64 285 419 (7642560)
I1214 19:53:34.307617  6391 net.cpp:165] Memory required for data: 1078225764
I1214 19:53:34.307628  6391 layer_factory.hpp:77] Creating layer scale2a_branch2a
I1214 19:53:34.307637  6391 net.cpp:100] Creating Layer scale2a_branch2a
I1214 19:53:34.307641  6391 net.cpp:444] scale2a_branch2a <- res2a_branch2a
I1214 19:53:34.307646  6391 net.cpp:405] scale2a_branch2a -> res2a_branch2a (in-place)
I1214 19:53:34.307682  6391 layer_factory.hpp:77] Creating layer scale2a_branch2a
I1214 19:53:34.308360  6391 net.cpp:150] Setting up scale2a_branch2a
I1214 19:53:34.308372  6391 net.cpp:157] Top shape: 1 64 285 419 (7642560)
I1214 19:53:34.308375  6391 net.cpp:165] Memory required for data: 1108796004
I1214 19:53:34.308382  6391 layer_factory.hpp:77] Creating layer res2a_branch2a_relu
I1214 19:53:34.308388  6391 net.cpp:100] Creating Layer res2a_branch2a_relu
I1214 19:53:34.308392  6391 net.cpp:444] res2a_branch2a_relu <- res2a_branch2a
I1214 19:53:34.308398  6391 net.cpp:405] res2a_branch2a_relu -> res2a_branch2a (in-place)
I1214 19:53:34.308404  6391 net.cpp:150] Setting up res2a_branch2a_relu
I1214 19:53:34.308408  6391 net.cpp:157] Top shape: 1 64 285 419 (7642560)
I1214 19:53:34.308411  6391 net.cpp:165] Memory required for data: 1139366244
I1214 19:53:34.308414  6391 layer_factory.hpp:77] Creating layer res2a_branch2b
I1214 19:53:34.308420  6391 net.cpp:100] Creating Layer res2a_branch2b
I1214 19:53:34.308423  6391 net.cpp:444] res2a_branch2b <- res2a_branch2a
I1214 19:53:34.308429  6391 net.cpp:418] res2a_branch2b -> res2a_branch2b
I1214 19:53:34.309017  6391 net.cpp:150] Setting up res2a_branch2b
I1214 19:53:34.309028  6391 net.cpp:157] Top shape: 1 64 285 419 (7642560)
I1214 19:53:34.309031  6391 net.cpp:165] Memory required for data: 1169936484
I1214 19:53:34.309036  6391 layer_factory.hpp:77] Creating layer bn2a_branch2b
I1214 19:53:34.309044  6391 net.cpp:100] Creating Layer bn2a_branch2b
I1214 19:53:34.309048  6391 net.cpp:444] bn2a_branch2b <- res2a_branch2b
I1214 19:53:34.309053  6391 net.cpp:405] bn2a_branch2b -> res2a_branch2b (in-place)
I1214 19:53:34.309692  6391 net.cpp:150] Setting up bn2a_branch2b
I1214 19:53:34.309703  6391 net.cpp:157] Top shape: 1 64 285 419 (7642560)
I1214 19:53:34.309706  6391 net.cpp:165] Memory required for data: 1200506724
I1214 19:53:34.309715  6391 layer_factory.hpp:77] Creating layer scale2a_branch2b
I1214 19:53:34.309720  6391 net.cpp:100] Creating Layer scale2a_branch2b
I1214 19:53:34.309725  6391 net.cpp:444] scale2a_branch2b <- res2a_branch2b
I1214 19:53:34.309731  6391 net.cpp:405] scale2a_branch2b -> res2a_branch2b (in-place)
I1214 19:53:34.309775  6391 layer_factory.hpp:77] Creating layer scale2a_branch2b
I1214 19:53:34.310441  6391 net.cpp:150] Setting up scale2a_branch2b
I1214 19:53:34.310453  6391 net.cpp:157] Top shape: 1 64 285 419 (7642560)
I1214 19:53:34.310457  6391 net.cpp:165] Memory required for data: 1231076964
I1214 19:53:34.310463  6391 layer_factory.hpp:77] Creating layer res2a_branch2b_relu
I1214 19:53:34.310469  6391 net.cpp:100] Creating Layer res2a_branch2b_relu
I1214 19:53:34.310472  6391 net.cpp:444] res2a_branch2b_relu <- res2a_branch2b
I1214 19:53:34.310479  6391 net.cpp:405] res2a_branch2b_relu -> res2a_branch2b (in-place)
I1214 19:53:34.310485  6391 net.cpp:150] Setting up res2a_branch2b_relu
I1214 19:53:34.310489  6391 net.cpp:157] Top shape: 1 64 285 419 (7642560)
I1214 19:53:34.310492  6391 net.cpp:165] Memory required for data: 1261647204
I1214 19:53:34.310495  6391 layer_factory.hpp:77] Creating layer res2a_branch2c
I1214 19:53:34.310503  6391 net.cpp:100] Creating Layer res2a_branch2c
I1214 19:53:34.310505  6391 net.cpp:444] res2a_branch2c <- res2a_branch2b
I1214 19:53:34.310513  6391 net.cpp:418] res2a_branch2c -> res2a_branch2c
I1214 19:53:34.310670  6391 net.cpp:150] Setting up res2a_branch2c
I1214 19:53:34.310679  6391 net.cpp:157] Top shape: 1 256 285 419 (30570240)
I1214 19:53:34.310683  6391 net.cpp:165] Memory required for data: 1383928164
I1214 19:53:34.310688  6391 layer_factory.hpp:77] Creating layer bn2a_branch2c
I1214 19:53:34.310693  6391 net.cpp:100] Creating Layer bn2a_branch2c
I1214 19:53:34.310696  6391 net.cpp:444] bn2a_branch2c <- res2a_branch2c
I1214 19:53:34.310701  6391 net.cpp:405] bn2a_branch2c -> res2a_branch2c (in-place)
I1214 19:53:34.310914  6391 net.cpp:150] Setting up bn2a_branch2c
I1214 19:53:34.310921  6391 net.cpp:157] Top shape: 1 256 285 419 (30570240)
I1214 19:53:34.310925  6391 net.cpp:165] Memory required for data: 1506209124
I1214 19:53:34.310931  6391 layer_factory.hpp:77] Creating layer scale2a_branch2c
I1214 19:53:34.310951  6391 net.cpp:100] Creating Layer scale2a_branch2c
I1214 19:53:34.310955  6391 net.cpp:444] scale2a_branch2c <- res2a_branch2c
I1214 19:53:34.310959  6391 net.cpp:405] scale2a_branch2c -> res2a_branch2c (in-place)
I1214 19:53:34.310991  6391 layer_factory.hpp:77] Creating layer scale2a_branch2c
I1214 19:53:34.311648  6391 net.cpp:150] Setting up scale2a_branch2c
I1214 19:53:34.311661  6391 net.cpp:157] Top shape: 1 256 285 419 (30570240)
I1214 19:53:34.311664  6391 net.cpp:165] Memory required for data: 1628490084
I1214 19:53:34.311671  6391 layer_factory.hpp:77] Creating layer res2a
I1214 19:53:34.311681  6391 net.cpp:100] Creating Layer res2a
I1214 19:53:34.311686  6391 net.cpp:444] res2a <- res2a_branch1
I1214 19:53:34.311689  6391 net.cpp:444] res2a <- res2a_branch2c
I1214 19:53:34.311694  6391 net.cpp:418] res2a -> res2a
I1214 19:53:34.311718  6391 net.cpp:150] Setting up res2a
I1214 19:53:34.311727  6391 net.cpp:157] Top shape: 1 256 285 419 (30570240)
I1214 19:53:34.311729  6391 net.cpp:165] Memory required for data: 1750771044
I1214 19:53:34.311733  6391 layer_factory.hpp:77] Creating layer res2a_relu
I1214 19:53:34.311736  6391 net.cpp:100] Creating Layer res2a_relu
I1214 19:53:34.311739  6391 net.cpp:444] res2a_relu <- res2a
I1214 19:53:34.311743  6391 net.cpp:405] res2a_relu -> res2a (in-place)
I1214 19:53:34.311749  6391 net.cpp:150] Setting up res2a_relu
I1214 19:53:34.311753  6391 net.cpp:157] Top shape: 1 256 285 419 (30570240)
I1214 19:53:34.311755  6391 net.cpp:165] Memory required for data: 1873052004
I1214 19:53:34.311758  6391 layer_factory.hpp:77] Creating layer res2a_res2a_relu_0_split
I1214 19:53:34.311764  6391 net.cpp:100] Creating Layer res2a_res2a_relu_0_split
I1214 19:53:34.311765  6391 net.cpp:444] res2a_res2a_relu_0_split <- res2a
I1214 19:53:34.311769  6391 net.cpp:418] res2a_res2a_relu_0_split -> res2a_res2a_relu_0_split_0
I1214 19:53:34.311774  6391 net.cpp:418] res2a_res2a_relu_0_split -> res2a_res2a_relu_0_split_1
I1214 19:53:34.311802  6391 net.cpp:150] Setting up res2a_res2a_relu_0_split
I1214 19:53:34.311808  6391 net.cpp:157] Top shape: 1 256 285 419 (30570240)
I1214 19:53:34.311812  6391 net.cpp:157] Top shape: 1 256 285 419 (30570240)
I1214 19:53:34.311815  6391 net.cpp:165] Memory required for data: 2117613924
I1214 19:53:34.311818  6391 layer_factory.hpp:77] Creating layer res2b_branch2a
I1214 19:53:34.311826  6391 net.cpp:100] Creating Layer res2b_branch2a
I1214 19:53:34.311831  6391 net.cpp:444] res2b_branch2a <- res2a_res2a_relu_0_split_0
I1214 19:53:34.311836  6391 net.cpp:418] res2b_branch2a -> res2b_branch2a
I1214 19:53:34.311985  6391 net.cpp:150] Setting up res2b_branch2a
I1214 19:53:34.311993  6391 net.cpp:157] Top shape: 1 64 285 419 (7642560)
I1214 19:53:34.311996  6391 net.cpp:165] Memory required for data: 2148184164
I1214 19:53:34.312000  6391 layer_factory.hpp:77] Creating layer bn2b_branch2a
I1214 19:53:34.312006  6391 net.cpp:100] Creating Layer bn2b_branch2a
I1214 19:53:34.312010  6391 net.cpp:444] bn2b_branch2a <- res2b_branch2a
I1214 19:53:34.312014  6391 net.cpp:405] bn2b_branch2a -> res2b_branch2a (in-place)
I1214 19:53:34.312659  6391 net.cpp:150] Setting up bn2b_branch2a
I1214 19:53:34.312670  6391 net.cpp:157] Top shape: 1 64 285 419 (7642560)
I1214 19:53:34.312674  6391 net.cpp:165] Memory required for data: 2178754404
I1214 19:53:34.312685  6391 layer_factory.hpp:77] Creating layer scale2b_branch2a
I1214 19:53:34.312693  6391 net.cpp:100] Creating Layer scale2b_branch2a
I1214 19:53:34.312697  6391 net.cpp:444] scale2b_branch2a <- res2b_branch2a
I1214 19:53:34.312702  6391 net.cpp:405] scale2b_branch2a -> res2b_branch2a (in-place)
I1214 19:53:34.312741  6391 layer_factory.hpp:77] Creating layer scale2b_branch2a
I1214 19:53:34.313396  6391 net.cpp:150] Setting up scale2b_branch2a
I1214 19:53:34.313408  6391 net.cpp:157] Top shape: 1 64 285 419 (7642560)
I1214 19:53:34.313411  6391 net.cpp:165] Memory required for data: 2209324644
I1214 19:53:34.313417  6391 layer_factory.hpp:77] Creating layer res2b_branch2a_relu
I1214 19:53:34.313422  6391 net.cpp:100] Creating Layer res2b_branch2a_relu
I1214 19:53:34.313426  6391 net.cpp:444] res2b_branch2a_relu <- res2b_branch2a
I1214 19:53:34.313432  6391 net.cpp:405] res2b_branch2a_relu -> res2b_branch2a (in-place)
I1214 19:53:34.313439  6391 net.cpp:150] Setting up res2b_branch2a_relu
I1214 19:53:34.313443  6391 net.cpp:157] Top shape: 1 64 285 419 (7642560)
I1214 19:53:34.313446  6391 net.cpp:165] Memory required for data: 2239894884
I1214 19:53:34.313449  6391 layer_factory.hpp:77] Creating layer res2b_branch2b
I1214 19:53:34.313457  6391 net.cpp:100] Creating Layer res2b_branch2b
I1214 19:53:34.313459  6391 net.cpp:444] res2b_branch2b <- res2b_branch2a
I1214 19:53:34.313464  6391 net.cpp:418] res2b_branch2b -> res2b_branch2b
I1214 19:53:34.313632  6391 net.cpp:150] Setting up res2b_branch2b
I1214 19:53:34.313642  6391 net.cpp:157] Top shape: 1 64 285 419 (7642560)
I1214 19:53:34.313644  6391 net.cpp:165] Memory required for data: 2270465124
I1214 19:53:34.313648  6391 layer_factory.hpp:77] Creating layer bn2b_branch2b
I1214 19:53:34.313657  6391 net.cpp:100] Creating Layer bn2b_branch2b
I1214 19:53:34.313660  6391 net.cpp:444] bn2b_branch2b <- res2b_branch2b
I1214 19:53:34.313665  6391 net.cpp:405] bn2b_branch2b -> res2b_branch2b (in-place)
I1214 19:53:34.313880  6391 net.cpp:150] Setting up bn2b_branch2b
I1214 19:53:34.313889  6391 net.cpp:157] Top shape: 1 64 285 419 (7642560)
I1214 19:53:34.313891  6391 net.cpp:165] Memory required for data: 2301035364
I1214 19:53:34.313899  6391 layer_factory.hpp:77] Creating layer scale2b_branch2b
I1214 19:53:34.313906  6391 net.cpp:100] Creating Layer scale2b_branch2b
I1214 19:53:34.313910  6391 net.cpp:444] scale2b_branch2b <- res2b_branch2b
I1214 19:53:34.313913  6391 net.cpp:405] scale2b_branch2b -> res2b_branch2b (in-place)
I1214 19:53:34.313947  6391 layer_factory.hpp:77] Creating layer scale2b_branch2b
I1214 19:53:34.314610  6391 net.cpp:150] Setting up scale2b_branch2b
I1214 19:53:34.314621  6391 net.cpp:157] Top shape: 1 64 285 419 (7642560)
I1214 19:53:34.314625  6391 net.cpp:165] Memory required for data: 2331605604
I1214 19:53:34.314630  6391 layer_factory.hpp:77] Creating layer res2b_branch2b_relu
I1214 19:53:34.314636  6391 net.cpp:100] Creating Layer res2b_branch2b_relu
I1214 19:53:34.314640  6391 net.cpp:444] res2b_branch2b_relu <- res2b_branch2b
I1214 19:53:34.314646  6391 net.cpp:405] res2b_branch2b_relu -> res2b_branch2b (in-place)
I1214 19:53:34.314651  6391 net.cpp:150] Setting up res2b_branch2b_relu
I1214 19:53:34.314656  6391 net.cpp:157] Top shape: 1 64 285 419 (7642560)
I1214 19:53:34.314658  6391 net.cpp:165] Memory required for data: 2362175844
I1214 19:53:34.314661  6391 layer_factory.hpp:77] Creating layer res2b_branch2c
I1214 19:53:34.314667  6391 net.cpp:100] Creating Layer res2b_branch2c
I1214 19:53:34.314677  6391 net.cpp:444] res2b_branch2c <- res2b_branch2b
I1214 19:53:34.314682  6391 net.cpp:418] res2b_branch2c -> res2b_branch2c
I1214 19:53:34.314834  6391 net.cpp:150] Setting up res2b_branch2c
I1214 19:53:34.314842  6391 net.cpp:157] Top shape: 1 256 285 419 (30570240)
I1214 19:53:34.314846  6391 net.cpp:165] Memory required for data: 2484456804
I1214 19:53:34.314849  6391 layer_factory.hpp:77] Creating layer bn2b_branch2c
I1214 19:53:34.314855  6391 net.cpp:100] Creating Layer bn2b_branch2c
I1214 19:53:34.314858  6391 net.cpp:444] bn2b_branch2c <- res2b_branch2c
I1214 19:53:34.314864  6391 net.cpp:405] bn2b_branch2c -> res2b_branch2c (in-place)
I1214 19:53:34.315506  6391 net.cpp:150] Setting up bn2b_branch2c
I1214 19:53:34.315518  6391 net.cpp:157] Top shape: 1 256 285 419 (30570240)
I1214 19:53:34.315521  6391 net.cpp:165] Memory required for data: 2606737764
I1214 19:53:34.315528  6391 layer_factory.hpp:77] Creating layer scale2b_branch2c
I1214 19:53:34.315536  6391 net.cpp:100] Creating Layer scale2b_branch2c
I1214 19:53:34.315538  6391 net.cpp:444] scale2b_branch2c <- res2b_branch2c
I1214 19:53:34.315544  6391 net.cpp:405] scale2b_branch2c -> res2b_branch2c (in-place)
I1214 19:53:34.315580  6391 layer_factory.hpp:77] Creating layer scale2b_branch2c
I1214 19:53:34.316236  6391 net.cpp:150] Setting up scale2b_branch2c
I1214 19:53:34.316248  6391 net.cpp:157] Top shape: 1 256 285 419 (30570240)
I1214 19:53:34.316251  6391 net.cpp:165] Memory required for data: 2729018724
I1214 19:53:34.316258  6391 layer_factory.hpp:77] Creating layer res2b
I1214 19:53:34.316265  6391 net.cpp:100] Creating Layer res2b
I1214 19:53:34.316269  6391 net.cpp:444] res2b <- res2a_res2a_relu_0_split_1
I1214 19:53:34.316273  6391 net.cpp:444] res2b <- res2b_branch2c
I1214 19:53:34.316277  6391 net.cpp:418] res2b -> res2b
I1214 19:53:34.316303  6391 net.cpp:150] Setting up res2b
I1214 19:53:34.316309  6391 net.cpp:157] Top shape: 1 256 285 419 (30570240)
I1214 19:53:34.316313  6391 net.cpp:165] Memory required for data: 2851299684
I1214 19:53:34.316315  6391 layer_factory.hpp:77] Creating layer res2b_relu
I1214 19:53:34.316320  6391 net.cpp:100] Creating Layer res2b_relu
I1214 19:53:34.316323  6391 net.cpp:444] res2b_relu <- res2b
I1214 19:53:34.316329  6391 net.cpp:405] res2b_relu -> res2b (in-place)
I1214 19:53:34.316334  6391 net.cpp:150] Setting up res2b_relu
I1214 19:53:34.316339  6391 net.cpp:157] Top shape: 1 256 285 419 (30570240)
I1214 19:53:34.316341  6391 net.cpp:165] Memory required for data: 2973580644
I1214 19:53:34.316344  6391 layer_factory.hpp:77] Creating layer res2b_res2b_relu_0_split
I1214 19:53:34.316349  6391 net.cpp:100] Creating Layer res2b_res2b_relu_0_split
I1214 19:53:34.316351  6391 net.cpp:444] res2b_res2b_relu_0_split <- res2b
I1214 19:53:34.316355  6391 net.cpp:418] res2b_res2b_relu_0_split -> res2b_res2b_relu_0_split_0
I1214 19:53:34.316360  6391 net.cpp:418] res2b_res2b_relu_0_split -> res2b_res2b_relu_0_split_1
I1214 19:53:34.316390  6391 net.cpp:150] Setting up res2b_res2b_relu_0_split
I1214 19:53:34.316397  6391 net.cpp:157] Top shape: 1 256 285 419 (30570240)
I1214 19:53:34.316401  6391 net.cpp:157] Top shape: 1 256 285 419 (30570240)
I1214 19:53:34.316403  6391 net.cpp:165] Memory required for data: 3218142564
I1214 19:53:34.316406  6391 layer_factory.hpp:77] Creating layer res2c_branch2a
I1214 19:53:34.316413  6391 net.cpp:100] Creating Layer res2c_branch2a
I1214 19:53:34.316418  6391 net.cpp:444] res2c_branch2a <- res2b_res2b_relu_0_split_0
I1214 19:53:34.316426  6391 net.cpp:418] res2c_branch2a -> res2c_branch2a
I1214 19:53:34.316577  6391 net.cpp:150] Setting up res2c_branch2a
I1214 19:53:34.316586  6391 net.cpp:157] Top shape: 1 64 285 419 (7642560)
I1214 19:53:34.316588  6391 net.cpp:165] Memory required for data: 3248712804
I1214 19:53:34.316593  6391 layer_factory.hpp:77] Creating layer bn2c_branch2a
I1214 19:53:34.316601  6391 net.cpp:100] Creating Layer bn2c_branch2a
I1214 19:53:34.316606  6391 net.cpp:444] bn2c_branch2a <- res2c_branch2a
I1214 19:53:34.316611  6391 net.cpp:405] bn2c_branch2a -> res2c_branch2a (in-place)
I1214 19:53:34.316825  6391 net.cpp:150] Setting up bn2c_branch2a
I1214 19:53:34.316834  6391 net.cpp:157] Top shape: 1 64 285 419 (7642560)
I1214 19:53:34.316838  6391 net.cpp:165] Memory required for data: 3279283044
I1214 19:53:34.316843  6391 layer_factory.hpp:77] Creating layer scale2c_branch2a
I1214 19:53:34.316851  6391 net.cpp:100] Creating Layer scale2c_branch2a
I1214 19:53:34.316855  6391 net.cpp:444] scale2c_branch2a <- res2c_branch2a
I1214 19:53:34.316859  6391 net.cpp:405] scale2c_branch2a -> res2c_branch2a (in-place)
I1214 19:53:34.316895  6391 layer_factory.hpp:77] Creating layer scale2c_branch2a
I1214 19:53:34.317554  6391 net.cpp:150] Setting up scale2c_branch2a
I1214 19:53:34.317566  6391 net.cpp:157] Top shape: 1 64 285 419 (7642560)
I1214 19:53:34.317569  6391 net.cpp:165] Memory required for data: 3309853284
I1214 19:53:34.317575  6391 layer_factory.hpp:77] Creating layer res2c_branch2a_relu
I1214 19:53:34.317580  6391 net.cpp:100] Creating Layer res2c_branch2a_relu
I1214 19:53:34.317584  6391 net.cpp:444] res2c_branch2a_relu <- res2c_branch2a
I1214 19:53:34.317590  6391 net.cpp:405] res2c_branch2a_relu -> res2c_branch2a (in-place)
I1214 19:53:34.317596  6391 net.cpp:150] Setting up res2c_branch2a_relu
I1214 19:53:34.317600  6391 net.cpp:157] Top shape: 1 64 285 419 (7642560)
I1214 19:53:34.317603  6391 net.cpp:165] Memory required for data: 3340423524
I1214 19:53:34.317606  6391 layer_factory.hpp:77] Creating layer res2c_branch2b
I1214 19:53:34.317612  6391 net.cpp:100] Creating Layer res2c_branch2b
I1214 19:53:34.317615  6391 net.cpp:444] res2c_branch2b <- res2c_branch2a
I1214 19:53:34.317620  6391 net.cpp:418] res2c_branch2b -> res2c_branch2b
I1214 19:53:34.317790  6391 net.cpp:150] Setting up res2c_branch2b
I1214 19:53:34.317797  6391 net.cpp:157] Top shape: 1 64 285 419 (7642560)
I1214 19:53:34.317800  6391 net.cpp:165] Memory required for data: 3370993764
I1214 19:53:34.317806  6391 layer_factory.hpp:77] Creating layer bn2c_branch2b
I1214 19:53:34.317811  6391 net.cpp:100] Creating Layer bn2c_branch2b
I1214 19:53:34.317814  6391 net.cpp:444] bn2c_branch2b <- res2c_branch2b
I1214 19:53:34.317821  6391 net.cpp:405] bn2c_branch2b -> res2c_branch2b (in-place)
I1214 19:53:34.318470  6391 net.cpp:150] Setting up bn2c_branch2b
I1214 19:53:34.318480  6391 net.cpp:157] Top shape: 1 64 285 419 (7642560)
I1214 19:53:34.318483  6391 net.cpp:165] Memory required for data: 3401564004
I1214 19:53:34.318491  6391 layer_factory.hpp:77] Creating layer scale2c_branch2b
I1214 19:53:34.318500  6391 net.cpp:100] Creating Layer scale2c_branch2b
I1214 19:53:34.318502  6391 net.cpp:444] scale2c_branch2b <- res2c_branch2b
I1214 19:53:34.318507  6391 net.cpp:405] scale2c_branch2b -> res2c_branch2b (in-place)
I1214 19:53:34.318545  6391 layer_factory.hpp:77] Creating layer scale2c_branch2b
I1214 19:53:34.319206  6391 net.cpp:150] Setting up scale2c_branch2b
I1214 19:53:34.319218  6391 net.cpp:157] Top shape: 1 64 285 419 (7642560)
I1214 19:53:34.319221  6391 net.cpp:165] Memory required for data: 3432134244
I1214 19:53:34.319227  6391 layer_factory.hpp:77] Creating layer res2c_branch2b_relu
I1214 19:53:34.319232  6391 net.cpp:100] Creating Layer res2c_branch2b_relu
I1214 19:53:34.319236  6391 net.cpp:444] res2c_branch2b_relu <- res2c_branch2b
I1214 19:53:34.319242  6391 net.cpp:405] res2c_branch2b_relu -> res2c_branch2b (in-place)
I1214 19:53:34.319249  6391 net.cpp:150] Setting up res2c_branch2b_relu
I1214 19:53:34.319253  6391 net.cpp:157] Top shape: 1 64 285 419 (7642560)
I1214 19:53:34.319255  6391 net.cpp:165] Memory required for data: 3462704484
I1214 19:53:34.319258  6391 layer_factory.hpp:77] Creating layer res2c_branch2c
I1214 19:53:34.319265  6391 net.cpp:100] Creating Layer res2c_branch2c
I1214 19:53:34.319268  6391 net.cpp:444] res2c_branch2c <- res2c_branch2b
I1214 19:53:34.319273  6391 net.cpp:418] res2c_branch2c -> res2c_branch2c
I1214 19:53:34.319432  6391 net.cpp:150] Setting up res2c_branch2c
I1214 19:53:34.319440  6391 net.cpp:157] Top shape: 1 256 285 419 (30570240)
I1214 19:53:34.319443  6391 net.cpp:165] Memory required for data: 3584985444
I1214 19:53:34.319447  6391 layer_factory.hpp:77] Creating layer bn2c_branch2c
I1214 19:53:34.319454  6391 net.cpp:100] Creating Layer bn2c_branch2c
I1214 19:53:34.319458  6391 net.cpp:444] bn2c_branch2c <- res2c_branch2c
I1214 19:53:34.319463  6391 net.cpp:405] bn2c_branch2c -> res2c_branch2c (in-place)
I1214 19:53:34.319684  6391 net.cpp:150] Setting up bn2c_branch2c
I1214 19:53:34.319694  6391 net.cpp:157] Top shape: 1 256 285 419 (30570240)
I1214 19:53:34.319696  6391 net.cpp:165] Memory required for data: 3707266404
I1214 19:53:34.319708  6391 layer_factory.hpp:77] Creating layer scale2c_branch2c
I1214 19:53:34.319716  6391 net.cpp:100] Creating Layer scale2c_branch2c
I1214 19:53:34.319720  6391 net.cpp:444] scale2c_branch2c <- res2c_branch2c
I1214 19:53:34.319725  6391 net.cpp:405] scale2c_branch2c -> res2c_branch2c (in-place)
I1214 19:53:34.319762  6391 layer_factory.hpp:77] Creating layer scale2c_branch2c
I1214 19:53:34.320423  6391 net.cpp:150] Setting up scale2c_branch2c
I1214 19:53:34.320436  6391 net.cpp:157] Top shape: 1 256 285 419 (30570240)
I1214 19:53:34.320438  6391 net.cpp:165] Memory required for data: 3829547364
I1214 19:53:34.320446  6391 layer_factory.hpp:77] Creating layer res2c
I1214 19:53:34.320451  6391 net.cpp:100] Creating Layer res2c
I1214 19:53:34.320454  6391 net.cpp:444] res2c <- res2b_res2b_relu_0_split_1
I1214 19:53:34.320458  6391 net.cpp:444] res2c <- res2c_branch2c
I1214 19:53:34.320463  6391 net.cpp:418] res2c -> res2c
I1214 19:53:34.320487  6391 net.cpp:150] Setting up res2c
I1214 19:53:34.320494  6391 net.cpp:157] Top shape: 1 256 285 419 (30570240)
I1214 19:53:34.320497  6391 net.cpp:165] Memory required for data: 3951828324
I1214 19:53:34.320500  6391 layer_factory.hpp:77] Creating layer res2c_relu
I1214 19:53:34.320505  6391 net.cpp:100] Creating Layer res2c_relu
I1214 19:53:34.320508  6391 net.cpp:444] res2c_relu <- res2c
I1214 19:53:34.320513  6391 net.cpp:405] res2c_relu -> res2c (in-place)
I1214 19:53:34.320518  6391 net.cpp:150] Setting up res2c_relu
I1214 19:53:34.320521  6391 net.cpp:157] Top shape: 1 256 285 419 (30570240)
I1214 19:53:34.320524  6391 net.cpp:165] Memory required for data: 4074109284
I1214 19:53:34.320528  6391 layer_factory.hpp:77] Creating layer res2c_res2c_relu_0_split
I1214 19:53:34.320531  6391 net.cpp:100] Creating Layer res2c_res2c_relu_0_split
I1214 19:53:34.320534  6391 net.cpp:444] res2c_res2c_relu_0_split <- res2c
I1214 19:53:34.320540  6391 net.cpp:418] res2c_res2c_relu_0_split -> res2c_res2c_relu_0_split_0
I1214 19:53:34.320545  6391 net.cpp:418] res2c_res2c_relu_0_split -> res2c_res2c_relu_0_split_1
I1214 19:53:34.320571  6391 net.cpp:150] Setting up res2c_res2c_relu_0_split
I1214 19:53:34.320579  6391 net.cpp:157] Top shape: 1 256 285 419 (30570240)
I1214 19:53:34.320582  6391 net.cpp:157] Top shape: 1 256 285 419 (30570240)
I1214 19:53:34.320585  6391 net.cpp:165] Memory required for data: 4318671204
I1214 19:53:34.320587  6391 layer_factory.hpp:77] Creating layer res3a_branch1
I1214 19:53:34.320597  6391 net.cpp:100] Creating Layer res3a_branch1
I1214 19:53:34.320600  6391 net.cpp:444] res3a_branch1 <- res2c_res2c_relu_0_split_0
I1214 19:53:34.320605  6391 net.cpp:418] res3a_branch1 -> res3a_branch1
I1214 19:53:34.321261  6391 net.cpp:150] Setting up res3a_branch1
I1214 19:53:34.321274  6391 net.cpp:157] Top shape: 1 512 143 210 (15375360)
I1214 19:53:34.321276  6391 net.cpp:165] Memory required for data: 4380172644
I1214 19:53:34.321281  6391 layer_factory.hpp:77] Creating layer bn3a_branch1
I1214 19:53:34.321287  6391 net.cpp:100] Creating Layer bn3a_branch1
I1214 19:53:34.321291  6391 net.cpp:444] bn3a_branch1 <- res3a_branch1
I1214 19:53:34.321296  6391 net.cpp:405] bn3a_branch1 -> res3a_branch1 (in-place)
I1214 19:53:34.321897  6391 net.cpp:150] Setting up bn3a_branch1
I1214 19:53:34.321908  6391 net.cpp:157] Top shape: 1 512 143 210 (15375360)
I1214 19:53:34.321913  6391 net.cpp:165] Memory required for data: 4441674084
I1214 19:53:34.321919  6391 layer_factory.hpp:77] Creating layer scale3a_branch1
I1214 19:53:34.321926  6391 net.cpp:100] Creating Layer scale3a_branch1
I1214 19:53:34.321929  6391 net.cpp:444] scale3a_branch1 <- res3a_branch1
I1214 19:53:34.321936  6391 net.cpp:405] scale3a_branch1 -> res3a_branch1 (in-place)
I1214 19:53:34.321970  6391 layer_factory.hpp:77] Creating layer scale3a_branch1
I1214 19:53:34.322121  6391 net.cpp:150] Setting up scale3a_branch1
I1214 19:53:34.322129  6391 net.cpp:157] Top shape: 1 512 143 210 (15375360)
I1214 19:53:34.322134  6391 net.cpp:165] Memory required for data: 4503175524
I1214 19:53:34.322139  6391 layer_factory.hpp:77] Creating layer res3a_branch2a
I1214 19:53:34.322146  6391 net.cpp:100] Creating Layer res3a_branch2a
I1214 19:53:34.322151  6391 net.cpp:444] res3a_branch2a <- res2c_res2c_relu_0_split_1
I1214 19:53:34.322159  6391 net.cpp:418] res3a_branch2a -> res3a_branch2a
I1214 19:53:34.322340  6391 net.cpp:150] Setting up res3a_branch2a
I1214 19:53:34.322350  6391 net.cpp:157] Top shape: 1 128 143 210 (3843840)
I1214 19:53:34.322352  6391 net.cpp:165] Memory required for data: 4518550884
I1214 19:53:34.322356  6391 layer_factory.hpp:77] Creating layer bn3a_branch2a
I1214 19:53:34.322363  6391 net.cpp:100] Creating Layer bn3a_branch2a
I1214 19:53:34.322366  6391 net.cpp:444] bn3a_branch2a <- res3a_branch2a
I1214 19:53:34.322371  6391 net.cpp:405] bn3a_branch2a -> res3a_branch2a (in-place)
I1214 19:53:34.322978  6391 net.cpp:150] Setting up bn3a_branch2a
I1214 19:53:34.322989  6391 net.cpp:157] Top shape: 1 128 143 210 (3843840)
I1214 19:53:34.322993  6391 net.cpp:165] Memory required for data: 4533926244
I1214 19:53:34.322999  6391 layer_factory.hpp:77] Creating layer scale3a_branch2a
I1214 19:53:34.323006  6391 net.cpp:100] Creating Layer scale3a_branch2a
I1214 19:53:34.323009  6391 net.cpp:444] scale3a_branch2a <- res3a_branch2a
I1214 19:53:34.323014  6391 net.cpp:405] scale3a_branch2a -> res3a_branch2a (in-place)
I1214 19:53:34.323053  6391 layer_factory.hpp:77] Creating layer scale3a_branch2a
I1214 19:53:34.323191  6391 net.cpp:150] Setting up scale3a_branch2a
I1214 19:53:34.323199  6391 net.cpp:157] Top shape: 1 128 143 210 (3843840)
I1214 19:53:34.323202  6391 net.cpp:165] Memory required for data: 4549301604
I1214 19:53:34.323207  6391 layer_factory.hpp:77] Creating layer res3a_branch2a_relu
I1214 19:53:34.323216  6391 net.cpp:100] Creating Layer res3a_branch2a_relu
I1214 19:53:34.323220  6391 net.cpp:444] res3a_branch2a_relu <- res3a_branch2a
I1214 19:53:34.323223  6391 net.cpp:405] res3a_branch2a_relu -> res3a_branch2a (in-place)
I1214 19:53:34.323230  6391 net.cpp:150] Setting up res3a_branch2a_relu
I1214 19:53:34.323233  6391 net.cpp:157] Top shape: 1 128 143 210 (3843840)
I1214 19:53:34.323236  6391 net.cpp:165] Memory required for data: 4564676964
I1214 19:53:34.323240  6391 layer_factory.hpp:77] Creating layer res3a_branch2b
I1214 19:53:34.323247  6391 net.cpp:100] Creating Layer res3a_branch2b
I1214 19:53:34.323251  6391 net.cpp:444] res3a_branch2b <- res3a_branch2a
I1214 19:53:34.323254  6391 net.cpp:418] res3a_branch2b -> res3a_branch2b
I1214 19:53:34.323922  6391 net.cpp:150] Setting up res3a_branch2b
I1214 19:53:34.323935  6391 net.cpp:157] Top shape: 1 128 143 210 (3843840)
I1214 19:53:34.323937  6391 net.cpp:165] Memory required for data: 4580052324
I1214 19:53:34.323942  6391 layer_factory.hpp:77] Creating layer bn3a_branch2b
I1214 19:53:34.323948  6391 net.cpp:100] Creating Layer bn3a_branch2b
I1214 19:53:34.323952  6391 net.cpp:444] bn3a_branch2b <- res3a_branch2b
I1214 19:53:34.323959  6391 net.cpp:405] bn3a_branch2b -> res3a_branch2b (in-place)
I1214 19:53:34.324126  6391 net.cpp:150] Setting up bn3a_branch2b
I1214 19:53:34.324134  6391 net.cpp:157] Top shape: 1 128 143 210 (3843840)
I1214 19:53:34.324137  6391 net.cpp:165] Memory required for data: 4595427684
I1214 19:53:34.324143  6391 layer_factory.hpp:77] Creating layer scale3a_branch2b
I1214 19:53:34.324153  6391 net.cpp:100] Creating Layer scale3a_branch2b
I1214 19:53:34.324158  6391 net.cpp:444] scale3a_branch2b <- res3a_branch2b
I1214 19:53:34.324163  6391 net.cpp:405] scale3a_branch2b -> res3a_branch2b (in-place)
I1214 19:53:34.324198  6391 layer_factory.hpp:77] Creating layer scale3a_branch2b
I1214 19:53:34.324323  6391 net.cpp:150] Setting up scale3a_branch2b
I1214 19:53:34.324331  6391 net.cpp:157] Top shape: 1 128 143 210 (3843840)
I1214 19:53:34.324334  6391 net.cpp:165] Memory required for data: 4610803044
I1214 19:53:34.324340  6391 layer_factory.hpp:77] Creating layer res3a_branch2b_relu
I1214 19:53:34.324347  6391 net.cpp:100] Creating Layer res3a_branch2b_relu
I1214 19:53:34.324352  6391 net.cpp:444] res3a_branch2b_relu <- res3a_branch2b
I1214 19:53:34.324357  6391 net.cpp:405] res3a_branch2b_relu -> res3a_branch2b (in-place)
I1214 19:53:34.324362  6391 net.cpp:150] Setting up res3a_branch2b_relu
I1214 19:53:34.324365  6391 net.cpp:157] Top shape: 1 128 143 210 (3843840)
I1214 19:53:34.324368  6391 net.cpp:165] Memory required for data: 4626178404
I1214 19:53:34.324371  6391 layer_factory.hpp:77] Creating layer res3a_branch2c
I1214 19:53:34.324379  6391 net.cpp:100] Creating Layer res3a_branch2c
I1214 19:53:34.324383  6391 net.cpp:444] res3a_branch2c <- res3a_branch2b
I1214 19:53:34.324386  6391 net.cpp:418] res3a_branch2c -> res3a_branch2c
I1214 19:53:34.324574  6391 net.cpp:150] Setting up res3a_branch2c
I1214 19:53:34.324582  6391 net.cpp:157] Top shape: 1 512 143 210 (15375360)
I1214 19:53:34.324585  6391 net.cpp:165] Memory required for data: 4687679844
I1214 19:53:34.324589  6391 layer_factory.hpp:77] Creating layer bn3a_branch2c
I1214 19:53:34.324596  6391 net.cpp:100] Creating Layer bn3a_branch2c
I1214 19:53:34.324600  6391 net.cpp:444] bn3a_branch2c <- res3a_branch2c
I1214 19:53:34.324604  6391 net.cpp:405] bn3a_branch2c -> res3a_branch2c (in-place)
I1214 19:53:34.325206  6391 net.cpp:150] Setting up bn3a_branch2c
I1214 19:53:34.325218  6391 net.cpp:157] Top shape: 1 512 143 210 (15375360)
I1214 19:53:34.325222  6391 net.cpp:165] Memory required for data: 4749181284
I1214 19:53:34.325228  6391 layer_factory.hpp:77] Creating layer scale3a_branch2c
I1214 19:53:34.325237  6391 net.cpp:100] Creating Layer scale3a_branch2c
I1214 19:53:34.325239  6391 net.cpp:444] scale3a_branch2c <- res3a_branch2c
I1214 19:53:34.325244  6391 net.cpp:405] scale3a_branch2c -> res3a_branch2c (in-place)
I1214 19:53:34.325278  6391 layer_factory.hpp:77] Creating layer scale3a_branch2c
I1214 19:53:34.325405  6391 net.cpp:150] Setting up scale3a_branch2c
I1214 19:53:34.325413  6391 net.cpp:157] Top shape: 1 512 143 210 (15375360)
I1214 19:53:34.325417  6391 net.cpp:165] Memory required for data: 4810682724
I1214 19:53:34.325423  6391 layer_factory.hpp:77] Creating layer res3a
I1214 19:53:34.325428  6391 net.cpp:100] Creating Layer res3a
I1214 19:53:34.325433  6391 net.cpp:444] res3a <- res3a_branch1
I1214 19:53:34.325436  6391 net.cpp:444] res3a <- res3a_branch2c
I1214 19:53:34.325441  6391 net.cpp:418] res3a -> res3a
I1214 19:53:34.325462  6391 net.cpp:150] Setting up res3a
I1214 19:53:34.325469  6391 net.cpp:157] Top shape: 1 512 143 210 (15375360)
I1214 19:53:34.325471  6391 net.cpp:165] Memory required for data: 4872184164
I1214 19:53:34.325474  6391 layer_factory.hpp:77] Creating layer res3a_relu
I1214 19:53:34.325481  6391 net.cpp:100] Creating Layer res3a_relu
I1214 19:53:34.325484  6391 net.cpp:444] res3a_relu <- res3a
I1214 19:53:34.325489  6391 net.cpp:405] res3a_relu -> res3a (in-place)
I1214 19:53:34.325494  6391 net.cpp:150] Setting up res3a_relu
I1214 19:53:34.325497  6391 net.cpp:157] Top shape: 1 512 143 210 (15375360)
I1214 19:53:34.325500  6391 net.cpp:165] Memory required for data: 4933685604
I1214 19:53:34.325502  6391 layer_factory.hpp:77] Creating layer res3a_res3a_relu_0_split
I1214 19:53:34.325507  6391 net.cpp:100] Creating Layer res3a_res3a_relu_0_split
I1214 19:53:34.325510  6391 net.cpp:444] res3a_res3a_relu_0_split <- res3a
I1214 19:53:34.325513  6391 net.cpp:418] res3a_res3a_relu_0_split -> res3a_res3a_relu_0_split_0
I1214 19:53:34.325518  6391 net.cpp:418] res3a_res3a_relu_0_split -> res3a_res3a_relu_0_split_1
I1214 19:53:34.325547  6391 net.cpp:150] Setting up res3a_res3a_relu_0_split
I1214 19:53:34.325554  6391 net.cpp:157] Top shape: 1 512 143 210 (15375360)
I1214 19:53:34.325558  6391 net.cpp:157] Top shape: 1 512 143 210 (15375360)
I1214 19:53:34.325561  6391 net.cpp:165] Memory required for data: 5056688484
I1214 19:53:34.325563  6391 layer_factory.hpp:77] Creating layer res3b_branch2a
I1214 19:53:34.325570  6391 net.cpp:100] Creating Layer res3b_branch2a
I1214 19:53:34.325575  6391 net.cpp:444] res3b_branch2a <- res3a_res3a_relu_0_split_0
I1214 19:53:34.325582  6391 net.cpp:418] res3b_branch2a -> res3b_branch2a
I1214 19:53:34.325762  6391 net.cpp:150] Setting up res3b_branch2a
I1214 19:53:34.325770  6391 net.cpp:157] Top shape: 1 128 143 210 (3843840)
I1214 19:53:34.325773  6391 net.cpp:165] Memory required for data: 5072063844
I1214 19:53:34.325778  6391 layer_factory.hpp:77] Creating layer bn3b_branch2a
I1214 19:53:34.325783  6391 net.cpp:100] Creating Layer bn3b_branch2a
I1214 19:53:34.325788  6391 net.cpp:444] bn3b_branch2a <- res3b_branch2a
I1214 19:53:34.325791  6391 net.cpp:405] bn3b_branch2a -> res3b_branch2a (in-place)
I1214 19:53:34.325947  6391 net.cpp:150] Setting up bn3b_branch2a
I1214 19:53:34.325954  6391 net.cpp:157] Top shape: 1 128 143 210 (3843840)
I1214 19:53:34.325958  6391 net.cpp:165] Memory required for data: 5087439204
I1214 19:53:34.325963  6391 layer_factory.hpp:77] Creating layer scale3b_branch2a
I1214 19:53:34.325980  6391 net.cpp:100] Creating Layer scale3b_branch2a
I1214 19:53:34.325985  6391 net.cpp:444] scale3b_branch2a <- res3b_branch2a
I1214 19:53:34.325989  6391 net.cpp:405] scale3b_branch2a -> res3b_branch2a (in-place)
I1214 19:53:34.326022  6391 layer_factory.hpp:77] Creating layer scale3b_branch2a
I1214 19:53:34.326148  6391 net.cpp:150] Setting up scale3b_branch2a
I1214 19:53:34.326156  6391 net.cpp:157] Top shape: 1 128 143 210 (3843840)
I1214 19:53:34.326159  6391 net.cpp:165] Memory required for data: 5102814564
I1214 19:53:34.326164  6391 layer_factory.hpp:77] Creating layer res3b_branch2a_relu
I1214 19:53:34.326171  6391 net.cpp:100] Creating Layer res3b_branch2a_relu
I1214 19:53:34.326175  6391 net.cpp:444] res3b_branch2a_relu <- res3b_branch2a
I1214 19:53:34.326179  6391 net.cpp:405] res3b_branch2a_relu -> res3b_branch2a (in-place)
I1214 19:53:34.326184  6391 net.cpp:150] Setting up res3b_branch2a_relu
I1214 19:53:34.326189  6391 net.cpp:157] Top shape: 1 128 143 210 (3843840)
I1214 19:53:34.326191  6391 net.cpp:165] Memory required for data: 5118189924
I1214 19:53:34.326195  6391 layer_factory.hpp:77] Creating layer res3b_branch2b
I1214 19:53:34.326202  6391 net.cpp:100] Creating Layer res3b_branch2b
I1214 19:53:34.326205  6391 net.cpp:444] res3b_branch2b <- res3b_branch2a
I1214 19:53:34.326210  6391 net.cpp:418] res3b_branch2b -> res3b_branch2b
I1214 19:53:34.326874  6391 net.cpp:150] Setting up res3b_branch2b
I1214 19:53:34.326886  6391 net.cpp:157] Top shape: 1 128 143 210 (3843840)
I1214 19:53:34.326889  6391 net.cpp:165] Memory required for data: 5133565284
I1214 19:53:34.326894  6391 layer_factory.hpp:77] Creating layer bn3b_branch2b
I1214 19:53:34.326901  6391 net.cpp:100] Creating Layer bn3b_branch2b
I1214 19:53:34.326905  6391 net.cpp:444] bn3b_branch2b <- res3b_branch2b
I1214 19:53:34.326910  6391 net.cpp:405] bn3b_branch2b -> res3b_branch2b (in-place)
I1214 19:53:34.327508  6391 net.cpp:150] Setting up bn3b_branch2b
I1214 19:53:34.327519  6391 net.cpp:157] Top shape: 1 128 143 210 (3843840)
I1214 19:53:34.327522  6391 net.cpp:165] Memory required for data: 5148940644
I1214 19:53:34.327530  6391 layer_factory.hpp:77] Creating layer scale3b_branch2b
I1214 19:53:34.327536  6391 net.cpp:100] Creating Layer scale3b_branch2b
I1214 19:53:34.327539  6391 net.cpp:444] scale3b_branch2b <- res3b_branch2b
I1214 19:53:34.327546  6391 net.cpp:405] scale3b_branch2b -> res3b_branch2b (in-place)
I1214 19:53:34.327584  6391 layer_factory.hpp:77] Creating layer scale3b_branch2b
I1214 19:53:34.327716  6391 net.cpp:150] Setting up scale3b_branch2b
I1214 19:53:34.327728  6391 net.cpp:157] Top shape: 1 128 143 210 (3843840)
I1214 19:53:34.327731  6391 net.cpp:165] Memory required for data: 5164316004
I1214 19:53:34.327738  6391 layer_factory.hpp:77] Creating layer res3b_branch2b_relu
I1214 19:53:34.327741  6391 net.cpp:100] Creating Layer res3b_branch2b_relu
I1214 19:53:34.327745  6391 net.cpp:444] res3b_branch2b_relu <- res3b_branch2b
I1214 19:53:34.327749  6391 net.cpp:405] res3b_branch2b_relu -> res3b_branch2b (in-place)
I1214 19:53:34.327755  6391 net.cpp:150] Setting up res3b_branch2b_relu
I1214 19:53:34.327759  6391 net.cpp:157] Top shape: 1 128 143 210 (3843840)
I1214 19:53:34.327762  6391 net.cpp:165] Memory required for data: 5179691364
I1214 19:53:34.327765  6391 layer_factory.hpp:77] Creating layer res3b_branch2c
I1214 19:53:34.327774  6391 net.cpp:100] Creating Layer res3b_branch2c
I1214 19:53:34.327777  6391 net.cpp:444] res3b_branch2c <- res3b_branch2b
I1214 19:53:34.327785  6391 net.cpp:418] res3b_branch2c -> res3b_branch2c
I1214 19:53:34.327972  6391 net.cpp:150] Setting up res3b_branch2c
I1214 19:53:34.327980  6391 net.cpp:157] Top shape: 1 512 143 210 (15375360)
I1214 19:53:34.327983  6391 net.cpp:165] Memory required for data: 5241192804
I1214 19:53:34.327987  6391 layer_factory.hpp:77] Creating layer bn3b_branch2c
I1214 19:53:34.327993  6391 net.cpp:100] Creating Layer bn3b_branch2c
I1214 19:53:34.327996  6391 net.cpp:444] bn3b_branch2c <- res3b_branch2c
I1214 19:53:34.328003  6391 net.cpp:405] bn3b_branch2c -> res3b_branch2c (in-place)
I1214 19:53:34.328167  6391 net.cpp:150] Setting up bn3b_branch2c
I1214 19:53:34.328176  6391 net.cpp:157] Top shape: 1 512 143 210 (15375360)
I1214 19:53:34.328178  6391 net.cpp:165] Memory required for data: 5302694244
I1214 19:53:34.328186  6391 layer_factory.hpp:77] Creating layer scale3b_branch2c
I1214 19:53:34.328193  6391 net.cpp:100] Creating Layer scale3b_branch2c
I1214 19:53:34.328197  6391 net.cpp:444] scale3b_branch2c <- res3b_branch2c
I1214 19:53:34.328202  6391 net.cpp:405] scale3b_branch2c -> res3b_branch2c (in-place)
I1214 19:53:34.328234  6391 layer_factory.hpp:77] Creating layer scale3b_branch2c
I1214 19:53:34.328364  6391 net.cpp:150] Setting up scale3b_branch2c
I1214 19:53:34.328372  6391 net.cpp:157] Top shape: 1 512 143 210 (15375360)
I1214 19:53:34.328375  6391 net.cpp:165] Memory required for data: 5364195684
I1214 19:53:34.328382  6391 layer_factory.hpp:77] Creating layer res3b
I1214 19:53:34.328387  6391 net.cpp:100] Creating Layer res3b
I1214 19:53:34.328389  6391 net.cpp:444] res3b <- res3a_res3a_relu_0_split_1
I1214 19:53:34.328393  6391 net.cpp:444] res3b <- res3b_branch2c
I1214 19:53:34.328399  6391 net.cpp:418] res3b -> res3b
I1214 19:53:34.328420  6391 net.cpp:150] Setting up res3b
I1214 19:53:34.328426  6391 net.cpp:157] Top shape: 1 512 143 210 (15375360)
I1214 19:53:34.328429  6391 net.cpp:165] Memory required for data: 5425697124
I1214 19:53:34.328433  6391 layer_factory.hpp:77] Creating layer res3b_relu
I1214 19:53:34.328438  6391 net.cpp:100] Creating Layer res3b_relu
I1214 19:53:34.328443  6391 net.cpp:444] res3b_relu <- res3b
I1214 19:53:34.328446  6391 net.cpp:405] res3b_relu -> res3b (in-place)
I1214 19:53:34.328451  6391 net.cpp:150] Setting up res3b_relu
I1214 19:53:34.328455  6391 net.cpp:157] Top shape: 1 512 143 210 (15375360)
I1214 19:53:34.328459  6391 net.cpp:165] Memory required for data: 5487198564
I1214 19:53:34.328461  6391 layer_factory.hpp:77] Creating layer res3b_res3b_relu_0_split
I1214 19:53:34.328465  6391 net.cpp:100] Creating Layer res3b_res3b_relu_0_split
I1214 19:53:34.328469  6391 net.cpp:444] res3b_res3b_relu_0_split <- res3b
I1214 19:53:34.328474  6391 net.cpp:418] res3b_res3b_relu_0_split -> res3b_res3b_relu_0_split_0
I1214 19:53:34.328479  6391 net.cpp:418] res3b_res3b_relu_0_split -> res3b_res3b_relu_0_split_1
I1214 19:53:34.328510  6391 net.cpp:150] Setting up res3b_res3b_relu_0_split
I1214 19:53:34.328516  6391 net.cpp:157] Top shape: 1 512 143 210 (15375360)
I1214 19:53:34.328521  6391 net.cpp:157] Top shape: 1 512 143 210 (15375360)
I1214 19:53:34.328523  6391 net.cpp:165] Memory required for data: 5610201444
I1214 19:53:34.328526  6391 layer_factory.hpp:77] Creating layer res3c_branch2a
I1214 19:53:34.328534  6391 net.cpp:100] Creating Layer res3c_branch2a
I1214 19:53:34.328537  6391 net.cpp:444] res3c_branch2a <- res3b_res3b_relu_0_split_0
I1214 19:53:34.328542  6391 net.cpp:418] res3c_branch2a -> res3c_branch2a
I1214 19:53:34.329162  6391 net.cpp:150] Setting up res3c_branch2a
I1214 19:53:34.329174  6391 net.cpp:157] Top shape: 1 128 143 210 (3843840)
I1214 19:53:34.329177  6391 net.cpp:165] Memory required for data: 5625576804
I1214 19:53:34.329182  6391 layer_factory.hpp:77] Creating layer bn3c_branch2a
I1214 19:53:34.329188  6391 net.cpp:100] Creating Layer bn3c_branch2a
I1214 19:53:34.329192  6391 net.cpp:444] bn3c_branch2a <- res3c_branch2a
I1214 19:53:34.329198  6391 net.cpp:405] bn3c_branch2a -> res3c_branch2a (in-place)
I1214 19:53:34.329360  6391 net.cpp:150] Setting up bn3c_branch2a
I1214 19:53:34.329367  6391 net.cpp:157] Top shape: 1 128 143 210 (3843840)
I1214 19:53:34.329370  6391 net.cpp:165] Memory required for data: 5640952164
I1214 19:53:34.329377  6391 layer_factory.hpp:77] Creating layer scale3c_branch2a
I1214 19:53:34.329385  6391 net.cpp:100] Creating Layer scale3c_branch2a
I1214 19:53:34.329387  6391 net.cpp:444] scale3c_branch2a <- res3c_branch2a
I1214 19:53:34.329391  6391 net.cpp:405] scale3c_branch2a -> res3c_branch2a (in-place)
I1214 19:53:34.329426  6391 layer_factory.hpp:77] Creating layer scale3c_branch2a
I1214 19:53:34.329560  6391 net.cpp:150] Setting up scale3c_branch2a
I1214 19:53:34.329568  6391 net.cpp:157] Top shape: 1 128 143 210 (3843840)
I1214 19:53:34.329571  6391 net.cpp:165] Memory required for data: 5656327524
I1214 19:53:34.329576  6391 layer_factory.hpp:77] Creating layer res3c_branch2a_relu
I1214 19:53:34.329586  6391 net.cpp:100] Creating Layer res3c_branch2a_relu
I1214 19:53:34.329588  6391 net.cpp:444] res3c_branch2a_relu <- res3c_branch2a
I1214 19:53:34.329593  6391 net.cpp:405] res3c_branch2a_relu -> res3c_branch2a (in-place)
I1214 19:53:34.329598  6391 net.cpp:150] Setting up res3c_branch2a_relu
I1214 19:53:34.329602  6391 net.cpp:157] Top shape: 1 128 143 210 (3843840)
I1214 19:53:34.329604  6391 net.cpp:165] Memory required for data: 5671702884
I1214 19:53:34.329608  6391 layer_factory.hpp:77] Creating layer res3c_branch2b
I1214 19:53:34.329617  6391 net.cpp:100] Creating Layer res3c_branch2b
I1214 19:53:34.329619  6391 net.cpp:444] res3c_branch2b <- res3c_branch2a
I1214 19:53:34.329624  6391 net.cpp:418] res3c_branch2b -> res3c_branch2b
I1214 19:53:34.330299  6391 net.cpp:150] Setting up res3c_branch2b
I1214 19:53:34.330312  6391 net.cpp:157] Top shape: 1 128 143 210 (3843840)
I1214 19:53:34.330314  6391 net.cpp:165] Memory required for data: 5687078244
I1214 19:53:34.330319  6391 layer_factory.hpp:77] Creating layer bn3c_branch2b
I1214 19:53:34.330325  6391 net.cpp:100] Creating Layer bn3c_branch2b
I1214 19:53:34.330328  6391 net.cpp:444] bn3c_branch2b <- res3c_branch2b
I1214 19:53:34.330335  6391 net.cpp:405] bn3c_branch2b -> res3c_branch2b (in-place)
I1214 19:53:34.330507  6391 net.cpp:150] Setting up bn3c_branch2b
I1214 19:53:34.330516  6391 net.cpp:157] Top shape: 1 128 143 210 (3843840)
I1214 19:53:34.330518  6391 net.cpp:165] Memory required for data: 5702453604
I1214 19:53:34.330525  6391 layer_factory.hpp:77] Creating layer scale3c_branch2b
I1214 19:53:34.330533  6391 net.cpp:100] Creating Layer scale3c_branch2b
I1214 19:53:34.330538  6391 net.cpp:444] scale3c_branch2b <- res3c_branch2b
I1214 19:53:34.330543  6391 net.cpp:405] scale3c_branch2b -> res3c_branch2b (in-place)
I1214 19:53:34.330579  6391 layer_factory.hpp:77] Creating layer scale3c_branch2b
I1214 19:53:34.330709  6391 net.cpp:150] Setting up scale3c_branch2b
I1214 19:53:34.330718  6391 net.cpp:157] Top shape: 1 128 143 210 (3843840)
I1214 19:53:34.330721  6391 net.cpp:165] Memory required for data: 5717828964
I1214 19:53:34.330726  6391 layer_factory.hpp:77] Creating layer res3c_branch2b_relu
I1214 19:53:34.330734  6391 net.cpp:100] Creating Layer res3c_branch2b_relu
I1214 19:53:34.330736  6391 net.cpp:444] res3c_branch2b_relu <- res3c_branch2b
I1214 19:53:34.330741  6391 net.cpp:405] res3c_branch2b_relu -> res3c_branch2b (in-place)
I1214 19:53:34.330746  6391 net.cpp:150] Setting up res3c_branch2b_relu
I1214 19:53:34.330750  6391 net.cpp:157] Top shape: 1 128 143 210 (3843840)
I1214 19:53:34.330754  6391 net.cpp:165] Memory required for data: 5733204324
I1214 19:53:34.330756  6391 layer_factory.hpp:77] Creating layer res3c_branch2c
I1214 19:53:34.330765  6391 net.cpp:100] Creating Layer res3c_branch2c
I1214 19:53:34.330770  6391 net.cpp:444] res3c_branch2c <- res3c_branch2b
I1214 19:53:34.330775  6391 net.cpp:418] res3c_branch2c -> res3c_branch2c
I1214 19:53:34.331398  6391 net.cpp:150] Setting up res3c_branch2c
I1214 19:53:34.331409  6391 net.cpp:157] Top shape: 1 512 143 210 (15375360)
I1214 19:53:34.331413  6391 net.cpp:165] Memory required for data: 5794705764
I1214 19:53:34.331418  6391 layer_factory.hpp:77] Creating layer bn3c_branch2c
I1214 19:53:34.331425  6391 net.cpp:100] Creating Layer bn3c_branch2c
I1214 19:53:34.331429  6391 net.cpp:444] bn3c_branch2c <- res3c_branch2c
I1214 19:53:34.331434  6391 net.cpp:405] bn3c_branch2c -> res3c_branch2c (in-place)
I1214 19:53:34.331611  6391 net.cpp:150] Setting up bn3c_branch2c
I1214 19:53:34.331620  6391 net.cpp:157] Top shape: 1 512 143 210 (15375360)
I1214 19:53:34.331624  6391 net.cpp:165] Memory required for data: 5856207204
I1214 19:53:34.331630  6391 layer_factory.hpp:77] Creating layer scale3c_branch2c
I1214 19:53:34.331637  6391 net.cpp:100] Creating Layer scale3c_branch2c
I1214 19:53:34.331640  6391 net.cpp:444] scale3c_branch2c <- res3c_branch2c
I1214 19:53:34.331647  6391 net.cpp:405] scale3c_branch2c -> res3c_branch2c (in-place)
I1214 19:53:34.331679  6391 layer_factory.hpp:77] Creating layer scale3c_branch2c
I1214 19:53:34.331815  6391 net.cpp:150] Setting up scale3c_branch2c
I1214 19:53:34.331823  6391 net.cpp:157] Top shape: 1 512 143 210 (15375360)
I1214 19:53:34.331826  6391 net.cpp:165] Memory required for data: 5917708644
I1214 19:53:34.331831  6391 layer_factory.hpp:77] Creating layer res3c
I1214 19:53:34.331840  6391 net.cpp:100] Creating Layer res3c
I1214 19:53:34.331842  6391 net.cpp:444] res3c <- res3b_res3b_relu_0_split_1
I1214 19:53:34.331846  6391 net.cpp:444] res3c <- res3c_branch2c
I1214 19:53:34.331851  6391 net.cpp:418] res3c -> res3c
I1214 19:53:34.331874  6391 net.cpp:150] Setting up res3c
I1214 19:53:34.331881  6391 net.cpp:157] Top shape: 1 512 143 210 (15375360)
I1214 19:53:34.331884  6391 net.cpp:165] Memory required for data: 5979210084
I1214 19:53:34.331887  6391 layer_factory.hpp:77] Creating layer res3c_relu
I1214 19:53:34.331893  6391 net.cpp:100] Creating Layer res3c_relu
I1214 19:53:34.331897  6391 net.cpp:444] res3c_relu <- res3c
I1214 19:53:34.331902  6391 net.cpp:405] res3c_relu -> res3c (in-place)
I1214 19:53:34.331907  6391 net.cpp:150] Setting up res3c_relu
I1214 19:53:34.331910  6391 net.cpp:157] Top shape: 1 512 143 210 (15375360)
I1214 19:53:34.331914  6391 net.cpp:165] Memory required for data: 6040711524
I1214 19:53:34.331917  6391 layer_factory.hpp:77] Creating layer res3c_res3c_relu_0_split
I1214 19:53:34.331921  6391 net.cpp:100] Creating Layer res3c_res3c_relu_0_split
I1214 19:53:34.331924  6391 net.cpp:444] res3c_res3c_relu_0_split <- res3c
I1214 19:53:34.331930  6391 net.cpp:418] res3c_res3c_relu_0_split -> res3c_res3c_relu_0_split_0
I1214 19:53:34.331936  6391 net.cpp:418] res3c_res3c_relu_0_split -> res3c_res3c_relu_0_split_1
I1214 19:53:34.331964  6391 net.cpp:150] Setting up res3c_res3c_relu_0_split
I1214 19:53:34.331971  6391 net.cpp:157] Top shape: 1 512 143 210 (15375360)
I1214 19:53:34.331975  6391 net.cpp:157] Top shape: 1 512 143 210 (15375360)
I1214 19:53:34.331977  6391 net.cpp:165] Memory required for data: 6163714404
I1214 19:53:34.331980  6391 layer_factory.hpp:77] Creating layer res3d_branch2a
I1214 19:53:34.331990  6391 net.cpp:100] Creating Layer res3d_branch2a
I1214 19:53:34.331993  6391 net.cpp:444] res3d_branch2a <- res3c_res3c_relu_0_split_0
I1214 19:53:34.331998  6391 net.cpp:418] res3d_branch2a -> res3d_branch2a
I1214 19:53:34.332188  6391 net.cpp:150] Setting up res3d_branch2a
I1214 19:53:34.332197  6391 net.cpp:157] Top shape: 1 128 143 210 (3843840)
I1214 19:53:34.332200  6391 net.cpp:165] Memory required for data: 6179089764
I1214 19:53:34.332204  6391 layer_factory.hpp:77] Creating layer bn3d_branch2a
I1214 19:53:34.332212  6391 net.cpp:100] Creating Layer bn3d_branch2a
I1214 19:53:34.332217  6391 net.cpp:444] bn3d_branch2a <- res3d_branch2a
I1214 19:53:34.332221  6391 net.cpp:405] bn3d_branch2a -> res3d_branch2a (in-place)
I1214 19:53:34.332386  6391 net.cpp:150] Setting up bn3d_branch2a
I1214 19:53:34.332393  6391 net.cpp:157] Top shape: 1 128 143 210 (3843840)
I1214 19:53:34.332396  6391 net.cpp:165] Memory required for data: 6194465124
I1214 19:53:34.332412  6391 layer_factory.hpp:77] Creating layer scale3d_branch2a
I1214 19:53:34.332418  6391 net.cpp:100] Creating Layer scale3d_branch2a
I1214 19:53:34.332422  6391 net.cpp:444] scale3d_branch2a <- res3d_branch2a
I1214 19:53:34.332427  6391 net.cpp:405] scale3d_branch2a -> res3d_branch2a (in-place)
I1214 19:53:34.332464  6391 layer_factory.hpp:77] Creating layer scale3d_branch2a
I1214 19:53:34.333029  6391 net.cpp:150] Setting up scale3d_branch2a
I1214 19:53:34.333040  6391 net.cpp:157] Top shape: 1 128 143 210 (3843840)
I1214 19:53:34.333045  6391 net.cpp:165] Memory required for data: 6209840484
I1214 19:53:34.333050  6391 layer_factory.hpp:77] Creating layer res3d_branch2a_relu
I1214 19:53:34.333056  6391 net.cpp:100] Creating Layer res3d_branch2a_relu
I1214 19:53:34.333060  6391 net.cpp:444] res3d_branch2a_relu <- res3d_branch2a
I1214 19:53:34.333065  6391 net.cpp:405] res3d_branch2a_relu -> res3d_branch2a (in-place)
I1214 19:53:34.333070  6391 net.cpp:150] Setting up res3d_branch2a_relu
I1214 19:53:34.333075  6391 net.cpp:157] Top shape: 1 128 143 210 (3843840)
I1214 19:53:34.333077  6391 net.cpp:165] Memory required for data: 6225215844
I1214 19:53:34.333081  6391 layer_factory.hpp:77] Creating layer res3d_branch2b
I1214 19:53:34.333088  6391 net.cpp:100] Creating Layer res3d_branch2b
I1214 19:53:34.333094  6391 net.cpp:444] res3d_branch2b <- res3d_branch2a
I1214 19:53:34.333101  6391 net.cpp:418] res3d_branch2b -> res3d_branch2b
I1214 19:53:34.333775  6391 net.cpp:150] Setting up res3d_branch2b
I1214 19:53:34.333786  6391 net.cpp:157] Top shape: 1 128 143 210 (3843840)
I1214 19:53:34.333789  6391 net.cpp:165] Memory required for data: 6240591204
I1214 19:53:34.333793  6391 layer_factory.hpp:77] Creating layer bn3d_branch2b
I1214 19:53:34.333801  6391 net.cpp:100] Creating Layer bn3d_branch2b
I1214 19:53:34.333806  6391 net.cpp:444] bn3d_branch2b <- res3d_branch2b
I1214 19:53:34.333809  6391 net.cpp:405] bn3d_branch2b -> res3d_branch2b (in-place)
I1214 19:53:34.333981  6391 net.cpp:150] Setting up bn3d_branch2b
I1214 19:53:34.333988  6391 net.cpp:157] Top shape: 1 128 143 210 (3843840)
I1214 19:53:34.333991  6391 net.cpp:165] Memory required for data: 6255966564
I1214 19:53:34.333997  6391 layer_factory.hpp:77] Creating layer scale3d_branch2b
I1214 19:53:34.334003  6391 net.cpp:100] Creating Layer scale3d_branch2b
I1214 19:53:34.334007  6391 net.cpp:444] scale3d_branch2b <- res3d_branch2b
I1214 19:53:34.334013  6391 net.cpp:405] scale3d_branch2b -> res3d_branch2b (in-place)
I1214 19:53:34.334048  6391 layer_factory.hpp:77] Creating layer scale3d_branch2b
I1214 19:53:34.334180  6391 net.cpp:150] Setting up scale3d_branch2b
I1214 19:53:34.334188  6391 net.cpp:157] Top shape: 1 128 143 210 (3843840)
I1214 19:53:34.334192  6391 net.cpp:165] Memory required for data: 6271341924
I1214 19:53:34.334197  6391 layer_factory.hpp:77] Creating layer res3d_branch2b_relu
I1214 19:53:34.334202  6391 net.cpp:100] Creating Layer res3d_branch2b_relu
I1214 19:53:34.334204  6391 net.cpp:444] res3d_branch2b_relu <- res3d_branch2b
I1214 19:53:34.334210  6391 net.cpp:405] res3d_branch2b_relu -> res3d_branch2b (in-place)
I1214 19:53:34.334216  6391 net.cpp:150] Setting up res3d_branch2b_relu
I1214 19:53:34.334220  6391 net.cpp:157] Top shape: 1 128 143 210 (3843840)
I1214 19:53:34.334223  6391 net.cpp:165] Memory required for data: 6286717284
I1214 19:53:34.334226  6391 layer_factory.hpp:77] Creating layer res3d_branch2c
I1214 19:53:34.334233  6391 net.cpp:100] Creating Layer res3d_branch2c
I1214 19:53:34.334237  6391 net.cpp:444] res3d_branch2c <- res3d_branch2b
I1214 19:53:34.334242  6391 net.cpp:418] res3d_branch2c -> res3d_branch2c
I1214 19:53:34.334452  6391 net.cpp:150] Setting up res3d_branch2c
I1214 19:53:34.334460  6391 net.cpp:157] Top shape: 1 512 143 210 (15375360)
I1214 19:53:34.334463  6391 net.cpp:165] Memory required for data: 6348218724
I1214 19:53:34.334468  6391 layer_factory.hpp:77] Creating layer bn3d_branch2c
I1214 19:53:34.334475  6391 net.cpp:100] Creating Layer bn3d_branch2c
I1214 19:53:34.334477  6391 net.cpp:444] bn3d_branch2c <- res3d_branch2c
I1214 19:53:34.334486  6391 net.cpp:405] bn3d_branch2c -> res3d_branch2c (in-place)
I1214 19:53:34.334663  6391 net.cpp:150] Setting up bn3d_branch2c
I1214 19:53:34.334671  6391 net.cpp:157] Top shape: 1 512 143 210 (15375360)
I1214 19:53:34.334674  6391 net.cpp:165] Memory required for data: 6409720164
I1214 19:53:34.334681  6391 layer_factory.hpp:77] Creating layer scale3d_branch2c
I1214 19:53:34.334688  6391 net.cpp:100] Creating Layer scale3d_branch2c
I1214 19:53:34.334692  6391 net.cpp:444] scale3d_branch2c <- res3d_branch2c
I1214 19:53:34.334697  6391 net.cpp:405] scale3d_branch2c -> res3d_branch2c (in-place)
I1214 19:53:34.334730  6391 layer_factory.hpp:77] Creating layer scale3d_branch2c
I1214 19:53:34.335305  6391 net.cpp:150] Setting up scale3d_branch2c
I1214 19:53:34.335316  6391 net.cpp:157] Top shape: 1 512 143 210 (15375360)
I1214 19:53:34.335319  6391 net.cpp:165] Memory required for data: 6471221604
I1214 19:53:34.335325  6391 layer_factory.hpp:77] Creating layer res3d
I1214 19:53:34.335330  6391 net.cpp:100] Creating Layer res3d
I1214 19:53:34.335335  6391 net.cpp:444] res3d <- res3c_res3c_relu_0_split_1
I1214 19:53:34.335338  6391 net.cpp:444] res3d <- res3d_branch2c
I1214 19:53:34.335345  6391 net.cpp:418] res3d -> res3d
I1214 19:53:34.335367  6391 net.cpp:150] Setting up res3d
I1214 19:53:34.335376  6391 net.cpp:157] Top shape: 1 512 143 210 (15375360)
I1214 19:53:34.335379  6391 net.cpp:165] Memory required for data: 6532723044
I1214 19:53:34.335381  6391 layer_factory.hpp:77] Creating layer res3d_relu
I1214 19:53:34.335386  6391 net.cpp:100] Creating Layer res3d_relu
I1214 19:53:34.335389  6391 net.cpp:444] res3d_relu <- res3d
I1214 19:53:34.335393  6391 net.cpp:405] res3d_relu -> res3d (in-place)
I1214 19:53:34.335398  6391 net.cpp:150] Setting up res3d_relu
I1214 19:53:34.335402  6391 net.cpp:157] Top shape: 1 512 143 210 (15375360)
I1214 19:53:34.335404  6391 net.cpp:165] Memory required for data: 6594224484
I1214 19:53:34.335407  6391 layer_factory.hpp:77] Creating layer res3d_res3d_relu_0_split
I1214 19:53:34.335412  6391 net.cpp:100] Creating Layer res3d_res3d_relu_0_split
I1214 19:53:34.335414  6391 net.cpp:444] res3d_res3d_relu_0_split <- res3d
I1214 19:53:34.335419  6391 net.cpp:418] res3d_res3d_relu_0_split -> res3d_res3d_relu_0_split_0
I1214 19:53:34.335425  6391 net.cpp:418] res3d_res3d_relu_0_split -> res3d_res3d_relu_0_split_1
I1214 19:53:34.335455  6391 net.cpp:150] Setting up res3d_res3d_relu_0_split
I1214 19:53:34.335463  6391 net.cpp:157] Top shape: 1 512 143 210 (15375360)
I1214 19:53:34.335465  6391 net.cpp:157] Top shape: 1 512 143 210 (15375360)
I1214 19:53:34.335469  6391 net.cpp:165] Memory required for data: 6717227364
I1214 19:53:34.335471  6391 layer_factory.hpp:77] Creating layer res4a_branch1
I1214 19:53:34.335479  6391 net.cpp:100] Creating Layer res4a_branch1
I1214 19:53:34.335481  6391 net.cpp:444] res4a_branch1 <- res3d_res3d_relu_0_split_0
I1214 19:53:34.335486  6391 net.cpp:418] res4a_branch1 -> res4a_branch1
I1214 19:53:34.336709  6391 net.cpp:150] Setting up res4a_branch1
I1214 19:53:34.336721  6391 net.cpp:157] Top shape: 1 1024 72 105 (7741440)
I1214 19:53:34.336724  6391 net.cpp:165] Memory required for data: 6748193124
I1214 19:53:34.336730  6391 layer_factory.hpp:77] Creating layer bn4a_branch1
I1214 19:53:34.336735  6391 net.cpp:100] Creating Layer bn4a_branch1
I1214 19:53:34.336738  6391 net.cpp:444] bn4a_branch1 <- res4a_branch1
I1214 19:53:34.336743  6391 net.cpp:405] bn4a_branch1 -> res4a_branch1 (in-place)
I1214 19:53:34.336913  6391 net.cpp:150] Setting up bn4a_branch1
I1214 19:53:34.336922  6391 net.cpp:157] Top shape: 1 1024 72 105 (7741440)
I1214 19:53:34.336925  6391 net.cpp:165] Memory required for data: 6779158884
I1214 19:53:34.336932  6391 layer_factory.hpp:77] Creating layer scale4a_branch1
I1214 19:53:34.336941  6391 net.cpp:100] Creating Layer scale4a_branch1
I1214 19:53:34.336944  6391 net.cpp:444] scale4a_branch1 <- res4a_branch1
I1214 19:53:34.336949  6391 net.cpp:405] scale4a_branch1 -> res4a_branch1 (in-place)
I1214 19:53:34.336983  6391 layer_factory.hpp:77] Creating layer scale4a_branch1
I1214 19:53:34.337112  6391 net.cpp:150] Setting up scale4a_branch1
I1214 19:53:34.337121  6391 net.cpp:157] Top shape: 1 1024 72 105 (7741440)
I1214 19:53:34.337123  6391 net.cpp:165] Memory required for data: 6810124644
I1214 19:53:34.337129  6391 layer_factory.hpp:77] Creating layer res4a_branch2a
I1214 19:53:34.337138  6391 net.cpp:100] Creating Layer res4a_branch2a
I1214 19:53:34.337142  6391 net.cpp:444] res4a_branch2a <- res3d_res3d_relu_0_split_1
I1214 19:53:34.337148  6391 net.cpp:418] res4a_branch2a -> res4a_branch2a
I1214 19:53:34.337400  6391 net.cpp:150] Setting up res4a_branch2a
I1214 19:53:34.337409  6391 net.cpp:157] Top shape: 1 256 72 105 (1935360)
I1214 19:53:34.337411  6391 net.cpp:165] Memory required for data: 6817866084
I1214 19:53:34.337416  6391 layer_factory.hpp:77] Creating layer bn4a_branch2a
I1214 19:53:34.337422  6391 net.cpp:100] Creating Layer bn4a_branch2a
I1214 19:53:34.337425  6391 net.cpp:444] bn4a_branch2a <- res4a_branch2a
I1214 19:53:34.337430  6391 net.cpp:405] bn4a_branch2a -> res4a_branch2a (in-place)
I1214 19:53:34.337600  6391 net.cpp:150] Setting up bn4a_branch2a
I1214 19:53:34.337608  6391 net.cpp:157] Top shape: 1 256 72 105 (1935360)
I1214 19:53:34.337611  6391 net.cpp:165] Memory required for data: 6825607524
I1214 19:53:34.337617  6391 layer_factory.hpp:77] Creating layer scale4a_branch2a
I1214 19:53:34.337626  6391 net.cpp:100] Creating Layer scale4a_branch2a
I1214 19:53:34.337630  6391 net.cpp:444] scale4a_branch2a <- res4a_branch2a
I1214 19:53:34.337635  6391 net.cpp:405] scale4a_branch2a -> res4a_branch2a (in-place)
I1214 19:53:34.337672  6391 layer_factory.hpp:77] Creating layer scale4a_branch2a
I1214 19:53:34.337785  6391 net.cpp:150] Setting up scale4a_branch2a
I1214 19:53:34.337792  6391 net.cpp:157] Top shape: 1 256 72 105 (1935360)
I1214 19:53:34.337795  6391 net.cpp:165] Memory required for data: 6833348964
I1214 19:53:34.337800  6391 layer_factory.hpp:77] Creating layer res4a_branch2a_relu
I1214 19:53:34.337808  6391 net.cpp:100] Creating Layer res4a_branch2a_relu
I1214 19:53:34.337811  6391 net.cpp:444] res4a_branch2a_relu <- res4a_branch2a
I1214 19:53:34.337817  6391 net.cpp:405] res4a_branch2a_relu -> res4a_branch2a (in-place)
I1214 19:53:34.337823  6391 net.cpp:150] Setting up res4a_branch2a_relu
I1214 19:53:34.337827  6391 net.cpp:157] Top shape: 1 256 72 105 (1935360)
I1214 19:53:34.337831  6391 net.cpp:165] Memory required for data: 6841090404
I1214 19:53:34.337833  6391 layer_factory.hpp:77] Creating layer res4a_branch2b
I1214 19:53:34.337839  6391 net.cpp:100] Creating Layer res4a_branch2b
I1214 19:53:34.337842  6391 net.cpp:444] res4a_branch2b <- res4a_branch2a
I1214 19:53:34.337848  6391 net.cpp:418] res4a_branch2b -> res4a_branch2b
I1214 19:53:34.339185  6391 net.cpp:150] Setting up res4a_branch2b
I1214 19:53:34.339197  6391 net.cpp:157] Top shape: 1 256 72 105 (1935360)
I1214 19:53:34.339201  6391 net.cpp:165] Memory required for data: 6848831844
I1214 19:53:34.339206  6391 layer_factory.hpp:77] Creating layer bn4a_branch2b
I1214 19:53:34.339212  6391 net.cpp:100] Creating Layer bn4a_branch2b
I1214 19:53:34.339215  6391 net.cpp:444] bn4a_branch2b <- res4a_branch2b
I1214 19:53:34.339221  6391 net.cpp:405] bn4a_branch2b -> res4a_branch2b (in-place)
I1214 19:53:34.339395  6391 net.cpp:150] Setting up bn4a_branch2b
I1214 19:53:34.339403  6391 net.cpp:157] Top shape: 1 256 72 105 (1935360)
I1214 19:53:34.339406  6391 net.cpp:165] Memory required for data: 6856573284
I1214 19:53:34.339413  6391 layer_factory.hpp:77] Creating layer scale4a_branch2b
I1214 19:53:34.339421  6391 net.cpp:100] Creating Layer scale4a_branch2b
I1214 19:53:34.339426  6391 net.cpp:444] scale4a_branch2b <- res4a_branch2b
I1214 19:53:34.339432  6391 net.cpp:405] scale4a_branch2b -> res4a_branch2b (in-place)
I1214 19:53:34.339469  6391 layer_factory.hpp:77] Creating layer scale4a_branch2b
I1214 19:53:34.339584  6391 net.cpp:150] Setting up scale4a_branch2b
I1214 19:53:34.339596  6391 net.cpp:157] Top shape: 1 256 72 105 (1935360)
I1214 19:53:34.339599  6391 net.cpp:165] Memory required for data: 6864314724
I1214 19:53:34.339606  6391 layer_factory.hpp:77] Creating layer res4a_branch2b_relu
I1214 19:53:34.339613  6391 net.cpp:100] Creating Layer res4a_branch2b_relu
I1214 19:53:34.339617  6391 net.cpp:444] res4a_branch2b_relu <- res4a_branch2b
I1214 19:53:34.339620  6391 net.cpp:405] res4a_branch2b_relu -> res4a_branch2b (in-place)
I1214 19:53:34.339628  6391 net.cpp:150] Setting up res4a_branch2b_relu
I1214 19:53:34.339632  6391 net.cpp:157] Top shape: 1 256 72 105 (1935360)
I1214 19:53:34.339635  6391 net.cpp:165] Memory required for data: 6872056164
I1214 19:53:34.339638  6391 layer_factory.hpp:77] Creating layer res4a_branch2c
I1214 19:53:34.339645  6391 net.cpp:100] Creating Layer res4a_branch2c
I1214 19:53:34.339651  6391 net.cpp:444] res4a_branch2c <- res4a_branch2b
I1214 19:53:34.339658  6391 net.cpp:418] res4a_branch2c -> res4a_branch2c
I1214 19:53:34.340414  6391 net.cpp:150] Setting up res4a_branch2c
I1214 19:53:34.340425  6391 net.cpp:157] Top shape: 1 1024 72 105 (7741440)
I1214 19:53:34.340427  6391 net.cpp:165] Memory required for data: 6903021924
I1214 19:53:34.340432  6391 layer_factory.hpp:77] Creating layer bn4a_branch2c
I1214 19:53:34.340438  6391 net.cpp:100] Creating Layer bn4a_branch2c
I1214 19:53:34.340441  6391 net.cpp:444] bn4a_branch2c <- res4a_branch2c
I1214 19:53:34.340446  6391 net.cpp:405] bn4a_branch2c -> res4a_branch2c (in-place)
I1214 19:53:34.340610  6391 net.cpp:150] Setting up bn4a_branch2c
I1214 19:53:34.340617  6391 net.cpp:157] Top shape: 1 1024 72 105 (7741440)
I1214 19:53:34.340620  6391 net.cpp:165] Memory required for data: 6933987684
I1214 19:53:34.340626  6391 layer_factory.hpp:77] Creating layer scale4a_branch2c
I1214 19:53:34.340634  6391 net.cpp:100] Creating Layer scale4a_branch2c
I1214 19:53:34.340638  6391 net.cpp:444] scale4a_branch2c <- res4a_branch2c
I1214 19:53:34.340642  6391 net.cpp:405] scale4a_branch2c -> res4a_branch2c (in-place)
I1214 19:53:34.340677  6391 layer_factory.hpp:77] Creating layer scale4a_branch2c
I1214 19:53:34.340790  6391 net.cpp:150] Setting up scale4a_branch2c
I1214 19:53:34.340797  6391 net.cpp:157] Top shape: 1 1024 72 105 (7741440)
I1214 19:53:34.340801  6391 net.cpp:165] Memory required for data: 6964953444
I1214 19:53:34.340806  6391 layer_factory.hpp:77] Creating layer res4a
I1214 19:53:34.340816  6391 net.cpp:100] Creating Layer res4a
I1214 19:53:34.340821  6391 net.cpp:444] res4a <- res4a_branch1
I1214 19:53:34.340826  6391 net.cpp:444] res4a <- res4a_branch2c
I1214 19:53:34.340829  6391 net.cpp:418] res4a -> res4a
I1214 19:53:34.340850  6391 net.cpp:150] Setting up res4a
I1214 19:53:34.340857  6391 net.cpp:157] Top shape: 1 1024 72 105 (7741440)
I1214 19:53:34.340860  6391 net.cpp:165] Memory required for data: 6995919204
I1214 19:53:34.340863  6391 layer_factory.hpp:77] Creating layer res4a_relu
I1214 19:53:34.340868  6391 net.cpp:100] Creating Layer res4a_relu
I1214 19:53:34.340872  6391 net.cpp:444] res4a_relu <- res4a
I1214 19:53:34.340876  6391 net.cpp:405] res4a_relu -> res4a (in-place)
I1214 19:53:34.340883  6391 net.cpp:150] Setting up res4a_relu
I1214 19:53:34.340886  6391 net.cpp:157] Top shape: 1 1024 72 105 (7741440)
I1214 19:53:34.340888  6391 net.cpp:165] Memory required for data: 7026884964
I1214 19:53:34.340891  6391 layer_factory.hpp:77] Creating layer res4a_res4a_relu_0_split
I1214 19:53:34.340896  6391 net.cpp:100] Creating Layer res4a_res4a_relu_0_split
I1214 19:53:34.340898  6391 net.cpp:444] res4a_res4a_relu_0_split <- res4a
I1214 19:53:34.340903  6391 net.cpp:418] res4a_res4a_relu_0_split -> res4a_res4a_relu_0_split_0
I1214 19:53:34.340919  6391 net.cpp:418] res4a_res4a_relu_0_split -> res4a_res4a_relu_0_split_1
I1214 19:53:34.340950  6391 net.cpp:150] Setting up res4a_res4a_relu_0_split
I1214 19:53:34.340956  6391 net.cpp:157] Top shape: 1 1024 72 105 (7741440)
I1214 19:53:34.340960  6391 net.cpp:157] Top shape: 1 1024 72 105 (7741440)
I1214 19:53:34.340963  6391 net.cpp:165] Memory required for data: 7088816484
I1214 19:53:34.340966  6391 layer_factory.hpp:77] Creating layer res4b_branch2a
I1214 19:53:34.340973  6391 net.cpp:100] Creating Layer res4b_branch2a
I1214 19:53:34.340976  6391 net.cpp:444] res4b_branch2a <- res4a_res4a_relu_0_split_0
I1214 19:53:34.340982  6391 net.cpp:418] res4b_branch2a -> res4b_branch2a
I1214 19:53:34.341719  6391 net.cpp:150] Setting up res4b_branch2a
I1214 19:53:34.341732  6391 net.cpp:157] Top shape: 1 256 72 105 (1935360)
I1214 19:53:34.341735  6391 net.cpp:165] Memory required for data: 7096557924
I1214 19:53:34.341740  6391 layer_factory.hpp:77] Creating layer bn4b_branch2a
I1214 19:53:34.341747  6391 net.cpp:100] Creating Layer bn4b_branch2a
I1214 19:53:34.341750  6391 net.cpp:444] bn4b_branch2a <- res4b_branch2a
I1214 19:53:34.341758  6391 net.cpp:405] bn4b_branch2a -> res4b_branch2a (in-place)
I1214 19:53:34.341927  6391 net.cpp:150] Setting up bn4b_branch2a
I1214 19:53:34.341934  6391 net.cpp:157] Top shape: 1 256 72 105 (1935360)
I1214 19:53:34.341938  6391 net.cpp:165] Memory required for data: 7104299364
I1214 19:53:34.341943  6391 layer_factory.hpp:77] Creating layer scale4b_branch2a
I1214 19:53:34.341951  6391 net.cpp:100] Creating Layer scale4b_branch2a
I1214 19:53:34.341954  6391 net.cpp:444] scale4b_branch2a <- res4b_branch2a
I1214 19:53:34.341959  6391 net.cpp:405] scale4b_branch2a -> res4b_branch2a (in-place)
I1214 19:53:34.341996  6391 layer_factory.hpp:77] Creating layer scale4b_branch2a
I1214 19:53:34.342109  6391 net.cpp:150] Setting up scale4b_branch2a
I1214 19:53:34.342118  6391 net.cpp:157] Top shape: 1 256 72 105 (1935360)
I1214 19:53:34.342123  6391 net.cpp:165] Memory required for data: 7112040804
I1214 19:53:34.342128  6391 layer_factory.hpp:77] Creating layer res4b_branch2a_relu
I1214 19:53:34.342133  6391 net.cpp:100] Creating Layer res4b_branch2a_relu
I1214 19:53:34.342135  6391 net.cpp:444] res4b_branch2a_relu <- res4b_branch2a
I1214 19:53:34.342139  6391 net.cpp:405] res4b_branch2a_relu -> res4b_branch2a (in-place)
I1214 19:53:34.342145  6391 net.cpp:150] Setting up res4b_branch2a_relu
I1214 19:53:34.342149  6391 net.cpp:157] Top shape: 1 256 72 105 (1935360)
I1214 19:53:34.342152  6391 net.cpp:165] Memory required for data: 7119782244
I1214 19:53:34.342155  6391 layer_factory.hpp:77] Creating layer res4b_branch2b
I1214 19:53:34.342164  6391 net.cpp:100] Creating Layer res4b_branch2b
I1214 19:53:34.342166  6391 net.cpp:444] res4b_branch2b <- res4b_branch2a
I1214 19:53:34.342172  6391 net.cpp:418] res4b_branch2b -> res4b_branch2b
I1214 19:53:34.343503  6391 net.cpp:150] Setting up res4b_branch2b
I1214 19:53:34.343515  6391 net.cpp:157] Top shape: 1 256 72 105 (1935360)
I1214 19:53:34.343518  6391 net.cpp:165] Memory required for data: 7127523684
I1214 19:53:34.343523  6391 layer_factory.hpp:77] Creating layer bn4b_branch2b
I1214 19:53:34.343529  6391 net.cpp:100] Creating Layer bn4b_branch2b
I1214 19:53:34.343533  6391 net.cpp:444] bn4b_branch2b <- res4b_branch2b
I1214 19:53:34.343539  6391 net.cpp:405] bn4b_branch2b -> res4b_branch2b (in-place)
I1214 19:53:34.343715  6391 net.cpp:150] Setting up bn4b_branch2b
I1214 19:53:34.343724  6391 net.cpp:157] Top shape: 1 256 72 105 (1935360)
I1214 19:53:34.343727  6391 net.cpp:165] Memory required for data: 7135265124
I1214 19:53:34.343734  6391 layer_factory.hpp:77] Creating layer scale4b_branch2b
I1214 19:53:34.343740  6391 net.cpp:100] Creating Layer scale4b_branch2b
I1214 19:53:34.343744  6391 net.cpp:444] scale4b_branch2b <- res4b_branch2b
I1214 19:53:34.343749  6391 net.cpp:405] scale4b_branch2b -> res4b_branch2b (in-place)
I1214 19:53:34.343785  6391 layer_factory.hpp:77] Creating layer scale4b_branch2b
I1214 19:53:34.343902  6391 net.cpp:150] Setting up scale4b_branch2b
I1214 19:53:34.343912  6391 net.cpp:157] Top shape: 1 256 72 105 (1935360)
I1214 19:53:34.343915  6391 net.cpp:165] Memory required for data: 7143006564
I1214 19:53:34.343921  6391 layer_factory.hpp:77] Creating layer res4b_branch2b_relu
I1214 19:53:34.343926  6391 net.cpp:100] Creating Layer res4b_branch2b_relu
I1214 19:53:34.343930  6391 net.cpp:444] res4b_branch2b_relu <- res4b_branch2b
I1214 19:53:34.343933  6391 net.cpp:405] res4b_branch2b_relu -> res4b_branch2b (in-place)
I1214 19:53:34.343940  6391 net.cpp:150] Setting up res4b_branch2b_relu
I1214 19:53:34.343943  6391 net.cpp:157] Top shape: 1 256 72 105 (1935360)
I1214 19:53:34.343946  6391 net.cpp:165] Memory required for data: 7150748004
I1214 19:53:34.343950  6391 layer_factory.hpp:77] Creating layer res4b_branch2c
I1214 19:53:34.343956  6391 net.cpp:100] Creating Layer res4b_branch2c
I1214 19:53:34.343961  6391 net.cpp:444] res4b_branch2c <- res4b_branch2b
I1214 19:53:34.343967  6391 net.cpp:418] res4b_branch2c -> res4b_branch2c
I1214 19:53:34.344707  6391 net.cpp:150] Setting up res4b_branch2c
I1214 19:53:34.344719  6391 net.cpp:157] Top shape: 1 1024 72 105 (7741440)
I1214 19:53:34.344722  6391 net.cpp:165] Memory required for data: 7181713764
I1214 19:53:34.344727  6391 layer_factory.hpp:77] Creating layer bn4b_branch2c
I1214 19:53:34.344734  6391 net.cpp:100] Creating Layer bn4b_branch2c
I1214 19:53:34.344738  6391 net.cpp:444] bn4b_branch2c <- res4b_branch2c
I1214 19:53:34.344744  6391 net.cpp:405] bn4b_branch2c -> res4b_branch2c (in-place)
I1214 19:53:34.344920  6391 net.cpp:150] Setting up bn4b_branch2c
I1214 19:53:34.344928  6391 net.cpp:157] Top shape: 1 1024 72 105 (7741440)
I1214 19:53:34.344931  6391 net.cpp:165] Memory required for data: 7212679524
I1214 19:53:34.344938  6391 layer_factory.hpp:77] Creating layer scale4b_branch2c
I1214 19:53:34.344944  6391 net.cpp:100] Creating Layer scale4b_branch2c
I1214 19:53:34.344949  6391 net.cpp:444] scale4b_branch2c <- res4b_branch2c
I1214 19:53:34.344952  6391 net.cpp:405] scale4b_branch2c -> res4b_branch2c (in-place)
I1214 19:53:34.344987  6391 layer_factory.hpp:77] Creating layer scale4b_branch2c
I1214 19:53:34.345535  6391 net.cpp:150] Setting up scale4b_branch2c
I1214 19:53:34.345546  6391 net.cpp:157] Top shape: 1 1024 72 105 (7741440)
I1214 19:53:34.345548  6391 net.cpp:165] Memory required for data: 7243645284
I1214 19:53:34.345554  6391 layer_factory.hpp:77] Creating layer res4b
I1214 19:53:34.345561  6391 net.cpp:100] Creating Layer res4b
I1214 19:53:34.345563  6391 net.cpp:444] res4b <- res4a_res4a_relu_0_split_1
I1214 19:53:34.345568  6391 net.cpp:444] res4b <- res4b_branch2c
I1214 19:53:34.345572  6391 net.cpp:418] res4b -> res4b
I1214 19:53:34.345599  6391 net.cpp:150] Setting up res4b
I1214 19:53:34.345608  6391 net.cpp:157] Top shape: 1 1024 72 105 (7741440)
I1214 19:53:34.345612  6391 net.cpp:165] Memory required for data: 7274611044
I1214 19:53:34.345614  6391 layer_factory.hpp:77] Creating layer res4b_relu
I1214 19:53:34.345619  6391 net.cpp:100] Creating Layer res4b_relu
I1214 19:53:34.345623  6391 net.cpp:444] res4b_relu <- res4b
I1214 19:53:34.345626  6391 net.cpp:405] res4b_relu -> res4b (in-place)
I1214 19:53:34.345631  6391 net.cpp:150] Setting up res4b_relu
I1214 19:53:34.345635  6391 net.cpp:157] Top shape: 1 1024 72 105 (7741440)
I1214 19:53:34.345638  6391 net.cpp:165] Memory required for data: 7305576804
I1214 19:53:34.345641  6391 layer_factory.hpp:77] Creating layer res4b_res4b_relu_0_split
I1214 19:53:34.345646  6391 net.cpp:100] Creating Layer res4b_res4b_relu_0_split
I1214 19:53:34.345649  6391 net.cpp:444] res4b_res4b_relu_0_split <- res4b
I1214 19:53:34.345654  6391 net.cpp:418] res4b_res4b_relu_0_split -> res4b_res4b_relu_0_split_0
I1214 19:53:34.345660  6391 net.cpp:418] res4b_res4b_relu_0_split -> res4b_res4b_relu_0_split_1
I1214 19:53:34.345690  6391 net.cpp:150] Setting up res4b_res4b_relu_0_split
I1214 19:53:34.345697  6391 net.cpp:157] Top shape: 1 1024 72 105 (7741440)
I1214 19:53:34.345701  6391 net.cpp:157] Top shape: 1 1024 72 105 (7741440)
I1214 19:53:34.345703  6391 net.cpp:165] Memory required for data: 7367508324
I1214 19:53:34.345707  6391 layer_factory.hpp:77] Creating layer res4c_branch2a
I1214 19:53:34.345715  6391 net.cpp:100] Creating Layer res4c_branch2a
I1214 19:53:34.345719  6391 net.cpp:444] res4c_branch2a <- res4b_res4b_relu_0_split_0
I1214 19:53:34.345723  6391 net.cpp:418] res4c_branch2a -> res4c_branch2a
I1214 19:53:34.346467  6391 net.cpp:150] Setting up res4c_branch2a
I1214 19:53:34.346478  6391 net.cpp:157] Top shape: 1 256 72 105 (1935360)
I1214 19:53:34.346482  6391 net.cpp:165] Memory required for data: 7375249764
I1214 19:53:34.346487  6391 layer_factory.hpp:77] Creating layer bn4c_branch2a
I1214 19:53:34.346494  6391 net.cpp:100] Creating Layer bn4c_branch2a
I1214 19:53:34.346498  6391 net.cpp:444] bn4c_branch2a <- res4c_branch2a
I1214 19:53:34.346503  6391 net.cpp:405] bn4c_branch2a -> res4c_branch2a (in-place)
I1214 19:53:34.346681  6391 net.cpp:150] Setting up bn4c_branch2a
I1214 19:53:34.346689  6391 net.cpp:157] Top shape: 1 256 72 105 (1935360)
I1214 19:53:34.346693  6391 net.cpp:165] Memory required for data: 7382991204
I1214 19:53:34.346699  6391 layer_factory.hpp:77] Creating layer scale4c_branch2a
I1214 19:53:34.346706  6391 net.cpp:100] Creating Layer scale4c_branch2a
I1214 19:53:34.346711  6391 net.cpp:444] scale4c_branch2a <- res4c_branch2a
I1214 19:53:34.346716  6391 net.cpp:405] scale4c_branch2a -> res4c_branch2a (in-place)
I1214 19:53:34.346755  6391 layer_factory.hpp:77] Creating layer scale4c_branch2a
I1214 19:53:34.346866  6391 net.cpp:150] Setting up scale4c_branch2a
I1214 19:53:34.346874  6391 net.cpp:157] Top shape: 1 256 72 105 (1935360)
I1214 19:53:34.346878  6391 net.cpp:165] Memory required for data: 7390732644
I1214 19:53:34.346884  6391 layer_factory.hpp:77] Creating layer res4c_branch2a_relu
I1214 19:53:34.346889  6391 net.cpp:100] Creating Layer res4c_branch2a_relu
I1214 19:53:34.346894  6391 net.cpp:444] res4c_branch2a_relu <- res4c_branch2a
I1214 19:53:34.346897  6391 net.cpp:405] res4c_branch2a_relu -> res4c_branch2a (in-place)
I1214 19:53:34.346902  6391 net.cpp:150] Setting up res4c_branch2a_relu
I1214 19:53:34.346907  6391 net.cpp:157] Top shape: 1 256 72 105 (1935360)
I1214 19:53:34.346910  6391 net.cpp:165] Memory required for data: 7398474084
I1214 19:53:34.346912  6391 layer_factory.hpp:77] Creating layer res4c_branch2b
I1214 19:53:34.346921  6391 net.cpp:100] Creating Layer res4c_branch2b
I1214 19:53:34.346925  6391 net.cpp:444] res4c_branch2b <- res4c_branch2a
I1214 19:53:34.346928  6391 net.cpp:418] res4c_branch2b -> res4c_branch2b
I1214 19:53:34.348285  6391 net.cpp:150] Setting up res4c_branch2b
I1214 19:53:34.348299  6391 net.cpp:157] Top shape: 1 256 72 105 (1935360)
I1214 19:53:34.348301  6391 net.cpp:165] Memory required for data: 7406215524
I1214 19:53:34.348306  6391 layer_factory.hpp:77] Creating layer bn4c_branch2b
I1214 19:53:34.348315  6391 net.cpp:100] Creating Layer bn4c_branch2b
I1214 19:53:34.348318  6391 net.cpp:444] bn4c_branch2b <- res4c_branch2b
I1214 19:53:34.348323  6391 net.cpp:405] bn4c_branch2b -> res4c_branch2b (in-place)
I1214 19:53:34.348498  6391 net.cpp:150] Setting up bn4c_branch2b
I1214 19:53:34.348506  6391 net.cpp:157] Top shape: 1 256 72 105 (1935360)
I1214 19:53:34.348510  6391 net.cpp:165] Memory required for data: 7413956964
I1214 19:53:34.348516  6391 layer_factory.hpp:77] Creating layer scale4c_branch2b
I1214 19:53:34.348526  6391 net.cpp:100] Creating Layer scale4c_branch2b
I1214 19:53:34.348529  6391 net.cpp:444] scale4c_branch2b <- res4c_branch2b
I1214 19:53:34.348533  6391 net.cpp:405] scale4c_branch2b -> res4c_branch2b (in-place)
I1214 19:53:34.348572  6391 layer_factory.hpp:77] Creating layer scale4c_branch2b
I1214 19:53:34.348686  6391 net.cpp:150] Setting up scale4c_branch2b
I1214 19:53:34.348695  6391 net.cpp:157] Top shape: 1 256 72 105 (1935360)
I1214 19:53:34.348697  6391 net.cpp:165] Memory required for data: 7421698404
I1214 19:53:34.348703  6391 layer_factory.hpp:77] Creating layer res4c_branch2b_relu
I1214 19:53:34.348711  6391 net.cpp:100] Creating Layer res4c_branch2b_relu
I1214 19:53:34.348716  6391 net.cpp:444] res4c_branch2b_relu <- res4c_branch2b
I1214 19:53:34.348719  6391 net.cpp:405] res4c_branch2b_relu -> res4c_branch2b (in-place)
I1214 19:53:34.348726  6391 net.cpp:150] Setting up res4c_branch2b_relu
I1214 19:53:34.348729  6391 net.cpp:157] Top shape: 1 256 72 105 (1935360)
I1214 19:53:34.348732  6391 net.cpp:165] Memory required for data: 7429439844
I1214 19:53:34.348736  6391 layer_factory.hpp:77] Creating layer res4c_branch2c
I1214 19:53:34.348743  6391 net.cpp:100] Creating Layer res4c_branch2c
I1214 19:53:34.348747  6391 net.cpp:444] res4c_branch2c <- res4c_branch2b
I1214 19:53:34.348752  6391 net.cpp:418] res4c_branch2c -> res4c_branch2c
I1214 19:53:34.349498  6391 net.cpp:150] Setting up res4c_branch2c
I1214 19:53:34.349509  6391 net.cpp:157] Top shape: 1 1024 72 105 (7741440)
I1214 19:53:34.349512  6391 net.cpp:165] Memory required for data: 7460405604
I1214 19:53:34.349517  6391 layer_factory.hpp:77] Creating layer bn4c_branch2c
I1214 19:53:34.349524  6391 net.cpp:100] Creating Layer bn4c_branch2c
I1214 19:53:34.349529  6391 net.cpp:444] bn4c_branch2c <- res4c_branch2c
I1214 19:53:34.349532  6391 net.cpp:405] bn4c_branch2c -> res4c_branch2c (in-place)
I1214 19:53:34.349705  6391 net.cpp:150] Setting up bn4c_branch2c
I1214 19:53:34.349714  6391 net.cpp:157] Top shape: 1 1024 72 105 (7741440)
I1214 19:53:34.349716  6391 net.cpp:165] Memory required for data: 7491371364
I1214 19:53:34.349723  6391 layer_factory.hpp:77] Creating layer scale4c_branch2c
I1214 19:53:34.349732  6391 net.cpp:100] Creating Layer scale4c_branch2c
I1214 19:53:34.349737  6391 net.cpp:444] scale4c_branch2c <- res4c_branch2c
I1214 19:53:34.349742  6391 net.cpp:405] scale4c_branch2c -> res4c_branch2c (in-place)
I1214 19:53:34.349778  6391 layer_factory.hpp:77] Creating layer scale4c_branch2c
I1214 19:53:34.349889  6391 net.cpp:150] Setting up scale4c_branch2c
I1214 19:53:34.349896  6391 net.cpp:157] Top shape: 1 1024 72 105 (7741440)
I1214 19:53:34.349900  6391 net.cpp:165] Memory required for data: 7522337124
I1214 19:53:34.349905  6391 layer_factory.hpp:77] Creating layer res4c
I1214 19:53:34.349911  6391 net.cpp:100] Creating Layer res4c
I1214 19:53:34.349916  6391 net.cpp:444] res4c <- res4b_res4b_relu_0_split_1
I1214 19:53:34.349920  6391 net.cpp:444] res4c <- res4c_branch2c
I1214 19:53:34.349925  6391 net.cpp:418] res4c -> res4c
I1214 19:53:34.349948  6391 net.cpp:150] Setting up res4c
I1214 19:53:34.349956  6391 net.cpp:157] Top shape: 1 1024 72 105 (7741440)
I1214 19:53:34.349958  6391 net.cpp:165] Memory required for data: 7553302884
I1214 19:53:34.349961  6391 layer_factory.hpp:77] Creating layer res4c_relu
I1214 19:53:34.349966  6391 net.cpp:100] Creating Layer res4c_relu
I1214 19:53:34.349968  6391 net.cpp:444] res4c_relu <- res4c
I1214 19:53:34.349975  6391 net.cpp:405] res4c_relu -> res4c (in-place)
I1214 19:53:34.349982  6391 net.cpp:150] Setting up res4c_relu
I1214 19:53:34.349987  6391 net.cpp:157] Top shape: 1 1024 72 105 (7741440)
I1214 19:53:34.349988  6391 net.cpp:165] Memory required for data: 7584268644
I1214 19:53:34.349992  6391 layer_factory.hpp:77] Creating layer res4c_res4c_relu_0_split
I1214 19:53:34.349997  6391 net.cpp:100] Creating Layer res4c_res4c_relu_0_split
I1214 19:53:34.349998  6391 net.cpp:444] res4c_res4c_relu_0_split <- res4c
I1214 19:53:34.350003  6391 net.cpp:418] res4c_res4c_relu_0_split -> res4c_res4c_relu_0_split_0
I1214 19:53:34.350008  6391 net.cpp:418] res4c_res4c_relu_0_split -> res4c_res4c_relu_0_split_1
I1214 19:53:34.350039  6391 net.cpp:150] Setting up res4c_res4c_relu_0_split
I1214 19:53:34.350046  6391 net.cpp:157] Top shape: 1 1024 72 105 (7741440)
I1214 19:53:34.350049  6391 net.cpp:157] Top shape: 1 1024 72 105 (7741440)
I1214 19:53:34.350052  6391 net.cpp:165] Memory required for data: 7646200164
I1214 19:53:34.350055  6391 layer_factory.hpp:77] Creating layer res4d_branch2a
I1214 19:53:34.350062  6391 net.cpp:100] Creating Layer res4d_branch2a
I1214 19:53:34.350065  6391 net.cpp:444] res4d_branch2a <- res4c_res4c_relu_0_split_0
I1214 19:53:34.350071  6391 net.cpp:418] res4d_branch2a -> res4d_branch2a
I1214 19:53:34.350821  6391 net.cpp:150] Setting up res4d_branch2a
I1214 19:53:34.350832  6391 net.cpp:157] Top shape: 1 256 72 105 (1935360)
I1214 19:53:34.350836  6391 net.cpp:165] Memory required for data: 7653941604
I1214 19:53:34.350841  6391 layer_factory.hpp:77] Creating layer bn4d_branch2a
I1214 19:53:34.350847  6391 net.cpp:100] Creating Layer bn4d_branch2a
I1214 19:53:34.350850  6391 net.cpp:444] bn4d_branch2a <- res4d_branch2a
I1214 19:53:34.350855  6391 net.cpp:405] bn4d_branch2a -> res4d_branch2a (in-place)
I1214 19:53:34.351025  6391 net.cpp:150] Setting up bn4d_branch2a
I1214 19:53:34.351033  6391 net.cpp:157] Top shape: 1 256 72 105 (1935360)
I1214 19:53:34.351035  6391 net.cpp:165] Memory required for data: 7661683044
I1214 19:53:34.351043  6391 layer_factory.hpp:77] Creating layer scale4d_branch2a
I1214 19:53:34.351050  6391 net.cpp:100] Creating Layer scale4d_branch2a
I1214 19:53:34.351055  6391 net.cpp:444] scale4d_branch2a <- res4d_branch2a
I1214 19:53:34.351060  6391 net.cpp:405] scale4d_branch2a -> res4d_branch2a (in-place)
I1214 19:53:34.351099  6391 layer_factory.hpp:77] Creating layer scale4d_branch2a
I1214 19:53:34.351208  6391 net.cpp:150] Setting up scale4d_branch2a
I1214 19:53:34.351217  6391 net.cpp:157] Top shape: 1 256 72 105 (1935360)
I1214 19:53:34.351219  6391 net.cpp:165] Memory required for data: 7669424484
I1214 19:53:34.351225  6391 layer_factory.hpp:77] Creating layer res4d_branch2a_relu
I1214 19:53:34.351233  6391 net.cpp:100] Creating Layer res4d_branch2a_relu
I1214 19:53:34.351238  6391 net.cpp:444] res4d_branch2a_relu <- res4d_branch2a
I1214 19:53:34.351241  6391 net.cpp:405] res4d_branch2a_relu -> res4d_branch2a (in-place)
I1214 19:53:34.351248  6391 net.cpp:150] Setting up res4d_branch2a_relu
I1214 19:53:34.351253  6391 net.cpp:157] Top shape: 1 256 72 105 (1935360)
I1214 19:53:34.351255  6391 net.cpp:165] Memory required for data: 7677165924
I1214 19:53:34.351258  6391 layer_factory.hpp:77] Creating layer res4d_branch2b
I1214 19:53:34.351265  6391 net.cpp:100] Creating Layer res4d_branch2b
I1214 19:53:34.351269  6391 net.cpp:444] res4d_branch2b <- res4d_branch2a
I1214 19:53:34.351274  6391 net.cpp:418] res4d_branch2b -> res4d_branch2b
I1214 19:53:34.352612  6391 net.cpp:150] Setting up res4d_branch2b
I1214 19:53:34.352623  6391 net.cpp:157] Top shape: 1 256 72 105 (1935360)
I1214 19:53:34.352627  6391 net.cpp:165] Memory required for data: 7684907364
I1214 19:53:34.352630  6391 layer_factory.hpp:77] Creating layer bn4d_branch2b
I1214 19:53:34.352638  6391 net.cpp:100] Creating Layer bn4d_branch2b
I1214 19:53:34.352640  6391 net.cpp:444] bn4d_branch2b <- res4d_branch2b
I1214 19:53:34.352645  6391 net.cpp:405] bn4d_branch2b -> res4d_branch2b (in-place)
I1214 19:53:34.352812  6391 net.cpp:150] Setting up bn4d_branch2b
I1214 19:53:34.352818  6391 net.cpp:157] Top shape: 1 256 72 105 (1935360)
I1214 19:53:34.352821  6391 net.cpp:165] Memory required for data: 7692648804
I1214 19:53:34.352828  6391 layer_factory.hpp:77] Creating layer scale4d_branch2b
I1214 19:53:34.352835  6391 net.cpp:100] Creating Layer scale4d_branch2b
I1214 19:53:34.352839  6391 net.cpp:444] scale4d_branch2b <- res4d_branch2b
I1214 19:53:34.352843  6391 net.cpp:405] scale4d_branch2b -> res4d_branch2b (in-place)
I1214 19:53:34.352880  6391 layer_factory.hpp:77] Creating layer scale4d_branch2b
I1214 19:53:34.352991  6391 net.cpp:150] Setting up scale4d_branch2b
I1214 19:53:34.353008  6391 net.cpp:157] Top shape: 1 256 72 105 (1935360)
I1214 19:53:34.353013  6391 net.cpp:165] Memory required for data: 7700390244
I1214 19:53:34.353018  6391 layer_factory.hpp:77] Creating layer res4d_branch2b_relu
I1214 19:53:34.353024  6391 net.cpp:100] Creating Layer res4d_branch2b_relu
I1214 19:53:34.353029  6391 net.cpp:444] res4d_branch2b_relu <- res4d_branch2b
I1214 19:53:34.353034  6391 net.cpp:405] res4d_branch2b_relu -> res4d_branch2b (in-place)
I1214 19:53:34.353040  6391 net.cpp:150] Setting up res4d_branch2b_relu
I1214 19:53:34.353044  6391 net.cpp:157] Top shape: 1 256 72 105 (1935360)
I1214 19:53:34.353047  6391 net.cpp:165] Memory required for data: 7708131684
I1214 19:53:34.353050  6391 layer_factory.hpp:77] Creating layer res4d_branch2c
I1214 19:53:34.353057  6391 net.cpp:100] Creating Layer res4d_branch2c
I1214 19:53:34.353060  6391 net.cpp:444] res4d_branch2c <- res4d_branch2b
I1214 19:53:34.353066  6391 net.cpp:418] res4d_branch2c -> res4d_branch2c
I1214 19:53:34.353804  6391 net.cpp:150] Setting up res4d_branch2c
I1214 19:53:34.353816  6391 net.cpp:157] Top shape: 1 1024 72 105 (7741440)
I1214 19:53:34.353819  6391 net.cpp:165] Memory required for data: 7739097444
I1214 19:53:34.353824  6391 layer_factory.hpp:77] Creating layer bn4d_branch2c
I1214 19:53:34.353830  6391 net.cpp:100] Creating Layer bn4d_branch2c
I1214 19:53:34.353834  6391 net.cpp:444] bn4d_branch2c <- res4d_branch2c
I1214 19:53:34.353838  6391 net.cpp:405] bn4d_branch2c -> res4d_branch2c (in-place)
I1214 19:53:34.354012  6391 net.cpp:150] Setting up bn4d_branch2c
I1214 19:53:34.354019  6391 net.cpp:157] Top shape: 1 1024 72 105 (7741440)
I1214 19:53:34.354022  6391 net.cpp:165] Memory required for data: 7770063204
I1214 19:53:34.354028  6391 layer_factory.hpp:77] Creating layer scale4d_branch2c
I1214 19:53:34.354037  6391 net.cpp:100] Creating Layer scale4d_branch2c
I1214 19:53:34.354041  6391 net.cpp:444] scale4d_branch2c <- res4d_branch2c
I1214 19:53:34.354045  6391 net.cpp:405] scale4d_branch2c -> res4d_branch2c (in-place)
I1214 19:53:34.354081  6391 layer_factory.hpp:77] Creating layer scale4d_branch2c
I1214 19:53:34.354195  6391 net.cpp:150] Setting up scale4d_branch2c
I1214 19:53:34.354203  6391 net.cpp:157] Top shape: 1 1024 72 105 (7741440)
I1214 19:53:34.354207  6391 net.cpp:165] Memory required for data: 7801028964
I1214 19:53:34.354212  6391 layer_factory.hpp:77] Creating layer res4d
I1214 19:53:34.354221  6391 net.cpp:100] Creating Layer res4d
I1214 19:53:34.354225  6391 net.cpp:444] res4d <- res4c_res4c_relu_0_split_1
I1214 19:53:34.354229  6391 net.cpp:444] res4d <- res4d_branch2c
I1214 19:53:34.354234  6391 net.cpp:418] res4d -> res4d
I1214 19:53:34.354256  6391 net.cpp:150] Setting up res4d
I1214 19:53:34.354264  6391 net.cpp:157] Top shape: 1 1024 72 105 (7741440)
I1214 19:53:34.354266  6391 net.cpp:165] Memory required for data: 7831994724
I1214 19:53:34.354269  6391 layer_factory.hpp:77] Creating layer res4d_relu
I1214 19:53:34.354279  6391 net.cpp:100] Creating Layer res4d_relu
I1214 19:53:34.354282  6391 net.cpp:444] res4d_relu <- res4d
I1214 19:53:34.354286  6391 net.cpp:405] res4d_relu -> res4d (in-place)
I1214 19:53:34.354292  6391 net.cpp:150] Setting up res4d_relu
I1214 19:53:34.354296  6391 net.cpp:157] Top shape: 1 1024 72 105 (7741440)
I1214 19:53:34.354300  6391 net.cpp:165] Memory required for data: 7862960484
I1214 19:53:34.354302  6391 layer_factory.hpp:77] Creating layer res4d_res4d_relu_0_split
I1214 19:53:34.354307  6391 net.cpp:100] Creating Layer res4d_res4d_relu_0_split
I1214 19:53:34.354310  6391 net.cpp:444] res4d_res4d_relu_0_split <- res4d
I1214 19:53:34.354315  6391 net.cpp:418] res4d_res4d_relu_0_split -> res4d_res4d_relu_0_split_0
I1214 19:53:34.354320  6391 net.cpp:418] res4d_res4d_relu_0_split -> res4d_res4d_relu_0_split_1
I1214 19:53:34.354351  6391 net.cpp:150] Setting up res4d_res4d_relu_0_split
I1214 19:53:34.354358  6391 net.cpp:157] Top shape: 1 1024 72 105 (7741440)
I1214 19:53:34.354362  6391 net.cpp:157] Top shape: 1 1024 72 105 (7741440)
I1214 19:53:34.354365  6391 net.cpp:165] Memory required for data: 7924892004
I1214 19:53:34.354368  6391 layer_factory.hpp:77] Creating layer res4e_branch2a
I1214 19:53:34.354375  6391 net.cpp:100] Creating Layer res4e_branch2a
I1214 19:53:34.354378  6391 net.cpp:444] res4e_branch2a <- res4d_res4d_relu_0_split_0
I1214 19:53:34.354384  6391 net.cpp:418] res4e_branch2a -> res4e_branch2a
I1214 19:53:34.355223  6391 net.cpp:150] Setting up res4e_branch2a
I1214 19:53:34.355237  6391 net.cpp:157] Top shape: 1 256 72 105 (1935360)
I1214 19:53:34.355239  6391 net.cpp:165] Memory required for data: 7932633444
I1214 19:53:34.355244  6391 layer_factory.hpp:77] Creating layer bn4e_branch2a
I1214 19:53:34.355250  6391 net.cpp:100] Creating Layer bn4e_branch2a
I1214 19:53:34.355253  6391 net.cpp:444] bn4e_branch2a <- res4e_branch2a
I1214 19:53:34.355258  6391 net.cpp:405] bn4e_branch2a -> res4e_branch2a (in-place)
I1214 19:53:34.355428  6391 net.cpp:150] Setting up bn4e_branch2a
I1214 19:53:34.355435  6391 net.cpp:157] Top shape: 1 256 72 105 (1935360)
I1214 19:53:34.355438  6391 net.cpp:165] Memory required for data: 7940374884
I1214 19:53:34.355445  6391 layer_factory.hpp:77] Creating layer scale4e_branch2a
I1214 19:53:34.355453  6391 net.cpp:100] Creating Layer scale4e_branch2a
I1214 19:53:34.355456  6391 net.cpp:444] scale4e_branch2a <- res4e_branch2a
I1214 19:53:34.355460  6391 net.cpp:405] scale4e_branch2a -> res4e_branch2a (in-place)
I1214 19:53:34.355499  6391 layer_factory.hpp:77] Creating layer scale4e_branch2a
I1214 19:53:34.355613  6391 net.cpp:150] Setting up scale4e_branch2a
I1214 19:53:34.355621  6391 net.cpp:157] Top shape: 1 256 72 105 (1935360)
I1214 19:53:34.355624  6391 net.cpp:165] Memory required for data: 7948116324
I1214 19:53:34.355629  6391 layer_factory.hpp:77] Creating layer res4e_branch2a_relu
I1214 19:53:34.355634  6391 net.cpp:100] Creating Layer res4e_branch2a_relu
I1214 19:53:34.355638  6391 net.cpp:444] res4e_branch2a_relu <- res4e_branch2a
I1214 19:53:34.355643  6391 net.cpp:405] res4e_branch2a_relu -> res4e_branch2a (in-place)
I1214 19:53:34.355649  6391 net.cpp:150] Setting up res4e_branch2a_relu
I1214 19:53:34.355654  6391 net.cpp:157] Top shape: 1 256 72 105 (1935360)
I1214 19:53:34.355656  6391 net.cpp:165] Memory required for data: 7955857764
I1214 19:53:34.355659  6391 layer_factory.hpp:77] Creating layer res4e_branch2b
I1214 19:53:34.355665  6391 net.cpp:100] Creating Layer res4e_branch2b
I1214 19:53:34.355669  6391 net.cpp:444] res4e_branch2b <- res4e_branch2a
I1214 19:53:34.355674  6391 net.cpp:418] res4e_branch2b -> res4e_branch2b
I1214 19:53:34.357040  6391 net.cpp:150] Setting up res4e_branch2b
I1214 19:53:34.357054  6391 net.cpp:157] Top shape: 1 256 72 105 (1935360)
I1214 19:53:34.357058  6391 net.cpp:165] Memory required for data: 7963599204
I1214 19:53:34.357062  6391 layer_factory.hpp:77] Creating layer bn4e_branch2b
I1214 19:53:34.357069  6391 net.cpp:100] Creating Layer bn4e_branch2b
I1214 19:53:34.357074  6391 net.cpp:444] bn4e_branch2b <- res4e_branch2b
I1214 19:53:34.357079  6391 net.cpp:405] bn4e_branch2b -> res4e_branch2b (in-place)
I1214 19:53:34.357266  6391 net.cpp:150] Setting up bn4e_branch2b
I1214 19:53:34.357275  6391 net.cpp:157] Top shape: 1 256 72 105 (1935360)
I1214 19:53:34.357278  6391 net.cpp:165] Memory required for data: 7971340644
I1214 19:53:34.357285  6391 layer_factory.hpp:77] Creating layer scale4e_branch2b
I1214 19:53:34.357292  6391 net.cpp:100] Creating Layer scale4e_branch2b
I1214 19:53:34.357295  6391 net.cpp:444] scale4e_branch2b <- res4e_branch2b
I1214 19:53:34.357300  6391 net.cpp:405] scale4e_branch2b -> res4e_branch2b (in-place)
I1214 19:53:34.357343  6391 layer_factory.hpp:77] Creating layer scale4e_branch2b
I1214 19:53:34.357465  6391 net.cpp:150] Setting up scale4e_branch2b
I1214 19:53:34.357472  6391 net.cpp:157] Top shape: 1 256 72 105 (1935360)
I1214 19:53:34.357475  6391 net.cpp:165] Memory required for data: 7979082084
I1214 19:53:34.357482  6391 layer_factory.hpp:77] Creating layer res4e_branch2b_relu
I1214 19:53:34.357487  6391 net.cpp:100] Creating Layer res4e_branch2b_relu
I1214 19:53:34.357491  6391 net.cpp:444] res4e_branch2b_relu <- res4e_branch2b
I1214 19:53:34.357497  6391 net.cpp:405] res4e_branch2b_relu -> res4e_branch2b (in-place)
I1214 19:53:34.357504  6391 net.cpp:150] Setting up res4e_branch2b_relu
I1214 19:53:34.357509  6391 net.cpp:157] Top shape: 1 256 72 105 (1935360)
I1214 19:53:34.357512  6391 net.cpp:165] Memory required for data: 7986823524
I1214 19:53:34.357516  6391 layer_factory.hpp:77] Creating layer res4e_branch2c
I1214 19:53:34.357522  6391 net.cpp:100] Creating Layer res4e_branch2c
I1214 19:53:34.357527  6391 net.cpp:444] res4e_branch2c <- res4e_branch2b
I1214 19:53:34.357534  6391 net.cpp:418] res4e_branch2c -> res4e_branch2c
I1214 19:53:34.358300  6391 net.cpp:150] Setting up res4e_branch2c
I1214 19:53:34.358311  6391 net.cpp:157] Top shape: 1 1024 72 105 (7741440)
I1214 19:53:34.358314  6391 net.cpp:165] Memory required for data: 8017789284
I1214 19:53:34.358319  6391 layer_factory.hpp:77] Creating layer bn4e_branch2c
I1214 19:53:34.358325  6391 net.cpp:100] Creating Layer bn4e_branch2c
I1214 19:53:34.358328  6391 net.cpp:444] bn4e_branch2c <- res4e_branch2c
I1214 19:53:34.358333  6391 net.cpp:405] bn4e_branch2c -> res4e_branch2c (in-place)
I1214 19:53:34.358507  6391 net.cpp:150] Setting up bn4e_branch2c
I1214 19:53:34.358515  6391 net.cpp:157] Top shape: 1 1024 72 105 (7741440)
I1214 19:53:34.358517  6391 net.cpp:165] Memory required for data: 8048755044
I1214 19:53:34.358525  6391 layer_factory.hpp:77] Creating layer scale4e_branch2c
I1214 19:53:34.358532  6391 net.cpp:100] Creating Layer scale4e_branch2c
I1214 19:53:34.358536  6391 net.cpp:444] scale4e_branch2c <- res4e_branch2c
I1214 19:53:34.358539  6391 net.cpp:405] scale4e_branch2c -> res4e_branch2c (in-place)
I1214 19:53:34.358575  6391 layer_factory.hpp:77] Creating layer scale4e_branch2c
I1214 19:53:34.358688  6391 net.cpp:150] Setting up scale4e_branch2c
I1214 19:53:34.358696  6391 net.cpp:157] Top shape: 1 1024 72 105 (7741440)
I1214 19:53:34.358700  6391 net.cpp:165] Memory required for data: 8079720804
I1214 19:53:34.358705  6391 layer_factory.hpp:77] Creating layer res4e
I1214 19:53:34.358711  6391 net.cpp:100] Creating Layer res4e
I1214 19:53:34.358713  6391 net.cpp:444] res4e <- res4d_res4d_relu_0_split_1
I1214 19:53:34.358717  6391 net.cpp:444] res4e <- res4e_branch2c
I1214 19:53:34.358723  6391 net.cpp:418] res4e -> res4e
I1214 19:53:34.358746  6391 net.cpp:150] Setting up res4e
I1214 19:53:34.358752  6391 net.cpp:157] Top shape: 1 1024 72 105 (7741440)
I1214 19:53:34.358755  6391 net.cpp:165] Memory required for data: 8110686564
I1214 19:53:34.358758  6391 layer_factory.hpp:77] Creating layer res4e_relu
I1214 19:53:34.358767  6391 net.cpp:100] Creating Layer res4e_relu
I1214 19:53:34.358772  6391 net.cpp:444] res4e_relu <- res4e
I1214 19:53:34.358777  6391 net.cpp:405] res4e_relu -> res4e (in-place)
I1214 19:53:34.358781  6391 net.cpp:150] Setting up res4e_relu
I1214 19:53:34.358785  6391 net.cpp:157] Top shape: 1 1024 72 105 (7741440)
I1214 19:53:34.358788  6391 net.cpp:165] Memory required for data: 8141652324
I1214 19:53:34.358790  6391 layer_factory.hpp:77] Creating layer res4e_res4e_relu_0_split
I1214 19:53:34.358795  6391 net.cpp:100] Creating Layer res4e_res4e_relu_0_split
I1214 19:53:34.358798  6391 net.cpp:444] res4e_res4e_relu_0_split <- res4e
I1214 19:53:34.358801  6391 net.cpp:418] res4e_res4e_relu_0_split -> res4e_res4e_relu_0_split_0
I1214 19:53:34.358806  6391 net.cpp:418] res4e_res4e_relu_0_split -> res4e_res4e_relu_0_split_1
I1214 19:53:34.358839  6391 net.cpp:150] Setting up res4e_res4e_relu_0_split
I1214 19:53:34.358845  6391 net.cpp:157] Top shape: 1 1024 72 105 (7741440)
I1214 19:53:34.358850  6391 net.cpp:157] Top shape: 1 1024 72 105 (7741440)
I1214 19:53:34.358851  6391 net.cpp:165] Memory required for data: 8203583844
I1214 19:53:34.358855  6391 layer_factory.hpp:77] Creating layer res4f_branch2a
I1214 19:53:34.358862  6391 net.cpp:100] Creating Layer res4f_branch2a
I1214 19:53:34.358865  6391 net.cpp:444] res4f_branch2a <- res4e_res4e_relu_0_split_0
I1214 19:53:34.358870  6391 net.cpp:418] res4f_branch2a -> res4f_branch2a
I1214 19:53:34.359627  6391 net.cpp:150] Setting up res4f_branch2a
I1214 19:53:34.359639  6391 net.cpp:157] Top shape: 1 256 72 105 (1935360)
I1214 19:53:34.359642  6391 net.cpp:165] Memory required for data: 8211325284
I1214 19:53:34.359647  6391 layer_factory.hpp:77] Creating layer bn4f_branch2a
I1214 19:53:34.359653  6391 net.cpp:100] Creating Layer bn4f_branch2a
I1214 19:53:34.359658  6391 net.cpp:444] bn4f_branch2a <- res4f_branch2a
I1214 19:53:34.359664  6391 net.cpp:405] bn4f_branch2a -> res4f_branch2a (in-place)
I1214 19:53:34.359840  6391 net.cpp:150] Setting up bn4f_branch2a
I1214 19:53:34.359848  6391 net.cpp:157] Top shape: 1 256 72 105 (1935360)
I1214 19:53:34.359851  6391 net.cpp:165] Memory required for data: 8219066724
I1214 19:53:34.359858  6391 layer_factory.hpp:77] Creating layer scale4f_branch2a
I1214 19:53:34.359866  6391 net.cpp:100] Creating Layer scale4f_branch2a
I1214 19:53:34.359869  6391 net.cpp:444] scale4f_branch2a <- res4f_branch2a
I1214 19:53:34.359874  6391 net.cpp:405] scale4f_branch2a -> res4f_branch2a (in-place)
I1214 19:53:34.359911  6391 layer_factory.hpp:77] Creating layer scale4f_branch2a
I1214 19:53:34.360024  6391 net.cpp:150] Setting up scale4f_branch2a
I1214 19:53:34.360033  6391 net.cpp:157] Top shape: 1 256 72 105 (1935360)
I1214 19:53:34.360035  6391 net.cpp:165] Memory required for data: 8226808164
I1214 19:53:34.360041  6391 layer_factory.hpp:77] Creating layer res4f_branch2a_relu
I1214 19:53:34.360049  6391 net.cpp:100] Creating Layer res4f_branch2a_relu
I1214 19:53:34.360051  6391 net.cpp:444] res4f_branch2a_relu <- res4f_branch2a
I1214 19:53:34.360055  6391 net.cpp:405] res4f_branch2a_relu -> res4f_branch2a (in-place)
I1214 19:53:34.360061  6391 net.cpp:150] Setting up res4f_branch2a_relu
I1214 19:53:34.360065  6391 net.cpp:157] Top shape: 1 256 72 105 (1935360)
I1214 19:53:34.360069  6391 net.cpp:165] Memory required for data: 8234549604
I1214 19:53:34.360071  6391 layer_factory.hpp:77] Creating layer res4f_branch2b
I1214 19:53:34.360080  6391 net.cpp:100] Creating Layer res4f_branch2b
I1214 19:53:34.360085  6391 net.cpp:444] res4f_branch2b <- res4f_branch2a
I1214 19:53:34.360090  6391 net.cpp:418] res4f_branch2b -> res4f_branch2b
I1214 19:53:34.361430  6391 net.cpp:150] Setting up res4f_branch2b
I1214 19:53:34.361443  6391 net.cpp:157] Top shape: 1 256 72 105 (1935360)
I1214 19:53:34.361445  6391 net.cpp:165] Memory required for data: 8242291044
I1214 19:53:34.361451  6391 layer_factory.hpp:77] Creating layer bn4f_branch2b
I1214 19:53:34.361457  6391 net.cpp:100] Creating Layer bn4f_branch2b
I1214 19:53:34.361460  6391 net.cpp:444] bn4f_branch2b <- res4f_branch2b
I1214 19:53:34.361467  6391 net.cpp:405] bn4f_branch2b -> res4f_branch2b (in-place)
I1214 19:53:34.361647  6391 net.cpp:150] Setting up bn4f_branch2b
I1214 19:53:34.361654  6391 net.cpp:157] Top shape: 1 256 72 105 (1935360)
I1214 19:53:34.361657  6391 net.cpp:165] Memory required for data: 8250032484
I1214 19:53:34.361665  6391 layer_factory.hpp:77] Creating layer scale4f_branch2b
I1214 19:53:34.361670  6391 net.cpp:100] Creating Layer scale4f_branch2b
I1214 19:53:34.361673  6391 net.cpp:444] scale4f_branch2b <- res4f_branch2b
I1214 19:53:34.361678  6391 net.cpp:405] scale4f_branch2b -> res4f_branch2b (in-place)
I1214 19:53:34.361716  6391 layer_factory.hpp:77] Creating layer scale4f_branch2b
I1214 19:53:34.361836  6391 net.cpp:150] Setting up scale4f_branch2b
I1214 19:53:34.361845  6391 net.cpp:157] Top shape: 1 256 72 105 (1935360)
I1214 19:53:34.361847  6391 net.cpp:165] Memory required for data: 8257773924
I1214 19:53:34.361853  6391 layer_factory.hpp:77] Creating layer res4f_branch2b_relu
I1214 19:53:34.361860  6391 net.cpp:100] Creating Layer res4f_branch2b_relu
I1214 19:53:34.361863  6391 net.cpp:444] res4f_branch2b_relu <- res4f_branch2b
I1214 19:53:34.361868  6391 net.cpp:405] res4f_branch2b_relu -> res4f_branch2b (in-place)
I1214 19:53:34.361873  6391 net.cpp:150] Setting up res4f_branch2b_relu
I1214 19:53:34.361877  6391 net.cpp:157] Top shape: 1 256 72 105 (1935360)
I1214 19:53:34.361881  6391 net.cpp:165] Memory required for data: 8265515364
I1214 19:53:34.361883  6391 layer_factory.hpp:77] Creating layer res4f_branch2c
I1214 19:53:34.361901  6391 net.cpp:100] Creating Layer res4f_branch2c
I1214 19:53:34.361906  6391 net.cpp:444] res4f_branch2c <- res4f_branch2b
I1214 19:53:34.361910  6391 net.cpp:418] res4f_branch2c -> res4f_branch2c
I1214 19:53:34.362638  6391 net.cpp:150] Setting up res4f_branch2c
I1214 19:53:34.362650  6391 net.cpp:157] Top shape: 1 1024 72 105 (7741440)
I1214 19:53:34.362653  6391 net.cpp:165] Memory required for data: 8296481124
I1214 19:53:34.362658  6391 layer_factory.hpp:77] Creating layer bn4f_branch2c
I1214 19:53:34.362664  6391 net.cpp:100] Creating Layer bn4f_branch2c
I1214 19:53:34.362668  6391 net.cpp:444] bn4f_branch2c <- res4f_branch2c
I1214 19:53:34.362674  6391 net.cpp:405] bn4f_branch2c -> res4f_branch2c (in-place)
I1214 19:53:34.363289  6391 net.cpp:150] Setting up bn4f_branch2c
I1214 19:53:34.363301  6391 net.cpp:157] Top shape: 1 1024 72 105 (7741440)
I1214 19:53:34.363303  6391 net.cpp:165] Memory required for data: 8327446884
I1214 19:53:34.363325  6391 layer_factory.hpp:77] Creating layer scale4f_branch2c
I1214 19:53:34.363332  6391 net.cpp:100] Creating Layer scale4f_branch2c
I1214 19:53:34.363337  6391 net.cpp:444] scale4f_branch2c <- res4f_branch2c
I1214 19:53:34.363342  6391 net.cpp:405] scale4f_branch2c -> res4f_branch2c (in-place)
I1214 19:53:34.363382  6391 layer_factory.hpp:77] Creating layer scale4f_branch2c
I1214 19:53:34.363502  6391 net.cpp:150] Setting up scale4f_branch2c
I1214 19:53:34.363510  6391 net.cpp:157] Top shape: 1 1024 72 105 (7741440)
I1214 19:53:34.363513  6391 net.cpp:165] Memory required for data: 8358412644
I1214 19:53:34.363519  6391 layer_factory.hpp:77] Creating layer res4f
I1214 19:53:34.363526  6391 net.cpp:100] Creating Layer res4f
I1214 19:53:34.363534  6391 net.cpp:444] res4f <- res4e_res4e_relu_0_split_1
I1214 19:53:34.363538  6391 net.cpp:444] res4f <- res4f_branch2c
I1214 19:53:34.363543  6391 net.cpp:418] res4f -> res4f
I1214 19:53:34.363566  6391 net.cpp:150] Setting up res4f
I1214 19:53:34.363574  6391 net.cpp:157] Top shape: 1 1024 72 105 (7741440)
I1214 19:53:34.363576  6391 net.cpp:165] Memory required for data: 8389378404
I1214 19:53:34.363579  6391 layer_factory.hpp:77] Creating layer res4f_relu
I1214 19:53:34.363585  6391 net.cpp:100] Creating Layer res4f_relu
I1214 19:53:34.363589  6391 net.cpp:444] res4f_relu <- res4f
I1214 19:53:34.363596  6391 net.cpp:405] res4f_relu -> res4f (in-place)
I1214 19:53:34.363602  6391 net.cpp:150] Setting up res4f_relu
I1214 19:53:34.363607  6391 net.cpp:157] Top shape: 1 1024 72 105 (7741440)
I1214 19:53:34.363610  6391 net.cpp:165] Memory required for data: 8420344164
I1214 19:53:34.363612  6391 layer_factory.hpp:77] Creating layer res4f_res4f_relu_0_split
I1214 19:53:34.363617  6391 net.cpp:100] Creating Layer res4f_res4f_relu_0_split
I1214 19:53:34.363620  6391 net.cpp:444] res4f_res4f_relu_0_split <- res4f
I1214 19:53:34.363626  6391 net.cpp:418] res4f_res4f_relu_0_split -> res4f_res4f_relu_0_split_0
I1214 19:53:34.363631  6391 net.cpp:418] res4f_res4f_relu_0_split -> res4f_res4f_relu_0_split_1
I1214 19:53:34.363637  6391 net.cpp:418] res4f_res4f_relu_0_split -> res4f_res4f_relu_0_split_2
I1214 19:53:34.363680  6391 net.cpp:150] Setting up res4f_res4f_relu_0_split
I1214 19:53:34.363688  6391 net.cpp:157] Top shape: 1 1024 72 105 (7741440)
I1214 19:53:34.363692  6391 net.cpp:157] Top shape: 1 1024 72 105 (7741440)
I1214 19:53:34.363695  6391 net.cpp:157] Top shape: 1 1024 72 105 (7741440)
I1214 19:53:34.363698  6391 net.cpp:165] Memory required for data: 8513241444
I1214 19:53:34.363701  6391 layer_factory.hpp:77] Creating layer res5a_branch1
I1214 19:53:34.363709  6391 net.cpp:100] Creating Layer res5a_branch1
I1214 19:53:34.363714  6391 net.cpp:444] res5a_branch1 <- res4f_res4f_relu_0_split_0
I1214 19:53:34.363719  6391 net.cpp:418] res5a_branch1 -> res5a_branch1
I1214 19:53:34.368144  6391 net.cpp:150] Setting up res5a_branch1
I1214 19:53:34.368157  6391 net.cpp:157] Top shape: 1 2048 72 105 (15482880)
I1214 19:53:34.368160  6391 net.cpp:165] Memory required for data: 8575172964
I1214 19:53:34.368165  6391 layer_factory.hpp:77] Creating layer bn5a_branch1
I1214 19:53:34.368173  6391 net.cpp:100] Creating Layer bn5a_branch1
I1214 19:53:34.368177  6391 net.cpp:444] bn5a_branch1 <- res5a_branch1
I1214 19:53:34.368182  6391 net.cpp:405] bn5a_branch1 -> res5a_branch1 (in-place)
I1214 19:53:34.368360  6391 net.cpp:150] Setting up bn5a_branch1
I1214 19:53:34.368368  6391 net.cpp:157] Top shape: 1 2048 72 105 (15482880)
I1214 19:53:34.368371  6391 net.cpp:165] Memory required for data: 8637104484
I1214 19:53:34.368378  6391 layer_factory.hpp:77] Creating layer scale5a_branch1
I1214 19:53:34.368387  6391 net.cpp:100] Creating Layer scale5a_branch1
I1214 19:53:34.368392  6391 net.cpp:444] scale5a_branch1 <- res5a_branch1
I1214 19:53:34.368397  6391 net.cpp:405] scale5a_branch1 -> res5a_branch1 (in-place)
I1214 19:53:34.368435  6391 layer_factory.hpp:77] Creating layer scale5a_branch1
I1214 19:53:34.368554  6391 net.cpp:150] Setting up scale5a_branch1
I1214 19:53:34.368561  6391 net.cpp:157] Top shape: 1 2048 72 105 (15482880)
I1214 19:53:34.368564  6391 net.cpp:165] Memory required for data: 8699036004
I1214 19:53:34.368569  6391 layer_factory.hpp:77] Creating layer res5a_branch2a
I1214 19:53:34.368578  6391 net.cpp:100] Creating Layer res5a_branch2a
I1214 19:53:34.368584  6391 net.cpp:444] res5a_branch2a <- res4f_res4f_relu_0_split_1
I1214 19:53:34.368590  6391 net.cpp:418] res5a_branch2a -> res5a_branch2a
I1214 19:53:34.369776  6391 net.cpp:150] Setting up res5a_branch2a
I1214 19:53:34.369788  6391 net.cpp:157] Top shape: 1 512 72 105 (3870720)
I1214 19:53:34.369791  6391 net.cpp:165] Memory required for data: 8714518884
I1214 19:53:34.369796  6391 layer_factory.hpp:77] Creating layer bn5a_branch2a
I1214 19:53:34.369804  6391 net.cpp:100] Creating Layer bn5a_branch2a
I1214 19:53:34.369808  6391 net.cpp:444] bn5a_branch2a <- res5a_branch2a
I1214 19:53:34.369813  6391 net.cpp:405] bn5a_branch2a -> res5a_branch2a (in-place)
I1214 19:53:34.369992  6391 net.cpp:150] Setting up bn5a_branch2a
I1214 19:53:34.370002  6391 net.cpp:157] Top shape: 1 512 72 105 (3870720)
I1214 19:53:34.370004  6391 net.cpp:165] Memory required for data: 8730001764
I1214 19:53:34.370010  6391 layer_factory.hpp:77] Creating layer scale5a_branch2a
I1214 19:53:34.370018  6391 net.cpp:100] Creating Layer scale5a_branch2a
I1214 19:53:34.370021  6391 net.cpp:444] scale5a_branch2a <- res5a_branch2a
I1214 19:53:34.370028  6391 net.cpp:405] scale5a_branch2a -> res5a_branch2a (in-place)
I1214 19:53:34.370062  6391 layer_factory.hpp:77] Creating layer scale5a_branch2a
I1214 19:53:34.370175  6391 net.cpp:150] Setting up scale5a_branch2a
I1214 19:53:34.370183  6391 net.cpp:157] Top shape: 1 512 72 105 (3870720)
I1214 19:53:34.370187  6391 net.cpp:165] Memory required for data: 8745484644
I1214 19:53:34.370192  6391 layer_factory.hpp:77] Creating layer res5a_branch2a_relu
I1214 19:53:34.370198  6391 net.cpp:100] Creating Layer res5a_branch2a_relu
I1214 19:53:34.370200  6391 net.cpp:444] res5a_branch2a_relu <- res5a_branch2a
I1214 19:53:34.370204  6391 net.cpp:405] res5a_branch2a_relu -> res5a_branch2a (in-place)
I1214 19:53:34.370209  6391 net.cpp:150] Setting up res5a_branch2a_relu
I1214 19:53:34.370213  6391 net.cpp:157] Top shape: 1 512 72 105 (3870720)
I1214 19:53:34.370216  6391 net.cpp:165] Memory required for data: 8760967524
I1214 19:53:34.370218  6391 layer_factory.hpp:77] Creating layer res5a_branch2b
I1214 19:53:34.370226  6391 net.cpp:100] Creating Layer res5a_branch2b
I1214 19:53:34.370232  6391 net.cpp:444] res5a_branch2b <- res5a_branch2a
I1214 19:53:34.370239  6391 net.cpp:418] res5a_branch2b -> res5a_branch2b
I1214 19:53:34.375166  6391 net.cpp:150] Setting up res5a_branch2b
I1214 19:53:34.375183  6391 net.cpp:157] Top shape: 1 512 72 105 (3870720)
I1214 19:53:34.375186  6391 net.cpp:165] Memory required for data: 8776450404
I1214 19:53:34.375191  6391 layer_factory.hpp:77] Creating layer bn5a_branch2b
I1214 19:53:34.375200  6391 net.cpp:100] Creating Layer bn5a_branch2b
I1214 19:53:34.375202  6391 net.cpp:444] bn5a_branch2b <- res5a_branch2b
I1214 19:53:34.375207  6391 net.cpp:405] bn5a_branch2b -> res5a_branch2b (in-place)
I1214 19:53:34.375389  6391 net.cpp:150] Setting up bn5a_branch2b
I1214 19:53:34.375397  6391 net.cpp:157] Top shape: 1 512 72 105 (3870720)
I1214 19:53:34.375401  6391 net.cpp:165] Memory required for data: 8791933284
I1214 19:53:34.375407  6391 layer_factory.hpp:77] Creating layer scale5a_branch2b
I1214 19:53:34.375413  6391 net.cpp:100] Creating Layer scale5a_branch2b
I1214 19:53:34.375417  6391 net.cpp:444] scale5a_branch2b <- res5a_branch2b
I1214 19:53:34.375425  6391 net.cpp:405] scale5a_branch2b -> res5a_branch2b (in-place)
I1214 19:53:34.375460  6391 layer_factory.hpp:77] Creating layer scale5a_branch2b
I1214 19:53:34.375579  6391 net.cpp:150] Setting up scale5a_branch2b
I1214 19:53:34.375586  6391 net.cpp:157] Top shape: 1 512 72 105 (3870720)
I1214 19:53:34.375589  6391 net.cpp:165] Memory required for data: 8807416164
I1214 19:53:34.375599  6391 layer_factory.hpp:77] Creating layer res5a_branch2b_relu
…
I1215 20:40:29.161526 66947 layer_factory.hpp:77] Creating layer scale4e_branch2b
I1215 20:40:29.161538 66947 net.cpp:100] Creating Layer scale4e_branch2b
I1215 20:40:29.161542 66947 net.cpp:444] scale4e_branch2b <- res4e_branch2b
I1215 20:40:29.161548 66947 net.cpp:405] scale4e_branch2b -> res4e_branch2b (in-place)
I1215 20:40:29.161592 66947 layer_factory.hpp:77] Creating layer scale4e_branch2b
I1215 20:40:29.161712 66947 net.cpp:150] Setting up scale4e_branch2b
I1215 20:40:29.161721 66947 net.cpp:157] Top shape: 1 256 14 14 (50176)
I1215 20:40:29.161725 66947 net.cpp:165] Memory required for data: 207527948
I1215 20:40:29.161732 66947 layer_factory.hpp:77] Creating layer res4e_branch2b_relu
I1215 20:40:29.161741 66947 net.cpp:100] Creating Layer res4e_branch2b_relu
I1215 20:40:29.161746 66947 net.cpp:444] res4e_branch2b_relu <- res4e_branch2b
I1215 20:40:29.161753 66947 net.cpp:405] res4e_branch2b_relu -> res4e_branch2b (in-place)
I1215 20:40:29.161761 66947 net.cpp:150] Setting up res4e_branch2b_relu
I1215 20:40:29.161767 66947 net.cpp:157] Top shape: 1 256 14 14 (50176)
I1215 20:40:29.161772 66947 net.cpp:165] Memory required for data: 207728652
I1215 20:40:29.161775 66947 layer_factory.hpp:77] Creating layer res4e_branch2c
I1215 20:40:29.161783 66947 net.cpp:100] Creating Layer res4e_branch2c
I1215 20:40:29.161788 66947 net.cpp:444] res4e_branch2c <- res4e_branch2b
I1215 20:40:29.161797 66947 net.cpp:418] res4e_branch2c -> res4e_branch2c
I1215 20:40:29.162711 66947 net.cpp:150] Setting up res4e_branch2c
I1215 20:40:29.162726 66947 net.cpp:157] Top shape: 1 1024 14 14 (200704)
I1215 20:40:29.162730 66947 net.cpp:165] Memory required for data: 208531468
I1215 20:40:29.162736 66947 layer_factory.hpp:77] Creating layer bn4e_branch2c
I1215 20:40:29.162744 66947 net.cpp:100] Creating Layer bn4e_branch2c
I1215 20:40:29.162750 66947 net.cpp:444] bn4e_branch2c <- res4e_branch2c
I1215 20:40:29.162755 66947 net.cpp:405] bn4e_branch2c -> res4e_branch2c (in-place)
I1215 20:40:29.162956 66947 net.cpp:150] Setting up bn4e_branch2c
I1215 20:40:29.162966 66947 net.cpp:157] Top shape: 1 1024 14 14 (200704)
I1215 20:40:29.162971 66947 net.cpp:165] Memory required for data: 209334284
I1215 20:40:29.162979 66947 layer_factory.hpp:77] Creating layer scale4e_branch2c
I1215 20:40:29.162988 66947 net.cpp:100] Creating Layer scale4e_branch2c
I1215 20:40:29.162995 66947 net.cpp:444] scale4e_branch2c <- res4e_branch2c
I1215 20:40:29.163002 66947 net.cpp:405] scale4e_branch2c -> res4e_branch2c (in-place)
I1215 20:40:29.163043 66947 layer_factory.hpp:77] Creating layer scale4e_branch2c
I1215 20:40:29.163169 66947 net.cpp:150] Setting up scale4e_branch2c
I1215 20:40:29.163178 66947 net.cpp:157] Top shape: 1 1024 14 14 (200704)
I1215 20:40:29.163182 66947 net.cpp:165] Memory required for data: 210137100
I1215 20:40:29.163189 66947 layer_factory.hpp:77] Creating layer res4e
I1215 20:40:29.163198 66947 net.cpp:100] Creating Layer res4e
I1215 20:40:29.163204 66947 net.cpp:444] res4e <- res4d_res4d_relu_0_split_1
I1215 20:40:29.163209 66947 net.cpp:444] res4e <- res4e_branch2c
I1215 20:40:29.163218 66947 net.cpp:418] res4e -> res4e
I1215 20:40:29.163242 66947 net.cpp:150] Setting up res4e
I1215 20:40:29.163250 66947 net.cpp:157] Top shape: 1 1024 14 14 (200704)
I1215 20:40:29.163254 66947 net.cpp:165] Memory required for data: 210939916
I1215 20:40:29.163259 66947 layer_factory.hpp:77] Creating layer res4e_relu
I1215 20:40:29.163266 66947 net.cpp:100] Creating Layer res4e_relu
I1215 20:40:29.163270 66947 net.cpp:444] res4e_relu <- res4e
I1215 20:40:29.163275 66947 net.cpp:405] res4e_relu -> res4e (in-place)
I1215 20:40:29.163282 66947 net.cpp:150] Setting up res4e_relu
I1215 20:40:29.163287 66947 net.cpp:157] Top shape: 1 1024 14 14 (200704)
I1215 20:40:29.163290 66947 net.cpp:165] Memory required for data: 211742732
I1215 20:40:29.163295 66947 layer_factory.hpp:77] Creating layer res4e_res4e_relu_0_split
I1215 20:40:29.163300 66947 net.cpp:100] Creating Layer res4e_res4e_relu_0_split
I1215 20:40:29.163305 66947 net.cpp:444] res4e_res4e_relu_0_split <- res4e
I1215 20:40:29.163310 66947 net.cpp:418] res4e_res4e_relu_0_split -> res4e_res4e_relu_0_split_0
I1215 20:40:29.163316 66947 net.cpp:418] res4e_res4e_relu_0_split -> res4e_res4e_relu_0_split_1
I1215 20:40:29.163354 66947 net.cpp:150] Setting up res4e_res4e_relu_0_split
I1215 20:40:29.163362 66947 net.cpp:157] Top shape: 1 1024 14 14 (200704)
I1215 20:40:29.163367 66947 net.cpp:157] Top shape: 1 1024 14 14 (200704)
I1215 20:40:29.163372 66947 net.cpp:165] Memory required for data: 213348364
I1215 20:40:29.163375 66947 layer_factory.hpp:77] Creating layer res4f_branch2a
I1215 20:40:29.163383 66947 net.cpp:100] Creating Layer res4f_branch2a
I1215 20:40:29.163389 66947 net.cpp:444] res4f_branch2a <- res4e_res4e_relu_0_split_0
I1215 20:40:29.163398 66947 net.cpp:418] res4f_branch2a -> res4f_branch2a
I1215 20:40:29.164324 66947 net.cpp:150] Setting up res4f_branch2a
I1215 20:40:29.164341 66947 net.cpp:157] Top shape: 1 256 14 14 (50176)
I1215 20:40:29.164345 66947 net.cpp:165] Memory required for data: 213549068
I1215 20:40:29.164351 66947 layer_factory.hpp:77] Creating layer bn4f_branch2a
I1215 20:40:29.164360 66947 net.cpp:100] Creating Layer bn4f_branch2a
I1215 20:40:29.164364 66947 net.cpp:444] bn4f_branch2a <- res4f_branch2a
I1215 20:40:29.164372 66947 net.cpp:405] bn4f_branch2a -> res4f_branch2a (in-place)
I1215 20:40:29.164577 66947 net.cpp:150] Setting up bn4f_branch2a
I1215 20:40:29.164587 66947 net.cpp:157] Top shape: 1 256 14 14 (50176)
I1215 20:40:29.164590 66947 net.cpp:165] Memory required for data: 213749772
I1215 20:40:29.164598 66947 layer_factory.hpp:77] Creating layer scale4f_branch2a
I1215 20:40:29.164608 66947 net.cpp:100] Creating Layer scale4f_branch2a
I1215 20:40:29.164613 66947 net.cpp:444] scale4f_branch2a <- res4f_branch2a
I1215 20:40:29.164618 66947 net.cpp:405] scale4f_branch2a -> res4f_branch2a (in-place)
I1215 20:40:29.164662 66947 layer_factory.hpp:77] Creating layer scale4f_branch2a
I1215 20:40:29.164782 66947 net.cpp:150] Setting up scale4f_branch2a
I1215 20:40:29.164791 66947 net.cpp:157] Top shape: 1 256 14 14 (50176)
I1215 20:40:29.164794 66947 net.cpp:165] Memory required for data: 213950476
I1215 20:40:29.164801 66947 layer_factory.hpp:77] Creating layer res4f_branch2a_relu
I1215 20:40:29.164808 66947 net.cpp:100] Creating Layer res4f_branch2a_relu
I1215 20:40:29.164813 66947 net.cpp:444] res4f_branch2a_relu <- res4f_branch2a
I1215 20:40:29.164819 66947 net.cpp:405] res4f_branch2a_relu -> res4f_branch2a (in-place)
I1215 20:40:29.164829 66947 net.cpp:150] Setting up res4f_branch2a_relu
I1215 20:40:29.164834 66947 net.cpp:157] Top shape: 1 256 14 14 (50176)
I1215 20:40:29.164837 66947 net.cpp:165] Memory required for data: 214151180
I1215 20:40:29.164840 66947 layer_factory.hpp:77] Creating layer res4f_branch2b
I1215 20:40:29.164849 66947 net.cpp:100] Creating Layer res4f_branch2b
I1215 20:40:29.164854 66947 net.cpp:444] res4f_branch2b <- res4f_branch2a
I1215 20:40:29.164861 66947 net.cpp:418] res4f_branch2b -> res4f_branch2b
I1215 20:40:29.166534 66947 net.cpp:150] Setting up res4f_branch2b
I1215 20:40:29.166550 66947 net.cpp:157] Top shape: 1 256 14 14 (50176)
I1215 20:40:29.166554 66947 net.cpp:165] Memory required for data: 214351884
I1215 20:40:29.166561 66947 layer_factory.hpp:77] Creating layer bn4f_branch2b
I1215 20:40:29.166569 66947 net.cpp:100] Creating Layer bn4f_branch2b
I1215 20:40:29.166574 66947 net.cpp:444] bn4f_branch2b <- res4f_branch2b
I1215 20:40:29.166579 66947 net.cpp:405] bn4f_branch2b -> res4f_branch2b (in-place)
I1215 20:40:29.166785 66947 net.cpp:150] Setting up bn4f_branch2b
I1215 20:40:29.166795 66947 net.cpp:157] Top shape: 1 256 14 14 (50176)
I1215 20:40:29.166798 66947 net.cpp:165] Memory required for data: 214552588
I1215 20:40:29.166807 66947 layer_factory.hpp:77] Creating layer scale4f_branch2b
I1215 20:40:29.166815 66947 net.cpp:100] Creating Layer scale4f_branch2b
I1215 20:40:29.166821 66947 net.cpp:444] scale4f_branch2b <- res4f_branch2b
I1215 20:40:29.166827 66947 net.cpp:405] scale4f_branch2b -> res4f_branch2b (in-place)
I1215 20:40:29.166877 66947 layer_factory.hpp:77] Creating layer scale4f_branch2b
I1215 20:40:29.166999 66947 net.cpp:150] Setting up scale4f_branch2b
I1215 20:40:29.167008 66947 net.cpp:157] Top shape: 1 256 14 14 (50176)
I1215 20:40:29.167012 66947 net.cpp:165] Memory required for data: 214753292
I1215 20:40:29.167019 66947 layer_factory.hpp:77] Creating layer res4f_branch2b_relu
I1215 20:40:29.167026 66947 net.cpp:100] Creating Layer res4f_branch2b_relu
I1215 20:40:29.167031 66947 net.cpp:444] res4f_branch2b_relu <- res4f_branch2b
I1215 20:40:29.167037 66947 net.cpp:405] res4f_branch2b_relu -> res4f_branch2b (in-place)
I1215 20:40:29.167047 66947 net.cpp:150] Setting up res4f_branch2b_relu
I1215 20:40:29.167052 66947 net.cpp:157] Top shape: 1 256 14 14 (50176)
I1215 20:40:29.167054 66947 net.cpp:165] Memory required for data: 214953996
I1215 20:40:29.167058 66947 layer_factory.hpp:77] Creating layer res4f_branch2c
I1215 20:40:29.167068 66947 net.cpp:100] Creating Layer res4f_branch2c
I1215 20:40:29.167070 66947 net.cpp:444] res4f_branch2c <- res4f_branch2b
I1215 20:40:29.167078 66947 net.cpp:418] res4f_branch2c -> res4f_branch2c
I1215 20:40:29.168004 66947 net.cpp:150] Setting up res4f_branch2c
I1215 20:40:29.168020 66947 net.cpp:157] Top shape: 1 1024 14 14 (200704)
I1215 20:40:29.168023 66947 net.cpp:165] Memory required for data: 215756812
I1215 20:40:29.168030 66947 layer_factory.hpp:77] Creating layer bn4f_branch2c
I1215 20:40:29.168038 66947 net.cpp:100] Creating Layer bn4f_branch2c
I1215 20:40:29.168042 66947 net.cpp:444] bn4f_branch2c <- res4f_branch2c
I1215 20:40:29.168051 66947 net.cpp:405] bn4f_branch2c -> res4f_branch2c (in-place)
I1215 20:40:29.168259 66947 net.cpp:150] Setting up bn4f_branch2c
I1215 20:40:29.168269 66947 net.cpp:157] Top shape: 1 1024 14 14 (200704)
I1215 20:40:29.168273 66947 net.cpp:165] Memory required for data: 216559628
I1215 20:40:29.168301 66947 layer_factory.hpp:77] Creating layer scale4f_branch2c
I1215 20:40:29.168313 66947 net.cpp:100] Creating Layer scale4f_branch2c
I1215 20:40:29.168320 66947 net.cpp:444] scale4f_branch2c <- res4f_branch2c
I1215 20:40:29.168328 66947 net.cpp:405] scale4f_branch2c -> res4f_branch2c (in-place)
I1215 20:40:29.168370 66947 layer_factory.hpp:77] Creating layer scale4f_branch2c
I1215 20:40:29.168494 66947 net.cpp:150] Setting up scale4f_branch2c
I1215 20:40:29.168504 66947 net.cpp:157] Top shape: 1 1024 14 14 (200704)
I1215 20:40:29.168507 66947 net.cpp:165] Memory required for data: 217362444
I1215 20:40:29.168514 66947 layer_factory.hpp:77] Creating layer res4f
I1215 20:40:29.168521 66947 net.cpp:100] Creating Layer res4f
I1215 20:40:29.168525 66947 net.cpp:444] res4f <- res4e_res4e_relu_0_split_1
I1215 20:40:29.168530 66947 net.cpp:444] res4f <- res4f_branch2c
I1215 20:40:29.168537 66947 net.cpp:418] res4f -> res4f
I1215 20:40:29.168567 66947 net.cpp:150] Setting up res4f
I1215 20:40:29.168576 66947 net.cpp:157] Top shape: 1 1024 14 14 (200704)
I1215 20:40:29.168579 66947 net.cpp:165] Memory required for data: 218165260
I1215 20:40:29.168583 66947 layer_factory.hpp:77] Creating layer res4f_relu
I1215 20:40:29.168588 66947 net.cpp:100] Creating Layer res4f_relu
I1215 20:40:29.168592 66947 net.cpp:444] res4f_relu <- res4f
I1215 20:40:29.168597 66947 net.cpp:405] res4f_relu -> res4f (in-place)
I1215 20:40:29.168603 66947 net.cpp:150] Setting up res4f_relu
I1215 20:40:29.168608 66947 net.cpp:157] Top shape: 1 1024 14 14 (200704)
I1215 20:40:29.168612 66947 net.cpp:165] Memory required for data: 218968076
I1215 20:40:29.168615 66947 layer_factory.hpp:77] Creating layer res4f_res4f_relu_0_split
I1215 20:40:29.168623 66947 net.cpp:100] Creating Layer res4f_res4f_relu_0_split
I1215 20:40:29.168627 66947 net.cpp:444] res4f_res4f_relu_0_split <- res4f
I1215 20:40:29.168633 66947 net.cpp:418] res4f_res4f_relu_0_split -> res4f_res4f_relu_0_split_0
I1215 20:40:29.168640 66947 net.cpp:418] res4f_res4f_relu_0_split -> res4f_res4f_relu_0_split_1
I1215 20:40:29.168651 66947 net.cpp:418] res4f_res4f_relu_0_split -> res4f_res4f_relu_0_split_2
I1215 20:40:29.168704 66947 net.cpp:150] Setting up res4f_res4f_relu_0_split
I1215 20:40:29.168711 66947 net.cpp:157] Top shape: 1 1024 14 14 (200704)
I1215 20:40:29.168716 66947 net.cpp:157] Top shape: 1 1024 14 14 (200704)
I1215 20:40:29.168720 66947 net.cpp:157] Top shape: 1 1024 14 14 (200704)
I1215 20:40:29.168725 66947 net.cpp:165] Memory required for data: 221376524
I1215 20:40:29.168727 66947 layer_factory.hpp:77] Creating layer res5a_branch1
I1215 20:40:29.168737 66947 net.cpp:100] Creating Layer res5a_branch1
I1215 20:40:29.168745 66947 net.cpp:444] res5a_branch1 <- res4f_res4f_relu_0_split_0
I1215 20:40:29.168752 66947 net.cpp:418] res5a_branch1 -> res5a_branch1
I1215 20:40:29.173877 66947 net.cpp:150] Setting up res5a_branch1
I1215 20:40:29.173897 66947 net.cpp:157] Top shape: 1 2048 14 14 (401408)
I1215 20:40:29.173902 66947 net.cpp:165] Memory required for data: 222982156
I1215 20:40:29.173908 66947 layer_factory.hpp:77] Creating layer bn5a_branch1
I1215 20:40:29.173916 66947 net.cpp:100] Creating Layer bn5a_branch1
I1215 20:40:29.173923 66947 net.cpp:444] bn5a_branch1 <- res5a_branch1
I1215 20:40:29.173931 66947 net.cpp:405] bn5a_branch1 -> res5a_branch1 (in-place)
I1215 20:40:29.174154 66947 net.cpp:150] Setting up bn5a_branch1
I1215 20:40:29.174165 66947 net.cpp:157] Top shape: 1 2048 14 14 (401408)
I1215 20:40:29.174170 66947 net.cpp:165] Memory required for data: 224587788
I1215 20:40:29.174178 66947 layer_factory.hpp:77] Creating layer scale5a_branch1
I1215 20:40:29.174187 66947 net.cpp:100] Creating Layer scale5a_branch1
I1215 20:40:29.174195 66947 net.cpp:444] scale5a_branch1 <- res5a_branch1
I1215 20:40:29.174202 66947 net.cpp:405] scale5a_branch1 -> res5a_branch1 (in-place)
I1215 20:40:29.174245 66947 layer_factory.hpp:77] Creating layer scale5a_branch1
I1215 20:40:29.174376 66947 net.cpp:150] Setting up scale5a_branch1
I1215 20:40:29.174386 66947 net.cpp:157] Top shape: 1 2048 14 14 (401408)
I1215 20:40:29.174389 66947 net.cpp:165] Memory required for data: 226193420
I1215 20:40:29.174396 66947 layer_factory.hpp:77] Creating layer res5a_branch2a
I1215 20:40:29.174406 66947 net.cpp:100] Creating Layer res5a_branch2a
I1215 20:40:29.174412 66947 net.cpp:444] res5a_branch2a <- res4f_res4f_relu_0_split_1
I1215 20:40:29.174420 66947 net.cpp:418] res5a_branch2a -> res5a_branch2a
I1215 20:40:29.175950 66947 net.cpp:150] Setting up res5a_branch2a
I1215 20:40:29.175966 66947 net.cpp:157] Top shape: 1 512 14 14 (100352)
I1215 20:40:29.175971 66947 net.cpp:165] Memory required for data: 226594828
I1215 20:40:29.175976 66947 layer_factory.hpp:77] Creating layer bn5a_branch2a
I1215 20:40:29.175984 66947 net.cpp:100] Creating Layer bn5a_branch2a
I1215 20:40:29.175989 66947 net.cpp:444] bn5a_branch2a <- res5a_branch2a
I1215 20:40:29.176002 66947 net.cpp:405] bn5a_branch2a -> res5a_branch2a (in-place)
I1215 20:40:29.176213 66947 net.cpp:150] Setting up bn5a_branch2a
I1215 20:40:29.176223 66947 net.cpp:157] Top shape: 1 512 14 14 (100352)
I1215 20:40:29.176226 66947 net.cpp:165] Memory required for data: 226996236
I1215 20:40:29.176235 66947 layer_factory.hpp:77] Creating layer scale5a_branch2a
I1215 20:40:29.176242 66947 net.cpp:100] Creating Layer scale5a_branch2a
I1215 20:40:29.176247 66947 net.cpp:444] scale5a_branch2a <- res5a_branch2a
I1215 20:40:29.176252 66947 net.cpp:405] scale5a_branch2a -> res5a_branch2a (in-place)
I1215 20:40:29.176295 66947 layer_factory.hpp:77] Creating layer scale5a_branch2a
I1215 20:40:29.176422 66947 net.cpp:150] Setting up scale5a_branch2a
I1215 20:40:29.176431 66947 net.cpp:157] Top shape: 1 512 14 14 (100352)
I1215 20:40:29.176435 66947 net.cpp:165] Memory required for data: 227397644
I1215 20:40:29.176442 66947 layer_factory.hpp:77] Creating layer res5a_branch2a_relu
I1215 20:40:29.176448 66947 net.cpp:100] Creating Layer res5a_branch2a_relu
I1215 20:40:29.176452 66947 net.cpp:444] res5a_branch2a_relu <- res5a_branch2a
I1215 20:40:29.176460 66947 net.cpp:405] res5a_branch2a_relu -> res5a_branch2a (in-place)
I1215 20:40:29.176467 66947 net.cpp:150] Setting up res5a_branch2a_relu
I1215 20:40:29.176473 66947 net.cpp:157] Top shape: 1 512 14 14 (100352)
I1215 20:40:29.176477 66947 net.cpp:165] Memory required for data: 227799052
I1215 20:40:29.176481 66947 layer_factory.hpp:77] Creating layer res5a_branch2b
I1215 20:40:29.176491 66947 net.cpp:100] Creating Layer res5a_branch2b
I1215 20:40:29.176496 66947 net.cpp:444] res5a_branch2b <- res5a_branch2a
I1215 20:40:29.176503 66947 net.cpp:418] res5a_branch2b -> res5a_branch2b
I1215 20:40:29.182252 66947 net.cpp:150] Setting up res5a_branch2b
I1215 20:40:29.182273 66947 net.cpp:157] Top shape: 1 512 14 14 (100352)
I1215 20:40:29.182277 66947 net.cpp:165] Memory required for data: 228200460
I1215 20:40:29.182284 66947 layer_factory.hpp:77] Creating layer bn5a_branch2b
I1215 20:40:29.182293 66947 net.cpp:100] Creating Layer bn5a_branch2b
I1215 20:40:29.182297 66947 net.cpp:444] bn5a_branch2b <- res5a_branch2b
I1215 20:40:29.182307 66947 net.cpp:405] bn5a_branch2b -> res5a_branch2b (in-place)
I1215 20:40:29.182519 66947 net.cpp:150] Setting up bn5a_branch2b
I1215 20:40:29.182529 66947 net.cpp:157] Top shape: 1 512 14 14 (100352)
I1215 20:40:29.182533 66947 net.cpp:165] Memory required for data: 228601868
I1215 20:40:29.182543 66947 layer_factory.hpp:77] Creating layer scale5a_branch2b
I1215 20:40:29.182550 66947 net.cpp:100] Creating Layer scale5a_branch2b
I1215 20:40:29.182556 66947 net.cpp:444] scale5a_branch2b <- res5a_branch2b
I1215 20:40:29.182562 66947 net.cpp:405] scale5a_branch2b -> res5a_branch2b (in-place)
I1215 20:40:29.182605 66947 layer_factory.hpp:77] Creating layer scale5a_branch2b
I1215 20:40:29.182731 66947 net.cpp:150] Setting up scale5a_branch2b
I1215 20:40:29.182740 66947 net.cpp:157] Top shape: 1 512 14 14 (100352)
I1215 20:40:29.182744 66947 net.cpp:165] Memory required for data: 229003276
I1215 20:40:29.182751 66947 layer_factory.hpp:77] Creating layer res5a_branch2b_relu
I1215 20:40:29.182757 66947 net.cpp:100] Creating Layer res5a_branch2b_relu
I1215 20:40:29.182761 66947 net.cpp:444] res5a_branch2b_relu <- res5a_branch2b
I1215 20:40:29.182768 66947 net.cpp:405] res5a_branch2b_relu -> res5a_branch2b (in-place)
I1215 20:40:29.182777 66947 net.cpp:150] Setting up res5a_branch2b_relu
I1215 20:40:29.182783 66947 net.cpp:157] Top shape: 1 512 14 14 (100352)
I1215 20:40:29.182786 66947 net.cpp:165] Memory required for data: 229404684
I1215 20:40:29.182790 66947 layer_factory.hpp:77] Creating layer res5a_branch2c
I1215 20:40:29.182799 66947 net.cpp:100] Creating Layer res5a_branch2c
I1215 20:40:29.182802 66947 net.cpp:444] res5a_branch2c <- res5a_branch2b
I1215 20:40:29.182811 66947 net.cpp:418] res5a_branch2c -> res5a_branch2c
I1215 20:40:29.185634 66947 net.cpp:150] Setting up res5a_branch2c
I1215 20:40:29.185652 66947 net.cpp:157] Top shape: 1 2048 14 14 (401408)
I1215 20:40:29.185657 66947 net.cpp:165] Memory required for data: 231010316
I1215 20:40:29.185663 66947 layer_factory.hpp:77] Creating layer bn5a_branch2c
I1215 20:40:29.185672 66947 net.cpp:100] Creating Layer bn5a_branch2c
I1215 20:40:29.185677 66947 net.cpp:444] bn5a_branch2c <- res5a_branch2c
I1215 20:40:29.185684 66947 net.cpp:405] bn5a_branch2c -> res5a_branch2c (in-place)
I1215 20:40:29.185899 66947 net.cpp:150] Setting up bn5a_branch2c
I1215 20:40:29.185910 66947 net.cpp:157] Top shape: 1 2048 14 14 (401408)
I1215 20:40:29.185914 66947 net.cpp:165] Memory required for data: 232615948
I1215 20:40:29.185923 66947 layer_factory.hpp:77] Creating layer scale5a_branch2c
I1215 20:40:29.185931 66947 net.cpp:100] Creating Layer scale5a_branch2c
I1215 20:40:29.185936 66947 net.cpp:444] scale5a_branch2c <- res5a_branch2c
I1215 20:40:29.185941 66947 net.cpp:405] scale5a_branch2c -> res5a_branch2c (in-place)
I1215 20:40:29.185986 66947 layer_factory.hpp:77] Creating layer scale5a_branch2c
I1215 20:40:29.186115 66947 net.cpp:150] Setting up scale5a_branch2c
I1215 20:40:29.186125 66947 net.cpp:157] Top shape: 1 2048 14 14 (401408)
I1215 20:40:29.186127 66947 net.cpp:165] Memory required for data: 234221580
I1215 20:40:29.186139 66947 layer_factory.hpp:77] Creating layer res5a
I1215 20:40:29.186146 66947 net.cpp:100] Creating Layer res5a
I1215 20:40:29.186151 66947 net.cpp:444] res5a <- res5a_branch1
I1215 20:40:29.186157 66947 net.cpp:444] res5a <- res5a_branch2c
I1215 20:40:29.186163 66947 net.cpp:418] res5a -> res5a
I1215 20:40:29.186189 66947 net.cpp:150] Setting up res5a
I1215 20:40:29.186198 66947 net.cpp:157] Top shape: 1 2048 14 14 (401408)
I1215 20:40:29.186202 66947 net.cpp:165] Memory required for data: 235827212
I1215 20:40:29.186205 66947 layer_factory.hpp:77] Creating layer res5a_relu
I1215 20:40:29.186216 66947 net.cpp:100] Creating Layer res5a_relu
I1215 20:40:29.186223 66947 net.cpp:444] res5a_relu <- res5a
I1215 20:40:29.186230 66947 net.cpp:405] res5a_relu -> res5a (in-place)
I1215 20:40:29.186238 66947 net.cpp:150] Setting up res5a_relu
I1215 20:40:29.186245 66947 net.cpp:157] Top shape: 1 2048 14 14 (401408)
I1215 20:40:29.186249 66947 net.cpp:165] Memory required for data: 237432844
I1215 20:40:29.186252 66947 layer_factory.hpp:77] Creating layer res5a_res5a_relu_0_split
I1215 20:40:29.186259 66947 net.cpp:100] Creating Layer res5a_res5a_relu_0_split
I1215 20:40:29.186264 66947 net.cpp:444] res5a_res5a_relu_0_split <- res5a
I1215 20:40:29.186269 66947 net.cpp:418] res5a_res5a_relu_0_split -> res5a_res5a_relu_0_split_0
I1215 20:40:29.186276 66947 net.cpp:418] res5a_res5a_relu_0_split -> res5a_res5a_relu_0_split_1
I1215 20:40:29.186317 66947 net.cpp:150] Setting up res5a_res5a_relu_0_split
I1215 20:40:29.186326 66947 net.cpp:157] Top shape: 1 2048 14 14 (401408)
I1215 20:40:29.186331 66947 net.cpp:157] Top shape: 1 2048 14 14 (401408)
I1215 20:40:29.186334 66947 net.cpp:165] Memory required for data: 240644108
I1215 20:40:29.186338 66947 layer_factory.hpp:77] Creating layer res5b_branch2a
I1215 20:40:29.186349 66947 net.cpp:100] Creating Layer res5b_branch2a
I1215 20:40:29.186355 66947 net.cpp:444] res5b_branch2a <- res5a_res5a_relu_0_split_0
I1215 20:40:29.186362 66947 net.cpp:418] res5b_branch2a -> res5b_branch2a
I1215 20:40:29.189100 66947 net.cpp:150] Setting up res5b_branch2a
I1215 20:40:29.189117 66947 net.cpp:157] Top shape: 1 512 14 14 (100352)
I1215 20:40:29.189121 66947 net.cpp:165] Memory required for data: 241045516
I1215 20:40:29.189127 66947 layer_factory.hpp:77] Creating layer bn5b_branch2a
I1215 20:40:29.189136 66947 net.cpp:100] Creating Layer bn5b_branch2a
I1215 20:40:29.189141 66947 net.cpp:444] bn5b_branch2a <- res5b_branch2a
I1215 20:40:29.189149 66947 net.cpp:405] bn5b_branch2a -> res5b_branch2a (in-place)
I1215 20:40:29.189362 66947 net.cpp:150] Setting up bn5b_branch2a
I1215 20:40:29.189371 66947 net.cpp:157] Top shape: 1 512 14 14 (100352)
I1215 20:40:29.189375 66947 net.cpp:165] Memory required for data: 241446924
I1215 20:40:29.189385 66947 layer_factory.hpp:77] Creating layer scale5b_branch2a
I1215 20:40:29.189393 66947 net.cpp:100] Creating Layer scale5b_branch2a
I1215 20:40:29.189398 66947 net.cpp:444] scale5b_branch2a <- res5b_branch2a
I1215 20:40:29.189404 66947 net.cpp:405] scale5b_branch2a -> res5b_branch2a (in-place)
I1215 20:40:29.189447 66947 layer_factory.hpp:77] Creating layer scale5b_branch2a
I1215 20:40:29.189577 66947 net.cpp:150] Setting up scale5b_branch2a
I1215 20:40:29.189589 66947 net.cpp:157] Top shape: 1 512 14 14 (100352)
I1215 20:40:29.189594 66947 net.cpp:165] Memory required for data: 241848332
I1215 20:40:29.189600 66947 layer_factory.hpp:77] Creating layer res5b_branch2a_relu
I1215 20:40:29.189609 66947 net.cpp:100] Creating Layer res5b_branch2a_relu
I1215 20:40:29.189612 66947 net.cpp:444] res5b_branch2a_relu <- res5b_branch2a
I1215 20:40:29.189617 66947 net.cpp:405] res5b_branch2a_relu -> res5b_branch2a (in-place)
I1215 20:40:29.189625 66947 net.cpp:150] Setting up res5b_branch2a_relu
I1215 20:40:29.189630 66947 net.cpp:157] Top shape: 1 512 14 14 (100352)
I1215 20:40:29.189633 66947 net.cpp:165] Memory required for data: 242249740
I1215 20:40:29.189637 66947 layer_factory.hpp:77] Creating layer res5b_branch2b
I1215 20:40:29.189648 66947 net.cpp:100] Creating Layer res5b_branch2b
I1215 20:40:29.189654 66947 net.cpp:444] res5b_branch2b <- res5b_branch2a
I1215 20:40:29.189662 66947 net.cpp:418] res5b_branch2b -> res5b_branch2b
I1215 20:40:29.195395 66947 net.cpp:150] Setting up res5b_branch2b
I1215 20:40:29.195415 66947 net.cpp:157] Top shape: 1 512 14 14 (100352)
I1215 20:40:29.195420 66947 net.cpp:165] Memory required for data: 242651148
I1215 20:40:29.195426 66947 layer_factory.hpp:77] Creating layer bn5b_branch2b
I1215 20:40:29.195435 66947 net.cpp:100] Creating Layer bn5b_branch2b
I1215 20:40:29.195439 66947 net.cpp:444] bn5b_branch2b <- res5b_branch2b
I1215 20:40:29.195448 66947 net.cpp:405] bn5b_branch2b -> res5b_branch2b (in-place)
I1215 20:40:29.195675 66947 net.cpp:150] Setting up bn5b_branch2b
I1215 20:40:29.195688 66947 net.cpp:157] Top shape: 1 512 14 14 (100352)
I1215 20:40:29.195690 66947 net.cpp:165] Memory required for data: 243052556
I1215 20:40:29.195700 66947 layer_factory.hpp:77] Creating layer scale5b_branch2b
I1215 20:40:29.195708 66947 net.cpp:100] Creating Layer scale5b_branch2b
I1215 20:40:29.195714 66947 net.cpp:444] scale5b_branch2b <- res5b_branch2b
I1215 20:40:29.195720 66947 net.cpp:405] scale5b_branch2b -> res5b_branch2b (in-place)
I1215 20:40:29.195765 66947 layer_factory.hpp:77] Creating layer scale5b_branch2b
I1215 20:40:29.195895 66947 net.cpp:150] Setting up scale5b_branch2b
I1215 20:40:29.195907 66947 net.cpp:157] Top shape: 1 512 14 14 (100352)
I1215 20:40:29.195910 66947 net.cpp:165] Memory required for data: 243453964
I1215 20:40:29.195919 66947 layer_factory.hpp:77] Creating layer res5b_branch2b_relu
I1215 20:40:29.195926 66947 net.cpp:100] Creating Layer res5b_branch2b_relu
I1215 20:40:29.195930 66947 net.cpp:444] res5b_branch2b_relu <- res5b_branch2b
I1215 20:40:29.195936 66947 net.cpp:405] res5b_branch2b_relu -> res5b_branch2b (in-place)
I1215 20:40:29.195943 66947 net.cpp:150] Setting up res5b_branch2b_relu
I1215 20:40:29.195948 66947 net.cpp:157] Top shape: 1 512 14 14 (100352)
I1215 20:40:29.195951 66947 net.cpp:165] Memory required for data: 243855372
I1215 20:40:29.195955 66947 layer_factory.hpp:77] Creating layer res5b_branch2c
I1215 20:40:29.195966 66947 net.cpp:100] Creating Layer res5b_branch2c
I1215 20:40:29.195971 66947 net.cpp:444] res5b_branch2c <- res5b_branch2b
I1215 20:40:29.195979 66947 net.cpp:418] res5b_branch2c -> res5b_branch2c
I1215 20:40:29.198696 66947 net.cpp:150] Setting up res5b_branch2c
I1215 20:40:29.198712 66947 net.cpp:157] Top shape: 1 2048 14 14 (401408)
I1215 20:40:29.198716 66947 net.cpp:165] Memory required for data: 245461004
I1215 20:40:29.198722 66947 layer_factory.hpp:77] Creating layer bn5b_branch2c
I1215 20:40:29.198730 66947 net.cpp:100] Creating Layer bn5b_branch2c
I1215 20:40:29.198735 66947 net.cpp:444] bn5b_branch2c <- res5b_branch2c
I1215 20:40:29.198743 66947 net.cpp:405] bn5b_branch2c -> res5b_branch2c (in-place)
I1215 20:40:29.198962 66947 net.cpp:150] Setting up bn5b_branch2c
I1215 20:40:29.198972 66947 net.cpp:157] Top shape: 1 2048 14 14 (401408)
I1215 20:40:29.198976 66947 net.cpp:165] Memory required for data: 247066636
I1215 20:40:29.198985 66947 layer_factory.hpp:77] Creating layer scale5b_branch2c
I1215 20:40:29.198993 66947 net.cpp:100] Creating Layer scale5b_branch2c
I1215 20:40:29.198997 66947 net.cpp:444] scale5b_branch2c <- res5b_branch2c
I1215 20:40:29.199003 66947 net.cpp:405] scale5b_branch2c -> res5b_branch2c (in-place)
I1215 20:40:29.199048 66947 layer_factory.hpp:77] Creating layer scale5b_branch2c
I1215 20:40:29.199182 66947 net.cpp:150] Setting up scale5b_branch2c
I1215 20:40:29.199190 66947 net.cpp:157] Top shape: 1 2048 14 14 (401408)
I1215 20:40:29.199194 66947 net.cpp:165] Memory required for data: 248672268
I1215 20:40:29.199201 66947 layer_factory.hpp:77] Creating layer res5b
I1215 20:40:29.199210 66947 net.cpp:100] Creating Layer res5b
I1215 20:40:29.199216 66947 net.cpp:444] res5b <- res5a_res5a_relu_0_split_1
I1215 20:40:29.199221 66947 net.cpp:444] res5b <- res5b_branch2c
I1215 20:40:29.199228 66947 net.cpp:418] res5b -> res5b
I1215 20:40:29.199255 66947 net.cpp:150] Setting up res5b
I1215 20:40:29.199265 66947 net.cpp:157] Top shape: 1 2048 14 14 (401408)
I1215 20:40:29.199267 66947 net.cpp:165] Memory required for data: 250277900
I1215 20:40:29.199271 66947 layer_factory.hpp:77] Creating layer res5b_relu
I1215 20:40:29.199277 66947 net.cpp:100] Creating Layer res5b_relu
I1215 20:40:29.199283 66947 net.cpp:444] res5b_relu <- res5b
I1215 20:40:29.199290 66947 net.cpp:405] res5b_relu -> res5b (in-place)
I1215 20:40:29.199297 66947 net.cpp:150] Setting up res5b_relu
I1215 20:40:29.199302 66947 net.cpp:157] Top shape: 1 2048 14 14 (401408)
I1215 20:40:29.199306 66947 net.cpp:165] Memory required for data: 251883532
I1215 20:40:29.199311 66947 layer_factory.hpp:77] Creating layer res5b_res5b_relu_0_split
I1215 20:40:29.199316 66947 net.cpp:100] Creating Layer res5b_res5b_relu_0_split
I1215 20:40:29.199321 66947 net.cpp:444] res5b_res5b_relu_0_split <- res5b
I1215 20:40:29.199326 66947 net.cpp:418] res5b_res5b_relu_0_split -> res5b_res5b_relu_0_split_0
I1215 20:40:29.199334 66947 net.cpp:418] res5b_res5b_relu_0_split -> res5b_res5b_relu_0_split_1
I1215 20:40:29.199374 66947 net.cpp:150] Setting up res5b_res5b_relu_0_split
I1215 20:40:29.199383 66947 net.cpp:157] Top shape: 1 2048 14 14 (401408)
I1215 20:40:29.199388 66947 net.cpp:157] Top shape: 1 2048 14 14 (401408)
I1215 20:40:29.199391 66947 net.cpp:165] Memory required for data: 255094796
I1215 20:40:29.199395 66947 layer_factory.hpp:77] Creating layer res5c_branch2a
I1215 20:40:29.199405 66947 net.cpp:100] Creating Layer res5c_branch2a
I1215 20:40:29.199411 66947 net.cpp:444] res5c_branch2a <- res5b_res5b_relu_0_split_0
I1215 20:40:29.199419 66947 net.cpp:418] res5c_branch2a -> res5c_branch2a
I1215 20:40:29.202141 66947 net.cpp:150] Setting up res5c_branch2a
I1215 20:40:29.202157 66947 net.cpp:157] Top shape: 1 512 14 14 (100352)
I1215 20:40:29.202160 66947 net.cpp:165] Memory required for data: 255496204
I1215 20:40:29.202167 66947 layer_factory.hpp:77] Creating layer bn5c_branch2a
I1215 20:40:29.202178 66947 net.cpp:100] Creating Layer bn5c_branch2a
I1215 20:40:29.202183 66947 net.cpp:444] bn5c_branch2a <- res5c_branch2a
I1215 20:40:29.202188 66947 net.cpp:405] bn5c_branch2a -> res5c_branch2a (in-place)
I1215 20:40:29.202400 66947 net.cpp:150] Setting up bn5c_branch2a
I1215 20:40:29.202411 66947 net.cpp:157] Top shape: 1 512 14 14 (100352)
I1215 20:40:29.202415 66947 net.cpp:165] Memory required for data: 255897612
I1215 20:40:29.202425 66947 layer_factory.hpp:77] Creating layer scale5c_branch2a
I1215 20:40:29.202431 66947 net.cpp:100] Creating Layer scale5c_branch2a
I1215 20:40:29.202438 66947 net.cpp:444] scale5c_branch2a <- res5c_branch2a
I1215 20:40:29.202445 66947 net.cpp:405] scale5c_branch2a -> res5c_branch2a (in-place)
I1215 20:40:29.202487 66947 layer_factory.hpp:77] Creating layer scale5c_branch2a
I1215 20:40:29.202620 66947 net.cpp:150] Setting up scale5c_branch2a
I1215 20:40:29.202630 66947 net.cpp:157] Top shape: 1 512 14 14 (100352)
I1215 20:40:29.202635 66947 net.cpp:165] Memory required for data: 256299020
I1215 20:40:29.202641 66947 layer_factory.hpp:77] Creating layer res5c_branch2a_relu
I1215 20:40:29.202647 66947 net.cpp:100] Creating Layer res5c_branch2a_relu
I1215 20:40:29.202651 66947 net.cpp:444] res5c_branch2a_relu <- res5c_branch2a
I1215 20:40:29.202656 66947 net.cpp:405] res5c_branch2a_relu -> res5c_branch2a (in-place)
I1215 20:40:29.202663 66947 net.cpp:150] Setting up res5c_branch2a_relu
I1215 20:40:29.202671 66947 net.cpp:157] Top shape: 1 512 14 14 (100352)
I1215 20:40:29.202673 66947 net.cpp:165] Memory required for data: 256700428
I1215 20:40:29.202678 66947 layer_factory.hpp:77] Creating layer res5c_branch2b
I1215 20:40:29.202689 66947 net.cpp:100] Creating Layer res5c_branch2b
I1215 20:40:29.202695 66947 net.cpp:444] res5c_branch2b <- res5c_branch2a
I1215 20:40:29.202702 66947 net.cpp:418] res5c_branch2b -> res5c_branch2b
I1215 20:40:29.208412 66947 net.cpp:150] Setting up res5c_branch2b
I1215 20:40:29.208431 66947 net.cpp:157] Top shape: 1 512 14 14 (100352)
I1215 20:40:29.208434 66947 net.cpp:165] Memory required for data: 257101836
I1215 20:40:29.208441 66947 layer_factory.hpp:77] Creating layer bn5c_branch2b
I1215 20:40:29.208451 66947 net.cpp:100] Creating Layer bn5c_branch2b
I1215 20:40:29.208458 66947 net.cpp:444] bn5c_branch2b <- res5c_branch2b
I1215 20:40:29.208464 66947 net.cpp:405] bn5c_branch2b -> res5c_branch2b (in-place)
I1215 20:40:29.208680 66947 net.cpp:150] Setting up bn5c_branch2b
I1215 20:40:29.208690 66947 net.cpp:157] Top shape: 1 512 14 14 (100352)
I1215 20:40:29.208694 66947 net.cpp:165] Memory required for data: 257503244
I1215 20:40:29.208703 66947 layer_factory.hpp:77] Creating layer scale5c_branch2b
I1215 20:40:29.208711 66947 net.cpp:100] Creating Layer scale5c_branch2b
I1215 20:40:29.208715 66947 net.cpp:444] scale5c_branch2b <- res5c_branch2b
I1215 20:40:29.208724 66947 net.cpp:405] scale5c_branch2b -> res5c_branch2b (in-place)
I1215 20:40:29.208767 66947 layer_factory.hpp:77] Creating layer scale5c_branch2b
I1215 20:40:29.208901 66947 net.cpp:150] Setting up scale5c_branch2b
I1215 20:40:29.208911 66947 net.cpp:157] Top shape: 1 512 14 14 (100352)
I1215 20:40:29.208914 66947 net.cpp:165] Memory required for data: 257904652
I1215 20:40:29.208921 66947 layer_factory.hpp:77] Creating layer res5c_branch2b_relu
I1215 20:40:29.208928 66947 net.cpp:100] Creating Layer res5c_branch2b_relu
I1215 20:40:29.208932 66947 net.cpp:444] res5c_branch2b_relu <- res5c_branch2b
I1215 20:40:29.208937 66947 net.cpp:405] res5c_branch2b_relu -> res5c_branch2b (in-place)
I1215 20:40:29.208945 66947 net.cpp:150] Setting up res5c_branch2b_relu
I1215 20:40:29.208950 66947 net.cpp:157] Top shape: 1 512 14 14 (100352)
I1215 20:40:29.208952 66947 net.cpp:165] Memory required for data: 258306060
I1215 20:40:29.208956 66947 layer_factory.hpp:77] Creating layer res5c_branch2c
I1215 20:40:29.208966 66947 net.cpp:100] Creating Layer res5c_branch2c
I1215 20:40:29.208972 66947 net.cpp:444] res5c_branch2c <- res5c_branch2b
I1215 20:40:29.208981 66947 net.cpp:418] res5c_branch2c -> res5c_branch2c
I1215 20:40:29.211716 66947 net.cpp:150] Setting up res5c_branch2c
I1215 20:40:29.211733 66947 net.cpp:157] Top shape: 1 2048 14 14 (401408)
I1215 20:40:29.211737 66947 net.cpp:165] Memory required for data: 259911692
I1215 20:40:29.211743 66947 layer_factory.hpp:77] Creating layer bn5c_branch2c
I1215 20:40:29.211753 66947 net.cpp:100] Creating Layer bn5c_branch2c
I1215 20:40:29.211758 66947 net.cpp:444] bn5c_branch2c <- res5c_branch2c
I1215 20:40:29.211765 66947 net.cpp:405] bn5c_branch2c -> res5c_branch2c (in-place)
I1215 20:40:29.212514 66947 net.cpp:150] Setting up bn5c_branch2c
I1215 20:40:29.212530 66947 net.cpp:157] Top shape: 1 2048 14 14 (401408)
I1215 20:40:29.212534 66947 net.cpp:165] Memory required for data: 261517324
I1215 20:40:29.212543 66947 layer_factory.hpp:77] Creating layer scale5c_branch2c
I1215 20:40:29.212554 66947 net.cpp:100] Creating Layer scale5c_branch2c
I1215 20:40:29.212559 66947 net.cpp:444] scale5c_branch2c <- res5c_branch2c
I1215 20:40:29.212565 66947 net.cpp:405] scale5c_branch2c -> res5c_branch2c (in-place)
I1215 20:40:29.212611 66947 layer_factory.hpp:77] Creating layer scale5c_branch2c
I1215 20:40:29.212736 66947 net.cpp:150] Setting up scale5c_branch2c
I1215 20:40:29.212746 66947 net.cpp:157] Top shape: 1 2048 14 14 (401408)
I1215 20:40:29.212749 66947 net.cpp:165] Memory required for data: 263122956
I1215 20:40:29.212757 66947 layer_factory.hpp:77] Creating layer res5c
I1215 20:40:29.212764 66947 net.cpp:100] Creating Layer res5c
I1215 20:40:29.212769 66947 net.cpp:444] res5c <- res5b_res5b_relu_0_split_1
I1215 20:40:29.212774 66947 net.cpp:444] res5c <- res5c_branch2c
I1215 20:40:29.212781 66947 net.cpp:418] res5c -> res5c
I1215 20:40:29.212810 66947 net.cpp:150] Setting up res5c
I1215 20:40:29.212817 66947 net.cpp:157] Top shape: 1 2048 14 14 (401408)
I1215 20:40:29.212821 66947 net.cpp:165] Memory required for data: 264728588
I1215 20:40:29.212826 66947 layer_factory.hpp:77] Creating layer res5c_relu
I1215 20:40:29.212831 66947 net.cpp:100] Creating Layer res5c_relu
I1215 20:40:29.212836 66947 net.cpp:444] res5c_relu <- res5c
I1215 20:40:29.212841 66947 net.cpp:405] res5c_relu -> res5c (in-place)
I1215 20:40:29.212847 66947 net.cpp:150] Setting up res5c_relu
I1215 20:40:29.212854 66947 net.cpp:157] Top shape: 1 2048 14 14 (401408)
I1215 20:40:29.212857 66947 net.cpp:165] Memory required for data: 266334220
I1215 20:40:29.212862 66947 layer_factory.hpp:77] Creating layer rpn_conv/3x3
I1215 20:40:29.212874 66947 net.cpp:100] Creating Layer rpn_conv/3x3
I1215 20:40:29.212880 66947 net.cpp:444] rpn_conv/3x3 <- res4f_res4f_relu_0_split_2
I1215 20:40:29.212888 66947 net.cpp:418] rpn_conv/3x3 -> rpn/output
I1215 20:40:29.391477 66947 net.cpp:150] Setting up rpn_conv/3x3
I1215 20:40:29.391530 66947 net.cpp:157] Top shape: 1 512 14 14 (100352)
I1215 20:40:29.391535 66947 net.cpp:165] Memory required for data: 266735628
I1215 20:40:29.391557 66947 layer_factory.hpp:77] Creating layer rpn_relu/3x3
I1215 20:40:29.391577 66947 net.cpp:100] Creating Layer rpn_relu/3x3
I1215 20:40:29.391597 66947 net.cpp:444] rpn_relu/3x3 <- rpn/output
I1215 20:40:29.391611 66947 net.cpp:405] rpn_relu/3x3 -> rpn/output (in-place)
I1215 20:40:29.391628 66947 net.cpp:150] Setting up rpn_relu/3x3
I1215 20:40:29.391635 66947 net.cpp:157] Top shape: 1 512 14 14 (100352)
I1215 20:40:29.391638 66947 net.cpp:165] Memory required for data: 267137036
I1215 20:40:29.391643 66947 layer_factory.hpp:77] Creating layer rpn/output_rpn_relu/3x3_0_split
I1215 20:40:29.391650 66947 net.cpp:100] Creating Layer rpn/output_rpn_relu/3x3_0_split
I1215 20:40:29.391657 66947 net.cpp:444] rpn/output_rpn_relu/3x3_0_split <- rpn/output
I1215 20:40:29.391664 66947 net.cpp:418] rpn/output_rpn_relu/3x3_0_split -> rpn/output_rpn_relu/3x3_0_split_0
I1215 20:40:29.391672 66947 net.cpp:418] rpn/output_rpn_relu/3x3_0_split -> rpn/output_rpn_relu/3x3_0_split_1
I1215 20:40:29.391748 66947 net.cpp:150] Setting up rpn/output_rpn_relu/3x3_0_split
I1215 20:40:29.391757 66947 net.cpp:157] Top shape: 1 512 14 14 (100352)
I1215 20:40:29.391762 66947 net.cpp:157] Top shape: 1 512 14 14 (100352)
I1215 20:40:29.391765 66947 net.cpp:165] Memory required for data: 267939852
I1215 20:40:29.391770 66947 layer_factory.hpp:77] Creating layer rpn_cls_score
I1215 20:40:29.391788 66947 net.cpp:100] Creating Layer rpn_cls_score
I1215 20:40:29.391794 66947 net.cpp:444] rpn_cls_score <- rpn/output_rpn_relu/3x3_0_split_0
I1215 20:40:29.391803 66947 net.cpp:418] rpn_cls_score -> rpn_cls_score
I1215 20:40:29.392901 66947 net.cpp:150] Setting up rpn_cls_score
I1215 20:40:29.392913 66947 net.cpp:157] Top shape: 1 42 14 14 (8232)
I1215 20:40:29.392917 66947 net.cpp:165] Memory required for data: 267972780
I1215 20:40:29.392926 66947 layer_factory.hpp:77] Creating layer rpn_bbox_pred
I1215 20:40:29.392941 66947 net.cpp:100] Creating Layer rpn_bbox_pred
I1215 20:40:29.392947 66947 net.cpp:444] rpn_bbox_pred <- rpn/output_rpn_relu/3x3_0_split_1
I1215 20:40:29.392954 66947 net.cpp:418] rpn_bbox_pred -> rpn_bbox_pred
I1215 20:40:29.394762 66947 net.cpp:150] Setting up rpn_bbox_pred
I1215 20:40:29.394773 66947 net.cpp:157] Top shape: 1 84 14 14 (16464)
I1215 20:40:29.394778 66947 net.cpp:165] Memory required for data: 268038636
I1215 20:40:29.394786 66947 layer_factory.hpp:77] Creating layer rpn_cls_score_reshape
I1215 20:40:29.394796 66947 net.cpp:100] Creating Layer rpn_cls_score_reshape
I1215 20:40:29.394801 66947 net.cpp:444] rpn_cls_score_reshape <- rpn_cls_score
I1215 20:40:29.394807 66947 net.cpp:418] rpn_cls_score_reshape -> rpn_cls_score_reshape
I1215 20:40:29.394840 66947 net.cpp:150] Setting up rpn_cls_score_reshape
I1215 20:40:29.394848 66947 net.cpp:157] Top shape: 1 2 294 14 (8232)
I1215 20:40:29.394852 66947 net.cpp:165] Memory required for data: 268071564
I1215 20:40:29.394856 66947 layer_factory.hpp:77] Creating layer rpn_cls_prob
I1215 20:40:29.394865 66947 net.cpp:100] Creating Layer rpn_cls_prob
I1215 20:40:29.394871 66947 net.cpp:444] rpn_cls_prob <- rpn_cls_score_reshape
I1215 20:40:29.394878 66947 net.cpp:418] rpn_cls_prob -> rpn_cls_prob
I1215 20:40:29.394942 66947 net.cpp:150] Setting up rpn_cls_prob
I1215 20:40:29.394951 66947 net.cpp:157] Top shape: 1 2 294 14 (8232)
I1215 20:40:29.394956 66947 net.cpp:165] Memory required for data: 268104492
I1215 20:40:29.394960 66947 layer_factory.hpp:77] Creating layer rpn_cls_prob_reshape
I1215 20:40:29.394966 66947 net.cpp:100] Creating Layer rpn_cls_prob_reshape
I1215 20:40:29.394970 66947 net.cpp:444] rpn_cls_prob_reshape <- rpn_cls_prob
I1215 20:40:29.394979 66947 net.cpp:418] rpn_cls_prob_reshape -> rpn_cls_prob_reshape
I1215 20:40:29.395004 66947 net.cpp:150] Setting up rpn_cls_prob_reshape
I1215 20:40:29.395012 66947 net.cpp:157] Top shape: 1 42 14 14 (8232)
I1215 20:40:29.395016 66947 net.cpp:165] Memory required for data: 268137420
I1215 20:40:29.395020 66947 layer_factory.hpp:77] Creating layer proposal
I1215 20:40:29.395845 66947 net.cpp:100] Creating Layer proposal
I1215 20:40:29.395862 66947 net.cpp:444] proposal <- rpn_cls_prob_reshape
I1215 20:40:29.395869 66947 net.cpp:444] proposal <- rpn_bbox_pred
I1215 20:40:29.395879 66947 net.cpp:444] proposal <- im_info
I1215 20:40:29.395891 66947 net.cpp:418] proposal -> rois
I1215 20:40:29.396936 66947 net.cpp:150] Setting up proposal
I1215 20:40:29.396955 66947 net.cpp:157] Top shape: 1 5 (5)
I1215 20:40:29.396961 66947 net.cpp:165] Memory required for data: 268137440
I1215 20:40:29.396965 66947 layer_factory.hpp:77] Creating layer rois_proposal_0_split
I1215 20:40:29.396973 66947 net.cpp:100] Creating Layer rois_proposal_0_split
I1215 20:40:29.396978 66947 net.cpp:444] rois_proposal_0_split <- rois
I1215 20:40:29.396986 66947 net.cpp:418] rois_proposal_0_split -> rois_proposal_0_split_0
I1215 20:40:29.396996 66947 net.cpp:418] rois_proposal_0_split -> rois_proposal_0_split_1
I1215 20:40:29.397039 66947 net.cpp:150] Setting up rois_proposal_0_split
I1215 20:40:29.397048 66947 net.cpp:157] Top shape: 1 5 (5)
I1215 20:40:29.397053 66947 net.cpp:157] Top shape: 1 5 (5)
I1215 20:40:29.397056 66947 net.cpp:165] Memory required for data: 268137480
I1215 20:40:29.397060 66947 layer_factory.hpp:77] Creating layer conv_new_1
I1215 20:40:29.397075 66947 net.cpp:100] Creating Layer conv_new_1
I1215 20:40:29.397084 66947 net.cpp:444] conv_new_1 <- res5c
I1215 20:40:29.397094 66947 net.cpp:418] conv_new_1 -> conv_new_1
I1215 20:40:29.475565 66947 net.cpp:150] Setting up conv_new_1
I1215 20:40:29.475590 66947 net.cpp:157] Top shape: 1 1024 14 14 (200704)
I1215 20:40:29.475605 66947 net.cpp:165] Memory required for data: 268940296
I1215 20:40:29.475613 66947 layer_factory.hpp:77] Creating layer conv_new_1_relu
I1215 20:40:29.475622 66947 net.cpp:100] Creating Layer conv_new_1_relu
I1215 20:40:29.475627 66947 net.cpp:444] conv_new_1_relu <- conv_new_1
I1215 20:40:29.475636 66947 net.cpp:405] conv_new_1_relu -> conv_new_1 (in-place)
I1215 20:40:29.475651 66947 net.cpp:150] Setting up conv_new_1_relu
I1215 20:40:29.475659 66947 net.cpp:157] Top shape: 1 1024 14 14 (200704)
I1215 20:40:29.475663 66947 net.cpp:165] Memory required for data: 269743112
I1215 20:40:29.475667 66947 layer_factory.hpp:77] Creating layer conv_new_1_conv_new_1_relu_0_split
I1215 20:40:29.475673 66947 net.cpp:100] Creating Layer conv_new_1_conv_new_1_relu_0_split
I1215 20:40:29.475677 66947 net.cpp:444] conv_new_1_conv_new_1_relu_0_split <- conv_new_1
I1215 20:40:29.475682 66947 net.cpp:418] conv_new_1_conv_new_1_relu_0_split -> conv_new_1_conv_new_1_relu_0_split_0
I1215 20:40:29.475689 66947 net.cpp:418] conv_new_1_conv_new_1_relu_0_split -> conv_new_1_conv_new_1_relu_0_split_1
I1215 20:40:29.475735 66947 net.cpp:150] Setting up conv_new_1_conv_new_1_relu_0_split
I1215 20:40:29.475745 66947 net.cpp:157] Top shape: 1 1024 14 14 (200704)
I1215 20:40:29.475750 66947 net.cpp:157] Top shape: 1 1024 14 14 (200704)
I1215 20:40:29.475754 66947 net.cpp:165] Memory required for data: 271348744
I1215 20:40:29.475757 66947 layer_factory.hpp:77] Creating layer rfcn_cls
I1215 20:40:29.475770 66947 net.cpp:100] Creating Layer rfcn_cls
I1215 20:40:29.475776 66947 net.cpp:444] rfcn_cls <- conv_new_1_conv_new_1_relu_0_split_0
I1215 20:40:29.475786 66947 net.cpp:418] rfcn_cls -> rfcn_cls
I1215 20:40:29.480130 66947 net.cpp:150] Setting up rfcn_cls
I1215 20:40:29.480146 66947 net.cpp:157] Top shape: 1 98 14 14 (19208)
I1215 20:40:29.480151 66947 net.cpp:165] Memory required for data: 271425576
I1215 20:40:29.480160 66947 layer_factory.hpp:77] Creating layer rfcn_bbox
I1215 20:40:29.480188 66947 net.cpp:100] Creating Layer rfcn_bbox
I1215 20:40:29.480196 66947 net.cpp:444] rfcn_bbox <- conv_new_1_conv_new_1_relu_0_split_1
I1215 20:40:29.480206 66947 net.cpp:418] rfcn_bbox -> rfcn_bbox
I1215 20:40:29.495467 66947 net.cpp:150] Setting up rfcn_bbox
I1215 20:40:29.495484 66947 net.cpp:157] Top shape: 1 392 14 14 (76832)
I1215 20:40:29.495488 66947 net.cpp:165] Memory required for data: 271732904
I1215 20:40:29.495497 66947 layer_factory.hpp:77] Creating layer psroipooled_cls_rois
I1215 20:40:29.495510 66947 net.cpp:100] Creating Layer psroipooled_cls_rois
I1215 20:40:29.495515 66947 net.cpp:444] psroipooled_cls_rois <- rfcn_cls
I1215 20:40:29.495522 66947 net.cpp:444] psroipooled_cls_rois <- rois_proposal_0_split_0
I1215 20:40:29.495532 66947 net.cpp:418] psroipooled_cls_rois -> psroipooled_cls_rois
I1215 20:40:29.495543 66947 psroi_pooling_layer.cpp:26] Spatial scale: 0.0625
I1215 20:40:29.495610 66947 net.cpp:150] Setting up psroipooled_cls_rois
I1215 20:40:29.495621 66947 net.cpp:157] Top shape: 1 2 7 7 (98)
I1215 20:40:29.495625 66947 net.cpp:165] Memory required for data: 271733296
I1215 20:40:29.495628 66947 layer_factory.hpp:77] Creating layer ave_cls_score_rois
I1215 20:40:29.495638 66947 net.cpp:100] Creating Layer ave_cls_score_rois
I1215 20:40:29.495645 66947 net.cpp:444] ave_cls_score_rois <- psroipooled_cls_rois
I1215 20:40:29.495651 66947 net.cpp:418] ave_cls_score_rois -> cls_score
I1215 20:40:29.495682 66947 net.cpp:150] Setting up ave_cls_score_rois
I1215 20:40:29.495690 66947 net.cpp:157] Top shape: 1 2 1 1 (2)
I1215 20:40:29.495693 66947 net.cpp:165] Memory required for data: 271733304
I1215 20:40:29.495697 66947 layer_factory.hpp:77] Creating layer psroipooled_loc_rois
I1215 20:40:29.495704 66947 net.cpp:100] Creating Layer psroipooled_loc_rois
I1215 20:40:29.495708 66947 net.cpp:444] psroipooled_loc_rois <- rfcn_bbox
I1215 20:40:29.495713 66947 net.cpp:444] psroipooled_loc_rois <- rois_proposal_0_split_1
I1215 20:40:29.495721 66947 net.cpp:418] psroipooled_loc_rois -> psroipooled_loc_rois
I1215 20:40:29.495728 66947 psroi_pooling_layer.cpp:26] Spatial scale: 0.0625
I1215 20:40:29.495769 66947 net.cpp:150] Setting up psroipooled_loc_rois
I1215 20:40:29.495779 66947 net.cpp:157] Top shape: 1 8 7 7 (392)
I1215 20:40:29.495784 66947 net.cpp:165] Memory required for data: 271734872
I1215 20:40:29.495787 66947 layer_factory.hpp:77] Creating layer ave_bbox_pred_rois
I1215 20:40:29.495795 66947 net.cpp:100] Creating Layer ave_bbox_pred_rois
I1215 20:40:29.495798 66947 net.cpp:444] ave_bbox_pred_rois <- psroipooled_loc_rois
I1215 20:40:29.495805 66947 net.cpp:418] ave_bbox_pred_rois -> bbox_pred_pre
I1215 20:40:29.495829 66947 net.cpp:150] Setting up ave_bbox_pred_rois
I1215 20:40:29.495837 66947 net.cpp:157] Top shape: 1 8 1 1 (8)
I1215 20:40:29.495841 66947 net.cpp:165] Memory required for data: 271734904
I1215 20:40:29.495844 66947 layer_factory.hpp:77] Creating layer cls_prob
I1215 20:40:29.495851 66947 net.cpp:100] Creating Layer cls_prob
I1215 20:40:29.495856 66947 net.cpp:444] cls_prob <- cls_score
I1215 20:40:29.495862 66947 net.cpp:418] cls_prob -> cls_prob_pre
I1215 20:40:29.495924 66947 net.cpp:150] Setting up cls_prob
I1215 20:40:29.495932 66947 net.cpp:157] Top shape: 1 2 1 1 (2)
I1215 20:40:29.495936 66947 net.cpp:165] Memory required for data: 271734912
I1215 20:40:29.495940 66947 layer_factory.hpp:77] Creating layer cls_prob_reshape
I1215 20:40:29.495949 66947 net.cpp:100] Creating Layer cls_prob_reshape
I1215 20:40:29.495952 66947 net.cpp:444] cls_prob_reshape <- cls_prob_pre
I1215 20:40:29.495959 66947 net.cpp:418] cls_prob_reshape -> cls_prob
I1215 20:40:29.495985 66947 net.cpp:150] Setting up cls_prob_reshape
I1215 20:40:29.495993 66947 net.cpp:157] Top shape: 1 2 (2)
I1215 20:40:29.495997 66947 net.cpp:165] Memory required for data: 271734920
I1215 20:40:29.496001 66947 layer_factory.hpp:77] Creating layer bbox_pred_reshape
I1215 20:40:29.496007 66947 net.cpp:100] Creating Layer bbox_pred_reshape
I1215 20:40:29.496011 66947 net.cpp:444] bbox_pred_reshape <- bbox_pred_pre
I1215 20:40:29.496016 66947 net.cpp:418] bbox_pred_reshape -> bbox_pred
I1215 20:40:29.496042 66947 net.cpp:150] Setting up bbox_pred_reshape
I1215 20:40:29.496049 66947 net.cpp:157] Top shape: 1 8 (8)
I1215 20:40:29.496053 66947 net.cpp:165] Memory required for data: 271734952
I1215 20:40:29.496057 66947 net.cpp:228] bbox_pred_reshape does not need backward computation.
I1215 20:40:29.496062 66947 net.cpp:228] cls_prob_reshape does not need backward computation.
I1215 20:40:29.496065 66947 net.cpp:228] cls_prob does not need backward computation.
I1215 20:40:29.496068 66947 net.cpp:228] ave_bbox_pred_rois does not need backward computation.
…
