…
snapshot_prefix: "vgg16_faster_rcnn"
average_loss: 100
iter_size: 2
I1027 10:38:00.487114  3694 solver.cpp:81] Creating training net from train_net file: models/pascal_voc/VGG16/faster_rcnn_end2end/train.prototxt
I1027 10:38:00.490108  3694 net.cpp:49] Initializing net from parameters: 
name: "VGG_ILSVRC_16_layers"
state {
  phase: TRAIN
}
layer {
  name: "input-data"
  type: "Python"
  top: "data"
  top: "im_info"
  top: "gt_boxes"
  python_param {
    module: "roi_data_layer.layer"
    layer: "RoIDataLayer"
    param_str: "\'num_classes\': 2"
  }
}
layer {
  name: "conv1_1"
  type: "Convolution"
  bottom: "data"
  top: "conv1_1"
  param {
    lr_mult: 0
    decay_mult: 0
  }
  param {
    lr_mult: 0
    decay_mult: 0
  }
  convolution_param {
    num_output: 64
    pad: 1
    kernel_size: 3
  }
}
layer {
  name: "relu1_1"
  type: "ReLU"
  bottom: "conv1_1"
  top: "conv1_1"
}
layer {
  name: "conv1_2"
  type: "Convolution"
  bottom: "conv1_1"
  top: "conv1_2"
  param {
    lr_mult: 0
    decay_mult: 0
  }
  param {
    lr_mult: 0
    decay_mult: 0
  }
  convolution_param {
    num_output: 64
    pad: 1
    kernel_size: 3
  }
}
layer {
  name: "relu1_2"
  type: "ReLU"
  bottom: "conv1_2"
  top: "conv1_2"
}
layer {
  name: "pool1"
  type: "Pooling"
  bottom: "conv1_2"
  top: "pool1"
  pooling_param {
    pool: MAX
    kernel_size: 2
    stride: 2
  }
}
layer {
  name: "conv2_1"
  type: "Convolution"
  bottom: "pool1"
  top: "conv2_1"
  param {
    lr_mult: 0
    decay_mult: 0
  }
  param {
    lr_mult: 0
    decay_mult: 0
  }
  convolution_param {
    num_output: 128
    pad: 1
    kernel_size: 3
  }
}
layer {
  name: "relu2_1"
  type: "ReLU"
  bottom: "conv2_1"
  top: "conv2_1"
}
layer {
  name: "conv2_2"
  type: "Convolution"
  bottom: "conv2_1"
  top: "conv2_2"
  param {
    lr_mult: 0
    decay_mult: 0
  }
  param {
    lr_mult: 0
    decay_mult: 0
  }
  convolution_param {
    num_output: 128
    pad: 1
    kernel_size: 3
  }
}
layer {
  name: "relu2_2"
  type: "ReLU"
  bottom: "conv2_2"
  top: "conv2_2"
}
layer {
  name: "pool2"
  type: "Pooling"
  bottom: "conv2_2"
  top: "pool2"
  pooling_param {
    pool: MAX
    kernel_size: 2
    stride: 2
  }
}
layer {
  name: "conv3_1"
  type: "Convolution"
  bottom: "pool2"
  top: "conv3_1"
  param {
    lr_mult: 1
  }
  param {
    lr_mult: 2
  }
  convolution_param {
    num_output: 256
    pad: 1
    kernel_size: 3
  }
}
layer {
  name: "relu3_1"
  type: "ReLU"
  bottom: "conv3_1"
  top: "conv3_1"
}
layer {
  name: "conv3_2"
  type: "Convolution"
  bottom: "conv3_1"
  top: "conv3_2"
  param {
    lr_mult: 1
  }
  param {
    lr_mult: 2
  }
  convolution_param {
    num_output: 256
    pad: 1
    kernel_size: 3
  }
}
layer {
  name: "relu3_2"
  type: "ReLU"
  bottom: "conv3_2"
  top: "conv3_2"
}
layer {
  name: "conv3_3"
  type: "Convolution"
  bottom: "conv3_2"
  top: "conv3_3"
  param {
    lr_mult: 1
  }
  param {
    lr_mult: 2
  }
  convolution_param {
    num_output: 256
    pad: 1
    kernel_size: 3
  }
}
layer {
  name: "relu3_3"
  type: "ReLU"
  bottom: "conv3_3"
  top: "conv3_3"
}
layer {
  name: "pool3"
  type: "Pooling"
  bottom: "conv3_3"
  top: "pool3"
  pooling_param {
    pool: MAX
    kernel_size: 2
    stride: 2
  }
}
layer {
  name: "conv4_1"
  type: "Convolution"
  bottom: "pool3"
  top: "conv4_1"
  param {
    lr_mult: 1
  }
  param {
    lr_mult: 2
  }
  convolution_param {
    num_output: 512
    pad: 1
    kernel_size: 3
  }
}
layer {
  name: "relu4_1"
  type: "ReLU"
  bottom: "conv4_1"
  top: "conv4_1"
}
layer {
  name: "conv4_2"
  type: "Convolution"
  bottom: "conv4_1"
  top: "conv4_2"
  param {
    lr_mult: 1
  }
  param {
    lr_mult: 2
  }
  convolution_param {
    num_output: 512
    pad: 1
    kernel_size: 3
  }
}
layer {
  name: "relu4_2"
  type: "ReLU"
  bottom: "conv4_2"
  top: "conv4_2"
}
layer {
  name: "conv4_3"
  type: "Convolution"
  bottom: "conv4_2"
  top: "conv4_3"
  param {
    lr_mult: 1
  }
  param {
    lr_mult: 2
  }
  convolution_param {
    num_output: 512
    pad: 1
    kernel_size: 3
  }
}
layer {
  name: "relu4_3"
  type: "ReLU"
  bottom: "conv4_3"
  top: "conv4_3"
}
layer {
  name: "rpn_conv/3x3"
  type: "Convolution"
  bottom: "conv4_3"
  top: "rpn/output"
  param {
    lr_mult: 0.1
  }
  param {
    lr_mult: 2
  }
  convolution_param {
    num_output: 512
    pad: 1
    kernel_size: 3
    stride: 1
    weight_filler {
      type: "gaussian"
      std: 0.001
    }
    bias_filler {
      type: "constant"
      value: 0
    }
  }
}
layer {
  name: "rpn_relu/3x3"
  type: "ReLU"
  bottom: "rpn/output"
  top: "rpn/output"
}
layer {
  name: "rpn_cls_score"
  type: "Convolution"
  bottom: "rpn/output"
  top: "rpn_cls_score"
  param {
    lr_mult: 1
  }
  param {
    lr_mult: 2
  }
  convolution_param {
    num_output: 70
    pad: 0
    kernel_size: 1
    stride: 1
    weight_filler {
      type: "gaussian"
      std: 0.01
    }
    bias_filler {
      type: "constant"
      value: 0
    }
  }
}
layer {
  name: "rpn_bbox_pred"
  type: "Convolution"
  bottom: "rpn/output"
  top: "rpn_bbox_pred"
  param {
    lr_mult: 1
  }
  param {
    lr_mult: 2
  }
  convolution_param {
    num_output: 140
    pad: 0
    kernel_size: 1
    stride: 1
    weight_filler {
      type: "gaussian"
      std: 0.01
    }
    bias_filler {
      type: "constant"
      value: 0
    }
  }
}
layer {
  name: "rpn_cls_score_reshape"
  type: "Reshape"
  bottom: "rpn_cls_score"
  top: "rpn_cls_score_reshape"
  reshape_param {
    shape {
      dim: 0
      dim: 2
      dim: -1
      dim: 0
    }
  }
}
layer {
  name: "rpn-data"
  type: "Python"
  bottom: "rpn_cls_score"
  bottom: "gt_boxes"
  bottom: "im_info"
  bottom: "data"
  top: "rpn_labels"
  top: "rpn_bbox_targets"
  top: "rpn_bbox_inside_weights"
  top: "rpn_bbox_outside_weights"
  python_param {
    module: "rpn.anchor_target_layer"
    layer: "AnchorTargetLayer"
    param_str: "\'feat_stride\': 8"
  }
}
layer {
  name: "rpn_loss_cls"
  type: "SoftmaxWithLoss"
  bottom: "rpn_cls_score_reshape"
  bottom: "rpn_labels"
  top: "rpn_cls_loss"
  loss_weight: 1
  propagate_down: true
  propagate_down: false
  loss_param {
    ignore_label: -1
    normalize: true
  }
}
layer {
  name: "rpn_loss_bbox"
  type: "SmoothL1Loss"
  bottom: "rpn_bbox_pred"
  bottom: "rpn_bbox_targets"
  bottom: "rpn_bbox_inside_weights"
  bottom: "rpn_bbox_outside_weights"
  top: "rpn_loss_bbox"
  loss_weight: 1
  smooth_l1_loss_param {
    sigma: 3
  }
}
layer {
  name: "rpn_cls_prob"
  type: "Softmax"
  bottom: "rpn_cls_score_reshape"
  top: "rpn_cls_prob"
}
layer {
  name: "rpn_cls_prob_reshape"
  type: "Reshape"
  bottom: "rpn_cls_prob"
  top: "rpn_cls_prob_reshape"
  reshape_param {
    shape {
      dim: 0
      dim: 70
      dim: -1
      dim: 0
    }
  }
}
layer {
  name: "proposal"
  type: "Python"
  bottom: "rpn_cls_prob_reshape"
  bottom: "rpn_bbox_pred"
  bottom: "im_info"
  top: "rpn_rois"
  python_param {
    module: "rpn.proposal_layer"
    layer: "ProposalLayer"
    param_str: "\'feat_stride\': 8"
  }
}
layer {
  name: "roi-data"
  type: "Python"
  bottom: "rpn_rois"
  bottom: "gt_boxes"
  top: "rois"
  top: "labels"
  top: "bbox_targets"
  top: "bbox_inside_weights"
  top: "bbox_outside_weights"
  python_param {
    module: "rpn.proposal_target_layer"
    layer: "ProposalTargetLayer"
    param_str: "\'num_classes\': 2"
  }
}
layer {
  name: "roi_pool5"
  type: "ROIPooling"
  bottom: "conv4_3"
  bottom: "rois"
  top: "pool5"
  roi_pooling_param {
    pooled_h: 7
    pooled_w: 7
    spatial_scale: 0.125
  }
}
layer {
  name: "fc6"
  type: "InnerProduct"
  bottom: "pool5"
  top: "fc6"
  param {
    lr_mult: 1
  }
  param {
    lr_mult: 2
  }
  inner_product_param {
    num_output: 4096
  }
}
layer {
  name: "relu6"
  type: "ReLU"
  bottom: "fc6"
  top: "fc6"
}
layer {
  name: "drop6"
  type: "Dropout"
  bottom: "fc6"
  top: "fc6"
  dropout_param {
    dropout_ratio: 0.5
  }
}
layer {
  name: "fc7"
  type: "InnerProduct"
  bottom: "fc6"
  top: "fc7"
  param {
    lr_mult: 1
  }
  param {
    lr_mult: 2
  }
  inner_product_param {
    num_output: 4096
  }
}
layer {
  name: "relu7"
  type: "ReLU"
  bottom: "fc7"
  top: "fc7"
}
layer {
  name: "drop7"
  type: "Dropout"
  bottom: "fc7"
  top: "fc7"
  dropout_param {
    dropout_ratio: 0.5
  }
}
layer {
  name: "cls_score"
  type: "InnerProduct"
  bottom: "fc7"
  top: "cls_score"
  param {
    lr_mult: 1
  }
  param {
    lr_mult: 2
  }
  inner_product_param {
    num_output: 2
    weight_filler {
      type: "gaussian"
      std: 0.01
    }
    bias_filler {
      type: "constant"
      value: 0
    }
  }
}
layer {
  name: "bbox_pred"
  type: "InnerProduct"
  bottom: "fc7"
  top: "bbox_pred"
  param {
    lr_mult: 1
  }
  param {
    lr_mult: 2
  }
  inner_product_param {
    num_output: 8
    weight_filler {
      type: "gaussian"
      std: 0.001
    }
    bias_filler {
      type: "constant"
      value: 0
    }
  }
}
layer {
  name: "loss_cls"
  type: "SoftmaxWithLoss"
  bottom: "cls_score"
  bottom: "labels"
  top: "loss_cls"
  loss_weight: 1
  propagate_down: true
  propagate_down: false
}
layer {
  name: "loss_bbox"
  type: "SmoothL1Loss"
  bottom: "bbox_pred"
  bottom: "bbox_targets"
  bottom: "bbox_inside_weights"
  bottom: "bbox_outside_weights"
  top: "loss_bbox"
  loss_weight: 1
}
I1027 10:38:00.490711  3694 layer_factory.hpp:77] Creating layer input-data
I1027 10:38:00.514943  3694 net.cpp:106] Creating Layer input-data
I1027 10:38:00.514976  3694 net.cpp:411] input-data -> data
I1027 10:38:00.514999  3694 net.cpp:411] input-data -> im_info
I1027 10:38:00.515017  3694 net.cpp:411] input-data -> gt_boxes
I1027 10:38:00.530158  3694 net.cpp:150] Setting up input-data
I1027 10:38:00.530190  3694 net.cpp:157] Top shape: 1 3 900 1370 (3699000)
I1027 10:38:00.530203  3694 net.cpp:157] Top shape: 1 3 (3)
I1027 10:38:00.530212  3694 net.cpp:157] Top shape: 1 4 (4)
I1027 10:38:00.530220  3694 net.cpp:165] Memory required for data: 14796028
I1027 10:38:00.530230  3694 layer_factory.hpp:77] Creating layer data_input-data_0_split
I1027 10:38:00.530243  3694 net.cpp:106] Creating Layer data_input-data_0_split
I1027 10:38:00.530252  3694 net.cpp:454] data_input-data_0_split <- data
I1027 10:38:00.530266  3694 net.cpp:411] data_input-data_0_split -> data_input-data_0_split_0
I1027 10:38:00.530282  3694 net.cpp:411] data_input-data_0_split -> data_input-data_0_split_1
I1027 10:38:00.530370  3694 net.cpp:150] Setting up data_input-data_0_split
I1027 10:38:00.530385  3694 net.cpp:157] Top shape: 1 3 900 1370 (3699000)
I1027 10:38:00.530395  3694 net.cpp:157] Top shape: 1 3 900 1370 (3699000)
I1027 10:38:00.530402  3694 net.cpp:165] Memory required for data: 44388028
I1027 10:38:00.530411  3694 layer_factory.hpp:77] Creating layer im_info_input-data_1_split
I1027 10:38:00.530422  3694 net.cpp:106] Creating Layer im_info_input-data_1_split
I1027 10:38:00.530431  3694 net.cpp:454] im_info_input-data_1_split <- im_info
I1027 10:38:00.530441  3694 net.cpp:411] im_info_input-data_1_split -> im_info_input-data_1_split_0
I1027 10:38:00.530454  3694 net.cpp:411] im_info_input-data_1_split -> im_info_input-data_1_split_1
I1027 10:38:00.530529  3694 net.cpp:150] Setting up im_info_input-data_1_split
I1027 10:38:00.530550  3694 net.cpp:157] Top shape: 1 3 (3)
I1027 10:38:00.530560  3694 net.cpp:157] Top shape: 1 3 (3)
I1027 10:38:00.530566  3694 net.cpp:165] Memory required for data: 44388052
I1027 10:38:00.530575  3694 layer_factory.hpp:77] Creating layer gt_boxes_input-data_2_split
I1027 10:38:00.530585  3694 net.cpp:106] Creating Layer gt_boxes_input-data_2_split
I1027 10:38:00.530592  3694 net.cpp:454] gt_boxes_input-data_2_split <- gt_boxes
I1027 10:38:00.530602  3694 net.cpp:411] gt_boxes_input-data_2_split -> gt_boxes_input-data_2_split_0
I1027 10:38:00.530616  3694 net.cpp:411] gt_boxes_input-data_2_split -> gt_boxes_input-data_2_split_1
I1027 10:38:00.530691  3694 net.cpp:150] Setting up gt_boxes_input-data_2_split
I1027 10:38:00.530704  3694 net.cpp:157] Top shape: 1 4 (4)
I1027 10:38:00.530714  3694 net.cpp:157] Top shape: 1 4 (4)
I1027 10:38:00.530721  3694 net.cpp:165] Memory required for data: 44388084
I1027 10:38:00.530728  3694 layer_factory.hpp:77] Creating layer conv1_1
I1027 10:38:00.530755  3694 net.cpp:106] Creating Layer conv1_1
I1027 10:38:00.530763  3694 net.cpp:454] conv1_1 <- data_input-data_0_split_0
I1027 10:38:00.530776  3694 net.cpp:411] conv1_1 -> conv1_1
I1027 10:38:00.536104  3694 net.cpp:150] Setting up conv1_1
I1027 10:38:00.536134  3694 net.cpp:157] Top shape: 1 64 900 1370 (78912000)
I1027 10:38:00.536141  3694 net.cpp:165] Memory required for data: 360036084
I1027 10:38:00.536162  3694 layer_factory.hpp:77] Creating layer relu1_1
I1027 10:38:00.536176  3694 net.cpp:106] Creating Layer relu1_1
I1027 10:38:00.536185  3694 net.cpp:454] relu1_1 <- conv1_1
I1027 10:38:00.536196  3694 net.cpp:397] relu1_1 -> conv1_1 (in-place)
I1027 10:38:00.536211  3694 net.cpp:150] Setting up relu1_1
I1027 10:38:00.536221  3694 net.cpp:157] Top shape: 1 64 900 1370 (78912000)
I1027 10:38:00.536227  3694 net.cpp:165] Memory required for data: 675684084
I1027 10:38:00.536234  3694 layer_factory.hpp:77] Creating layer conv1_2
I1027 10:38:00.536248  3694 net.cpp:106] Creating Layer conv1_2
I1027 10:38:00.536255  3694 net.cpp:454] conv1_2 <- conv1_1
I1027 10:38:00.536267  3694 net.cpp:411] conv1_2 -> conv1_2
I1027 10:38:00.541586  3694 net.cpp:150] Setting up conv1_2
I1027 10:38:00.541615  3694 net.cpp:157] Top shape: 1 64 900 1370 (78912000)
I1027 10:38:00.541622  3694 net.cpp:165] Memory required for data: 991332084
I1027 10:38:00.541640  3694 layer_factory.hpp:77] Creating layer relu1_2
I1027 10:38:00.541653  3694 net.cpp:106] Creating Layer relu1_2
I1027 10:38:00.541661  3694 net.cpp:454] relu1_2 <- conv1_2
I1027 10:38:00.541673  3694 net.cpp:397] relu1_2 -> conv1_2 (in-place)
I1027 10:38:00.541687  3694 net.cpp:150] Setting up relu1_2
I1027 10:38:00.541697  3694 net.cpp:157] Top shape: 1 64 900 1370 (78912000)
I1027 10:38:00.541703  3694 net.cpp:165] Memory required for data: 1306980084
I1027 10:38:00.541710  3694 layer_factory.hpp:77] Creating layer pool1
I1027 10:38:00.541725  3694 net.cpp:106] Creating Layer pool1
I1027 10:38:00.541733  3694 net.cpp:454] pool1 <- conv1_2
I1027 10:38:00.541743  3694 net.cpp:411] pool1 -> pool1
I1027 10:38:00.541856  3694 net.cpp:150] Setting up pool1
I1027 10:38:00.541869  3694 net.cpp:157] Top shape: 1 64 450 685 (19728000)
I1027 10:38:00.541877  3694 net.cpp:165] Memory required for data: 1385892084
I1027 10:38:00.541883  3694 layer_factory.hpp:77] Creating layer conv2_1
I1027 10:38:00.541898  3694 net.cpp:106] Creating Layer conv2_1
I1027 10:38:00.541904  3694 net.cpp:454] conv2_1 <- pool1
I1027 10:38:00.541916  3694 net.cpp:411] conv2_1 -> conv2_1
I1027 10:38:00.544445  3694 net.cpp:150] Setting up conv2_1
I1027 10:38:00.544469  3694 net.cpp:157] Top shape: 1 128 450 685 (39456000)
I1027 10:38:00.544477  3694 net.cpp:165] Memory required for data: 1543716084
I1027 10:38:00.544494  3694 layer_factory.hpp:77] Creating layer relu2_1
I1027 10:38:00.544507  3694 net.cpp:106] Creating Layer relu2_1
I1027 10:38:00.544515  3694 net.cpp:454] relu2_1 <- conv2_1
I1027 10:38:00.544526  3694 net.cpp:397] relu2_1 -> conv2_1 (in-place)
I1027 10:38:00.544540  3694 net.cpp:150] Setting up relu2_1
I1027 10:38:00.544556  3694 net.cpp:157] Top shape: 1 128 450 685 (39456000)
I1027 10:38:00.544564  3694 net.cpp:165] Memory required for data: 1701540084
I1027 10:38:00.544569  3694 layer_factory.hpp:77] Creating layer conv2_2
I1027 10:38:00.544584  3694 net.cpp:106] Creating Layer conv2_2
I1027 10:38:00.544590  3694 net.cpp:454] conv2_2 <- conv2_1
I1027 10:38:00.544601  3694 net.cpp:411] conv2_2 -> conv2_2
I1027 10:38:00.546411  3694 net.cpp:150] Setting up conv2_2
I1027 10:38:00.546434  3694 net.cpp:157] Top shape: 1 128 450 685 (39456000)
I1027 10:38:00.546442  3694 net.cpp:165] Memory required for data: 1859364084
I1027 10:38:00.546455  3694 layer_factory.hpp:77] Creating layer relu2_2
I1027 10:38:00.546466  3694 net.cpp:106] Creating Layer relu2_2
I1027 10:38:00.546474  3694 net.cpp:454] relu2_2 <- conv2_2
I1027 10:38:00.546485  3694 net.cpp:397] relu2_2 -> conv2_2 (in-place)
I1027 10:38:00.546499  3694 net.cpp:150] Setting up relu2_2
I1027 10:38:00.546507  3694 net.cpp:157] Top shape: 1 128 450 685 (39456000)
I1027 10:38:00.546514  3694 net.cpp:165] Memory required for data: 2017188084
I1027 10:38:00.546520  3694 layer_factory.hpp:77] Creating layer pool2
I1027 10:38:00.546531  3694 net.cpp:106] Creating Layer pool2
I1027 10:38:00.546537  3694 net.cpp:454] pool2 <- conv2_2
I1027 10:38:00.546548  3694 net.cpp:411] pool2 -> pool2
I1027 10:38:00.546638  3694 net.cpp:150] Setting up pool2
I1027 10:38:00.546650  3694 net.cpp:157] Top shape: 1 128 225 343 (9878400)
I1027 10:38:00.546658  3694 net.cpp:165] Memory required for data: 2056701684
I1027 10:38:00.546663  3694 layer_factory.hpp:77] Creating layer conv3_1
I1027 10:38:00.546677  3694 net.cpp:106] Creating Layer conv3_1
I1027 10:38:00.546684  3694 net.cpp:454] conv3_1 <- pool2
I1027 10:38:00.546695  3694 net.cpp:411] conv3_1 -> conv3_1
I1027 10:38:00.549131  3694 net.cpp:150] Setting up conv3_1
I1027 10:38:00.549155  3694 net.cpp:157] Top shape: 1 256 225 343 (19756800)
I1027 10:38:00.549163  3694 net.cpp:165] Memory required for data: 2135728884
I1027 10:38:00.549181  3694 layer_factory.hpp:77] Creating layer relu3_1
I1027 10:38:00.549195  3694 net.cpp:106] Creating Layer relu3_1
I1027 10:38:00.549202  3694 net.cpp:454] relu3_1 <- conv3_1
I1027 10:38:00.549212  3694 net.cpp:397] relu3_1 -> conv3_1 (in-place)
I1027 10:38:00.549226  3694 net.cpp:150] Setting up relu3_1
I1027 10:38:00.549235  3694 net.cpp:157] Top shape: 1 256 225 343 (19756800)
I1027 10:38:00.549242  3694 net.cpp:165] Memory required for data: 2214756084
I1027 10:38:00.549248  3694 layer_factory.hpp:77] Creating layer conv3_2
I1027 10:38:00.549265  3694 net.cpp:106] Creating Layer conv3_2
I1027 10:38:00.549273  3694 net.cpp:454] conv3_2 <- conv3_1
I1027 10:38:00.549284  3694 net.cpp:411] conv3_2 -> conv3_2
I1027 10:38:00.551849  3694 net.cpp:150] Setting up conv3_2
I1027 10:38:00.551875  3694 net.cpp:157] Top shape: 1 256 225 343 (19756800)
I1027 10:38:00.551883  3694 net.cpp:165] Memory required for data: 2293783284
I1027 10:38:00.551895  3694 layer_factory.hpp:77] Creating layer relu3_2
I1027 10:38:00.551908  3694 net.cpp:106] Creating Layer relu3_2
I1027 10:38:00.551915  3694 net.cpp:454] relu3_2 <- conv3_2
I1027 10:38:00.551926  3694 net.cpp:397] relu3_2 -> conv3_2 (in-place)
I1027 10:38:00.551939  3694 net.cpp:150] Setting up relu3_2
I1027 10:38:00.551949  3694 net.cpp:157] Top shape: 1 256 225 343 (19756800)
I1027 10:38:00.551955  3694 net.cpp:165] Memory required for data: 2372810484
I1027 10:38:00.551962  3694 layer_factory.hpp:77] Creating layer conv3_3
I1027 10:38:00.551975  3694 net.cpp:106] Creating Layer conv3_3
I1027 10:38:00.551982  3694 net.cpp:454] conv3_3 <- conv3_2
I1027 10:38:00.551993  3694 net.cpp:411] conv3_3 -> conv3_3
I1027 10:38:00.554524  3694 net.cpp:150] Setting up conv3_3
I1027 10:38:00.554548  3694 net.cpp:157] Top shape: 1 256 225 343 (19756800)
I1027 10:38:00.554555  3694 net.cpp:165] Memory required for data: 2451837684
I1027 10:38:00.554568  3694 layer_factory.hpp:77] Creating layer relu3_3
I1027 10:38:00.554579  3694 net.cpp:106] Creating Layer relu3_3
I1027 10:38:00.554594  3694 net.cpp:454] relu3_3 <- conv3_3
I1027 10:38:00.554606  3694 net.cpp:397] relu3_3 -> conv3_3 (in-place)
I1027 10:38:00.554620  3694 net.cpp:150] Setting up relu3_3
I1027 10:38:00.554630  3694 net.cpp:157] Top shape: 1 256 225 343 (19756800)
I1027 10:38:00.554636  3694 net.cpp:165] Memory required for data: 2530864884
I1027 10:38:00.554641  3694 layer_factory.hpp:77] Creating layer pool3
I1027 10:38:00.554653  3694 net.cpp:106] Creating Layer pool3
I1027 10:38:00.554661  3694 net.cpp:454] pool3 <- conv3_3
I1027 10:38:00.554671  3694 net.cpp:411] pool3 -> pool3
I1027 10:38:00.554759  3694 net.cpp:150] Setting up pool3
I1027 10:38:00.554771  3694 net.cpp:157] Top shape: 1 256 113 172 (4975616)
I1027 10:38:00.554777  3694 net.cpp:165] Memory required for data: 2550767348
I1027 10:38:00.554785  3694 layer_factory.hpp:77] Creating layer conv4_1
I1027 10:38:00.554798  3694 net.cpp:106] Creating Layer conv4_1
I1027 10:38:00.554805  3694 net.cpp:454] conv4_1 <- pool3
I1027 10:38:00.554816  3694 net.cpp:411] conv4_1 -> conv4_1
I1027 10:38:00.559556  3694 net.cpp:150] Setting up conv4_1
I1027 10:38:00.559579  3694 net.cpp:157] Top shape: 1 512 113 172 (9951232)
I1027 10:38:00.559587  3694 net.cpp:165] Memory required for data: 2590572276
I1027 10:38:00.559597  3694 layer_factory.hpp:77] Creating layer relu4_1
I1027 10:38:00.559609  3694 net.cpp:106] Creating Layer relu4_1
I1027 10:38:00.559617  3694 net.cpp:454] relu4_1 <- conv4_1
I1027 10:38:00.559628  3694 net.cpp:397] relu4_1 -> conv4_1 (in-place)
I1027 10:38:00.559639  3694 net.cpp:150] Setting up relu4_1
I1027 10:38:00.559648  3694 net.cpp:157] Top shape: 1 512 113 172 (9951232)
I1027 10:38:00.559654  3694 net.cpp:165] Memory required for data: 2630377204
I1027 10:38:00.559660  3694 layer_factory.hpp:77] Creating layer conv4_2
I1027 10:38:00.559674  3694 net.cpp:106] Creating Layer conv4_2
I1027 10:38:00.559679  3694 net.cpp:454] conv4_2 <- conv4_1
I1027 10:38:00.559690  3694 net.cpp:411] conv4_2 -> conv4_2
I1027 10:38:00.566942  3694 net.cpp:150] Setting up conv4_2
I1027 10:38:00.566967  3694 net.cpp:157] Top shape: 1 512 113 172 (9951232)
I1027 10:38:00.566974  3694 net.cpp:165] Memory required for data: 2670182132
I1027 10:38:00.567003  3694 layer_factory.hpp:77] Creating layer relu4_2
I1027 10:38:00.567016  3694 net.cpp:106] Creating Layer relu4_2
I1027 10:38:00.567024  3694 net.cpp:454] relu4_2 <- conv4_2
I1027 10:38:00.567034  3694 net.cpp:397] relu4_2 -> conv4_2 (in-place)
I1027 10:38:00.567046  3694 net.cpp:150] Setting up relu4_2
I1027 10:38:00.567055  3694 net.cpp:157] Top shape: 1 512 113 172 (9951232)
I1027 10:38:00.567060  3694 net.cpp:165] Memory required for data: 2709987060
I1027 10:38:00.567066  3694 layer_factory.hpp:77] Creating layer conv4_3
I1027 10:38:00.567080  3694 net.cpp:106] Creating Layer conv4_3
I1027 10:38:00.567085  3694 net.cpp:454] conv4_3 <- conv4_2
I1027 10:38:00.567095  3694 net.cpp:411] conv4_3 -> conv4_3
I1027 10:38:00.574062  3694 net.cpp:150] Setting up conv4_3
I1027 10:38:00.574090  3694 net.cpp:157] Top shape: 1 512 113 172 (9951232)
I1027 10:38:00.574095  3694 net.cpp:165] Memory required for data: 2749791988
I1027 10:38:00.574106  3694 layer_factory.hpp:77] Creating layer relu4_3
I1027 10:38:00.574118  3694 net.cpp:106] Creating Layer relu4_3
I1027 10:38:00.574126  3694 net.cpp:454] relu4_3 <- conv4_3
I1027 10:38:00.574136  3694 net.cpp:397] relu4_3 -> conv4_3 (in-place)
I1027 10:38:00.574147  3694 net.cpp:150] Setting up relu4_3
I1027 10:38:00.574156  3694 net.cpp:157] Top shape: 1 512 113 172 (9951232)
I1027 10:38:00.574162  3694 net.cpp:165] Memory required for data: 2789596916
I1027 10:38:00.574167  3694 layer_factory.hpp:77] Creating layer conv4_3_relu4_3_0_split
I1027 10:38:00.574177  3694 net.cpp:106] Creating Layer conv4_3_relu4_3_0_split
I1027 10:38:00.574183  3694 net.cpp:454] conv4_3_relu4_3_0_split <- conv4_3
I1027 10:38:00.574193  3694 net.cpp:411] conv4_3_relu4_3_0_split -> conv4_3_relu4_3_0_split_0
I1027 10:38:00.574203  3694 net.cpp:411] conv4_3_relu4_3_0_split -> conv4_3_relu4_3_0_split_1
I1027 10:38:00.574288  3694 net.cpp:150] Setting up conv4_3_relu4_3_0_split
I1027 10:38:00.574301  3694 net.cpp:157] Top shape: 1 512 113 172 (9951232)
I1027 10:38:00.574307  3694 net.cpp:157] Top shape: 1 512 113 172 (9951232)
I1027 10:38:00.574313  3694 net.cpp:165] Memory required for data: 2869206772
I1027 10:38:00.574319  3694 layer_factory.hpp:77] Creating layer rpn_conv/3x3
I1027 10:38:00.574334  3694 net.cpp:106] Creating Layer rpn_conv/3x3
I1027 10:38:00.574342  3694 net.cpp:454] rpn_conv/3x3 <- conv4_3_relu4_3_0_split_0
I1027 10:38:00.574353  3694 net.cpp:411] rpn_conv/3x3 -> rpn/output
I1027 10:38:00.660688  3694 net.cpp:150] Setting up rpn_conv/3x3
I1027 10:38:00.660706  3694 net.cpp:157] Top shape: 1 512 113 172 (9951232)
I1027 10:38:00.660711  3694 net.cpp:165] Memory required for data: 2909011700
I1027 10:38:00.660718  3694 layer_factory.hpp:77] Creating layer rpn_relu/3x3
I1027 10:38:00.660727  3694 net.cpp:106] Creating Layer rpn_relu/3x3
I1027 10:38:00.660730  3694 net.cpp:454] rpn_relu/3x3 <- rpn/output
I1027 10:38:00.660737  3694 net.cpp:397] rpn_relu/3x3 -> rpn/output (in-place)
I1027 10:38:00.660745  3694 net.cpp:150] Setting up rpn_relu/3x3
I1027 10:38:00.660750  3694 net.cpp:157] Top shape: 1 512 113 172 (9951232)
I1027 10:38:00.660753  3694 net.cpp:165] Memory required for data: 2948816628
I1027 10:38:00.660758  3694 layer_factory.hpp:77] Creating layer rpn/output_rpn_relu/3x3_0_split
I1027 10:38:00.660763  3694 net.cpp:106] Creating Layer rpn/output_rpn_relu/3x3_0_split
I1027 10:38:00.660766  3694 net.cpp:454] rpn/output_rpn_relu/3x3_0_split <- rpn/output
I1027 10:38:00.660773  3694 net.cpp:411] rpn/output_rpn_relu/3x3_0_split -> rpn/output_rpn_relu/3x3_0_split_0
I1027 10:38:00.660779  3694 net.cpp:411] rpn/output_rpn_relu/3x3_0_split -> rpn/output_rpn_relu/3x3_0_split_1
I1027 10:38:00.660832  3694 net.cpp:150] Setting up rpn/output_rpn_relu/3x3_0_split
I1027 10:38:00.660840  3694 net.cpp:157] Top shape: 1 512 113 172 (9951232)
I1027 10:38:00.660843  3694 net.cpp:157] Top shape: 1 512 113 172 (9951232)
I1027 10:38:00.660847  3694 net.cpp:165] Memory required for data: 3028426484
I1027 10:38:00.660851  3694 layer_factory.hpp:77] Creating layer rpn_cls_score
I1027 10:38:00.660861  3694 net.cpp:106] Creating Layer rpn_cls_score
I1027 10:38:00.660866  3694 net.cpp:454] rpn_cls_score <- rpn/output_rpn_relu/3x3_0_split_0
I1027 10:38:00.660872  3694 net.cpp:411] rpn_cls_score -> rpn_cls_score
I1027 10:38:00.662185  3694 net.cpp:150] Setting up rpn_cls_score
I1027 10:38:00.662194  3694 net.cpp:157] Top shape: 1 70 113 172 (1360520)
I1027 10:38:00.662199  3694 net.cpp:165] Memory required for data: 3033868564
I1027 10:38:00.662204  3694 layer_factory.hpp:77] Creating layer rpn_cls_score_rpn_cls_score_0_split
I1027 10:38:00.662217  3694 net.cpp:106] Creating Layer rpn_cls_score_rpn_cls_score_0_split
I1027 10:38:00.662222  3694 net.cpp:454] rpn_cls_score_rpn_cls_score_0_split <- rpn_cls_score
I1027 10:38:00.662228  3694 net.cpp:411] rpn_cls_score_rpn_cls_score_0_split -> rpn_cls_score_rpn_cls_score_0_split_0
I1027 10:38:00.662235  3694 net.cpp:411] rpn_cls_score_rpn_cls_score_0_split -> rpn_cls_score_rpn_cls_score_0_split_1
I1027 10:38:00.662283  3694 net.cpp:150] Setting up rpn_cls_score_rpn_cls_score_0_split
I1027 10:38:00.662292  3694 net.cpp:157] Top shape: 1 70 113 172 (1360520)
I1027 10:38:00.662295  3694 net.cpp:157] Top shape: 1 70 113 172 (1360520)
I1027 10:38:00.662298  3694 net.cpp:165] Memory required for data: 3044752724
I1027 10:38:00.662302  3694 layer_factory.hpp:77] Creating layer rpn_bbox_pred
I1027 10:38:00.662312  3694 net.cpp:106] Creating Layer rpn_bbox_pred
I1027 10:38:00.662317  3694 net.cpp:454] rpn_bbox_pred <- rpn/output_rpn_relu/3x3_0_split_1
I1027 10:38:00.662329  3694 net.cpp:411] rpn_bbox_pred -> rpn_bbox_pred
I1027 10:38:00.665107  3694 net.cpp:150] Setting up rpn_bbox_pred
I1027 10:38:00.665120  3694 net.cpp:157] Top shape: 1 140 113 172 (2721040)
I1027 10:38:00.665125  3694 net.cpp:165] Memory required for data: 3055636884
I1027 10:38:00.665132  3694 layer_factory.hpp:77] Creating layer rpn_bbox_pred_rpn_bbox_pred_0_split
I1027 10:38:00.665143  3694 net.cpp:106] Creating Layer rpn_bbox_pred_rpn_bbox_pred_0_split
I1027 10:38:00.665148  3694 net.cpp:454] rpn_bbox_pred_rpn_bbox_pred_0_split <- rpn_bbox_pred
I1027 10:38:00.665155  3694 net.cpp:411] rpn_bbox_pred_rpn_bbox_pred_0_split -> rpn_bbox_pred_rpn_bbox_pred_0_split_0
I1027 10:38:00.665163  3694 net.cpp:411] rpn_bbox_pred_rpn_bbox_pred_0_split -> rpn_bbox_pred_rpn_bbox_pred_0_split_1
I1027 10:38:00.665220  3694 net.cpp:150] Setting up rpn_bbox_pred_rpn_bbox_pred_0_split
I1027 10:38:00.665226  3694 net.cpp:157] Top shape: 1 140 113 172 (2721040)
I1027 10:38:00.665232  3694 net.cpp:157] Top shape: 1 140 113 172 (2721040)
I1027 10:38:00.665236  3694 net.cpp:165] Memory required for data: 3077405204
I1027 10:38:00.665240  3694 layer_factory.hpp:77] Creating layer rpn_cls_score_reshape
I1027 10:38:00.665259  3694 net.cpp:106] Creating Layer rpn_cls_score_reshape
I1027 10:38:00.665264  3694 net.cpp:454] rpn_cls_score_reshape <- rpn_cls_score_rpn_cls_score_0_split_0
I1027 10:38:00.665271  3694 net.cpp:411] rpn_cls_score_reshape -> rpn_cls_score_reshape
I1027 10:38:00.665305  3694 net.cpp:150] Setting up rpn_cls_score_reshape
I1027 10:38:00.665313  3694 net.cpp:157] Top shape: 1 2 3955 172 (1360520)
I1027 10:38:00.665316  3694 net.cpp:165] Memory required for data: 3082847284
I1027 10:38:00.665319  3694 layer_factory.hpp:77] Creating layer rpn_cls_score_reshape_rpn_cls_score_reshape_0_split
I1027 10:38:00.665326  3694 net.cpp:106] Creating Layer rpn_cls_score_reshape_rpn_cls_score_reshape_0_split
I1027 10:38:00.665330  3694 net.cpp:454] rpn_cls_score_reshape_rpn_cls_score_reshape_0_split <- rpn_cls_score_reshape
I1027 10:38:00.665336  3694 net.cpp:411] rpn_cls_score_reshape_rpn_cls_score_reshape_0_split -> rpn_cls_score_reshape_rpn_cls_score_reshape_0_split_0
I1027 10:38:00.665343  3694 net.cpp:411] rpn_cls_score_reshape_rpn_cls_score_reshape_0_split -> rpn_cls_score_reshape_rpn_cls_score_reshape_0_split_1
I1027 10:38:00.665386  3694 net.cpp:150] Setting up rpn_cls_score_reshape_rpn_cls_score_reshape_0_split
I1027 10:38:00.665392  3694 net.cpp:157] Top shape: 1 2 3955 172 (1360520)
I1027 10:38:00.665397  3694 net.cpp:157] Top shape: 1 2 3955 172 (1360520)
I1027 10:38:00.665400  3694 net.cpp:165] Memory required for data: 3093731444
I1027 10:38:00.665403  3694 layer_factory.hpp:77] Creating layer rpn-data
I1027 10:38:00.667980  3694 net.cpp:106] Creating Layer rpn-data
I1027 10:38:00.667995  3694 net.cpp:454] rpn-data <- rpn_cls_score_rpn_cls_score_0_split_1
I1027 10:38:00.668002  3694 net.cpp:454] rpn-data <- gt_boxes_input-data_2_split_0
I1027 10:38:00.668007  3694 net.cpp:454] rpn-data <- im_info_input-data_1_split_0
I1027 10:38:00.668011  3694 net.cpp:454] rpn-data <- data_input-data_0_split_1
I1027 10:38:00.668017  3694 net.cpp:411] rpn-data -> rpn_labels
I1027 10:38:00.668026  3694 net.cpp:411] rpn-data -> rpn_bbox_targets
I1027 10:38:00.668035  3694 net.cpp:411] rpn-data -> rpn_bbox_inside_weights
I1027 10:38:00.668041  3694 net.cpp:411] rpn-data -> rpn_bbox_outside_weights
I1027 10:38:00.671182  3694 net.cpp:150] Setting up rpn-data
I1027 10:38:00.671201  3694 net.cpp:157] Top shape: 1 1 3955 172 (680260)
I1027 10:38:00.671207  3694 net.cpp:157] Top shape: 1 140 113 172 (2721040)
I1027 10:38:00.671212  3694 net.cpp:157] Top shape: 1 140 113 172 (2721040)
I1027 10:38:00.671216  3694 net.cpp:157] Top shape: 1 140 113 172 (2721040)
I1027 10:38:00.671221  3694 net.cpp:165] Memory required for data: 3129104964
I1027 10:38:00.671224  3694 layer_factory.hpp:77] Creating layer rpn_loss_cls
I1027 10:38:00.671233  3694 net.cpp:106] Creating Layer rpn_loss_cls
I1027 10:38:00.671239  3694 net.cpp:454] rpn_loss_cls <- rpn_cls_score_reshape_rpn_cls_score_reshape_0_split_0
I1027 10:38:00.671246  3694 net.cpp:454] rpn_loss_cls <- rpn_labels
…
I1027 10:38:00.691367  3694 net.cpp:157] Top shape: (1)
I1027 10:38:00.691372  3694 net.cpp:160]     with loss weight 1
I1027 10:38:00.691380  3694 net.cpp:165] Memory required for data: 3129104972
I1027 10:38:00.691383  3694 layer_factory.hpp:77] Creating layer rpn_cls_prob
I1027 10:38:00.691391  3694 net.cpp:106] Creating Layer rpn_cls_prob
I1027 10:38:00.691396  3694 net.cpp:454] rpn_cls_prob <- rpn_cls_score_reshape_rpn_cls_score_reshape_0_split_1
I1027 10:38:00.691403  3694 net.cpp:411] rpn_cls_prob -> rpn_cls_prob
I1027 10:38:00.691491  3694 net.cpp:150] Setting up rpn_cls_prob
I1027 10:38:00.691499  3694 net.cpp:157] Top shape: 1 2 3955 172 (1360520)
I1027 10:38:00.691504  3694 net.cpp:165] Memory required for data: 3134547052
I1027 10:38:00.691507  3694 layer_factory.hpp:77] Creating layer rpn_cls_prob_reshape
I1027 10:38:00.691516  3694 net.cpp:106] Creating Layer rpn_cls_prob_reshape
I1027 10:38:00.691520  3694 net.cpp:454] rpn_cls_prob_reshape <- rpn_cls_prob
I1027 10:38:00.691526  3694 net.cpp:411] rpn_cls_prob_reshape -> rpn_cls_prob_reshape
I1027 10:38:00.691560  3694 net.cpp:150] Setting up rpn_cls_prob_reshape
I1027 10:38:00.691566  3694 net.cpp:157] Top shape: 1 70 113 172 (1360520)
I1027 10:38:00.691570  3694 net.cpp:165] Memory required for data: 3139989132
I1027 10:38:00.691573  3694 layer_factory.hpp:77] Creating layer proposal
I1027 10:38:00.700191  3694 net.cpp:106] Creating Layer proposal
I1027 10:38:00.700211  3694 net.cpp:454] proposal <- rpn_cls_prob_reshape
I1027 10:38:00.700217  3694 net.cpp:454] proposal <- rpn_bbox_pred_rpn_bbox_pred_0_split_1
I1027 10:38:00.700223  3694 net.cpp:454] proposal <- im_info_input-data_1_split_1
I1027 10:38:00.700230  3694 net.cpp:411] proposal -> rpn_rois
I1027 10:38:00.701660  3694 net.cpp:150] Setting up proposal
I1027 10:38:00.701676  3694 net.cpp:157] Top shape: 1 5 (5)
I1027 10:38:00.701680  3694 net.cpp:165] Memory required for data: 3139989152
I1027 10:38:00.701685  3694 layer_factory.hpp:77] Creating layer roi-data
I1027 10:38:00.702707  3694 net.cpp:106] Creating Layer roi-data
I1027 10:38:00.702718  3694 net.cpp:454] roi-data <- rpn_rois
I1027 10:38:00.702725  3694 net.cpp:454] roi-data <- gt_boxes_input-data_2_split_1
I1027 10:38:00.702733  3694 net.cpp:411] roi-data -> rois
I1027 10:38:00.702740  3694 net.cpp:411] roi-data -> labels
I1027 10:38:00.702749  3694 net.cpp:411] roi-data -> bbox_targets
I1027 10:38:00.702756  3694 net.cpp:411] roi-data -> bbox_inside_weights
I1027 10:38:00.702762  3694 net.cpp:411] roi-data -> bbox_outside_weights
I1027 10:38:00.703156  3694 net.cpp:150] Setting up roi-data
I1027 10:38:00.703172  3694 net.cpp:157] Top shape: 1 5 (5)
I1027 10:38:00.703177  3694 net.cpp:157] Top shape: 1 1 (1)
I1027 10:38:00.703182  3694 net.cpp:157] Top shape: 1 8 (8)
I1027 10:38:00.703186  3694 net.cpp:157] Top shape: 1 8 (8)
I1027 10:38:00.703191  3694 net.cpp:157] Top shape: 1 8 (8)
I1027 10:38:00.703196  3694 net.cpp:165] Memory required for data: 3139989272
I1027 10:38:00.703199  3694 layer_factory.hpp:77] Creating layer roi_pool5
I1027 10:38:00.703207  3694 net.cpp:106] Creating Layer roi_pool5
I1027 10:38:00.703213  3694 net.cpp:454] roi_pool5 <- conv4_3_relu4_3_0_split_1
I1027 10:38:00.703219  3694 net.cpp:454] roi_pool5 <- rois
I1027 10:38:00.703230  3694 net.cpp:411] roi_pool5 -> pool5
I1027 10:38:00.703240  3694 roi_pooling_layer.cpp:30] Spatial scale: 0.125
I1027 10:38:00.703301  3694 net.cpp:150] Setting up roi_pool5
I1027 10:38:00.703308  3694 net.cpp:157] Top shape: 1 512 7 7 (25088)
I1027 10:38:00.703312  3694 net.cpp:165] Memory required for data: 3140089624
I1027 10:38:00.703316  3694 layer_factory.hpp:77] Creating layer fc6
I1027 10:38:00.703325  3694 net.cpp:106] Creating Layer fc6
I1027 10:38:00.703328  3694 net.cpp:454] fc6 <- pool5
I1027 10:38:00.703335  3694 net.cpp:411] fc6 -> fc6
I1027 10:38:00.919399  3694 net.cpp:150] Setting up fc6
I1027 10:38:00.919451  3694 net.cpp:157] Top shape: 1 4096 (4096)
I1027 10:38:00.919456  3694 net.cpp:165] Memory required for data: 3140106008
I1027 10:38:00.919469  3694 layer_factory.hpp:77] Creating layer relu6
I1027 10:38:00.919482  3694 net.cpp:106] Creating Layer relu6
I1027 10:38:00.919489  3694 net.cpp:454] relu6 <- fc6
I1027 10:38:00.919498  3694 net.cpp:397] relu6 -> fc6 (in-place)
I1027 10:38:00.919512  3694 net.cpp:150] Setting up relu6
I1027 10:38:00.919517  3694 net.cpp:157] Top shape: 1 4096 (4096)
I1027 10:38:00.919519  3694 net.cpp:165] Memory required for data: 3140122392
I1027 10:38:00.919523  3694 layer_factory.hpp:77] Creating layer drop6
I1027 10:38:00.919548  3694 net.cpp:106] Creating Layer drop6
I1027 10:38:00.919551  3694 net.cpp:454] drop6 <- fc6
I1027 10:38:00.919558  3694 net.cpp:397] drop6 -> fc6 (in-place)
I1027 10:38:00.919589  3694 net.cpp:150] Setting up drop6
I1027 10:38:00.919596  3694 net.cpp:157] Top shape: 1 4096 (4096)
I1027 10:38:00.919600  3694 net.cpp:165] Memory required for data: 3140138776
I1027 10:38:00.919603  3694 layer_factory.hpp:77] Creating layer fc7
I1027 10:38:00.919613  3694 net.cpp:106] Creating Layer fc7
I1027 10:38:00.919617  3694 net.cpp:454] fc7 <- fc6
I1027 10:38:00.919625  3694 net.cpp:411] fc7 -> fc7
I1027 10:38:00.974210  3694 net.cpp:150] Setting up fc7
I1027 10:38:00.974267  3694 net.cpp:157] Top shape: 1 4096 (4096)
I1027 10:38:00.974272  3694 net.cpp:165] Memory required for data: 3140155160
I1027 10:38:00.974284  3694 layer_factory.hpp:77] Creating layer relu7
I1027 10:38:00.974297  3694 net.cpp:106] Creating Layer relu7
I1027 10:38:00.974303  3694 net.cpp:454] relu7 <- fc7
I1027 10:38:00.974313  3694 net.cpp:397] relu7 -> fc7 (in-place)
I1027 10:38:00.974325  3694 net.cpp:150] Setting up relu7
I1027 10:38:00.974329  3694 net.cpp:157] Top shape: 1 4096 (4096)
I1027 10:38:00.974334  3694 net.cpp:165] Memory required for data: 3140171544
I1027 10:38:00.974336  3694 layer_factory.hpp:77] Creating layer drop7
I1027 10:38:00.974344  3694 net.cpp:106] Creating Layer drop7
I1027 10:38:00.974349  3694 net.cpp:454] drop7 <- fc7
I1027 10:38:00.974354  3694 net.cpp:397] drop7 -> fc7 (in-place)
I1027 10:38:00.974385  3694 net.cpp:150] Setting up drop7
I1027 10:38:00.974392  3694 net.cpp:157] Top shape: 1 4096 (4096)
I1027 10:38:00.974395  3694 net.cpp:165] Memory required for data: 3140187928
I1027 10:38:00.974400  3694 layer_factory.hpp:77] Creating layer fc7_drop7_0_split
I1027 10:38:00.974406  3694 net.cpp:106] Creating Layer fc7_drop7_0_split
I1027 10:38:00.974411  3694 net.cpp:454] fc7_drop7_0_split <- fc7
I1027 10:38:00.974416  3694 net.cpp:411] fc7_drop7_0_split -> fc7_drop7_0_split_0
I1027 10:38:00.974423  3694 net.cpp:411] fc7_drop7_0_split -> fc7_drop7_0_split_1
I1027 10:38:00.974479  3694 net.cpp:150] Setting up fc7_drop7_0_split
I1027 10:38:00.974486  3694 net.cpp:157] Top shape: 1 4096 (4096)
I1027 10:38:00.974490  3694 net.cpp:157] Top shape: 1 4096 (4096)
I1027 10:38:00.974494  3694 net.cpp:165] Memory required for data: 3140220696
I1027 10:38:00.974498  3694 layer_factory.hpp:77] Creating layer cls_score
I1027 10:38:00.974508  3694 net.cpp:106] Creating Layer cls_score
I1027 10:38:00.974512  3694 net.cpp:454] cls_score <- fc7_drop7_0_split_0
I1027 10:38:00.974519  3694 net.cpp:411] cls_score -> cls_score
I1027 10:38:00.975693  3694 net.cpp:150] Setting up cls_score
I1027 10:38:00.975708  3694 net.cpp:157] Top shape: 1 2 (2)
I1027 10:38:00.975723  3694 net.cpp:165] Memory required for data: 3140220704
I1027 10:38:00.975729  3694 layer_factory.hpp:77] Creating layer bbox_pred
I1027 10:38:00.975739  3694 net.cpp:106] Creating Layer bbox_pred
I1027 10:38:00.975744  3694 net.cpp:454] bbox_pred <- fc7_drop7_0_split_1
I1027 10:38:00.975751  3694 net.cpp:411] bbox_pred -> bbox_pred
I1027 10:38:00.976794  3694 net.cpp:150] Setting up bbox_pred
I1027 10:38:00.976802  3694 net.cpp:157] Top shape: 1 8 (8)
I1027 10:38:00.976805  3694 net.cpp:165] Memory required for data: 3140220736
I1027 10:38:00.976820  3694 layer_factory.hpp:77] Creating layer loss_cls
I1027 10:38:00.976830  3694 net.cpp:106] Creating Layer loss_cls
I1027 10:38:00.976835  3694 net.cpp:454] loss_cls <- cls_score
I1027 10:38:00.976840  3694 net.cpp:454] loss_cls <- labels
I1027 10:38:00.976845  3694 net.cpp:411] loss_cls -> loss_cls
…
