…
snapshot_prefix: "vgg16_faster_rcnn"
average_loss: 100
iter_size: 2
I1106 21:43:14.546182  4673 solver.cpp:81] Creating training net from train_net file: models/pascal_voc/VGG16/faster_rcnn_end2end/train.prototxt
I1106 21:43:14.547325  4673 net.cpp:49] Initializing net from parameters: 
name: "VGG_ILSVRC_16_layers"
state {
  phase: TRAIN
}
layer {
  name: "input-data"
  type: "Python"
  top: "data"
  top: "im_info"
  top: "gt_boxes"
  python_param {
    module: "roi_data_layer.layer"
    layer: "RoIDataLayer"
    param_str: "\'num_classes\': 2"
  }
}
layer {
  name: "conv1_1"
  type: "Convolution"
  bottom: "data"
  top: "conv1_1"
  param {
    lr_mult: 0
    decay_mult: 0
  }
  param {
    lr_mult: 0
    decay_mult: 0
  }
  convolution_param {
    num_output: 64
    pad: 1
    kernel_size: 3
  }
}
layer {
  name: "relu1_1"
  type: "ReLU"
  bottom: "conv1_1"
  top: "conv1_1"
}
layer {
  name: "conv1_2"
  type: "Convolution"
  bottom: "conv1_1"
  top: "conv1_2"
  param {
    lr_mult: 0
    decay_mult: 0
  }
  param {
    lr_mult: 0
    decay_mult: 0
  }
  convolution_param {
    num_output: 64
    pad: 1
    kernel_size: 3
  }
}
layer {
  name: "relu1_2"
  type: "ReLU"
  bottom: "conv1_2"
  top: "conv1_2"
}
layer {
  name: "pool1"
  type: "Pooling"
  bottom: "conv1_2"
  top: "pool1"
  pooling_param {
    pool: MAX
    kernel_size: 2
    stride: 2
  }
}
layer {
  name: "conv2_1"
  type: "Convolution"
  bottom: "pool1"
  top: "conv2_1"
  param {
    lr_mult: 0
    decay_mult: 0
  }
  param {
    lr_mult: 0
    decay_mult: 0
  }
  convolution_param {
    num_output: 128
    pad: 1
    kernel_size: 3
  }
}
layer {
  name: "relu2_1"
  type: "ReLU"
  bottom: "conv2_1"
  top: "conv2_1"
}
layer {
  name: "conv2_2"
  type: "Convolution"
  bottom: "conv2_1"
  top: "conv2_2"
  param {
    lr_mult: 0
    decay_mult: 0
  }
  param {
    lr_mult: 0
    decay_mult: 0
  }
  convolution_param {
    num_output: 128
    pad: 1
    kernel_size: 3
  }
}
layer {
  name: "relu2_2"
  type: "ReLU"
  bottom: "conv2_2"
  top: "conv2_2"
}
layer {
  name: "pool2"
  type: "Pooling"
  bottom: "conv2_2"
  top: "pool2"
  pooling_param {
    pool: MAX
    kernel_size: 2
    stride: 2
  }
}
layer {
  name: "conv3_1"
  type: "Convolution"
  bottom: "pool2"
  top: "conv3_1"
  param {
    lr_mult: 1
  }
  param {
    lr_mult: 2
  }
  convolution_param {
    num_output: 256
    pad: 1
    kernel_size: 3
  }
}
layer {
  name: "relu3_1"
  type: "ReLU"
  bottom: "conv3_1"
  top: "conv3_1"
}
layer {
  name: "conv3_2"
  type: "Convolution"
  bottom: "conv3_1"
  top: "conv3_2"
  param {
    lr_mult: 1
  }
  param {
    lr_mult: 2
  }
  convolution_param {
    num_output: 256
    pad: 1
    kernel_size: 3
  }
}
layer {
  name: "relu3_2"
  type: "ReLU"
  bottom: "conv3_2"
  top: "conv3_2"
}
layer {
  name: "conv3_3"
  type: "Convolution"
  bottom: "conv3_2"
  top: "conv3_3"
  param {
    lr_mult: 1
  }
  param {
    lr_mult: 2
  }
  convolution_param {
    num_output: 256
    pad: 1
    kernel_size: 3
  }
}
layer {
  name: "relu3_3"
  type: "ReLU"
  bottom: "conv3_3"
  top: "conv3_3"
}
layer {
  name: "pool3"
  type: "Pooling"
  bottom: "conv3_3"
  top: "pool3"
  pooling_param {
    pool: MAX
    kernel_size: 2
    stride: 2
  }
}
layer {
  name: "conv4_1"
  type: "Convolution"
  bottom: "pool3"
  top: "conv4_1"
  param {
    lr_mult: 1
  }
  param {
    lr_mult: 2
  }
  convolution_param {
    num_output: 512
    pad: 1
    kernel_size: 3
  }
}
layer {
  name: "relu4_1"
  type: "ReLU"
  bottom: "conv4_1"
  top: "conv4_1"
}
layer {
  name: "conv4_2"
  type: "Convolution"
  bottom: "conv4_1"
  top: "conv4_2"
  param {
    lr_mult: 1
  }
  param {
    lr_mult: 2
  }
  convolution_param {
    num_output: 512
    pad: 1
    kernel_size: 3
  }
}
layer {
  name: "relu4_2"
  type: "ReLU"
  bottom: "conv4_2"
  top: "conv4_2"
}
layer {
  name: "conv4_3"
  type: "Convolution"
  bottom: "conv4_2"
  top: "conv4_3"
  param {
    lr_mult: 1
  }
  param {
    lr_mult: 2
  }
  convolution_param {
    num_output: 512
    pad: 1
    kernel_size: 3
  }
}
layer {
  name: "relu4_3"
  type: "ReLU"
  bottom: "conv4_3"
  top: "conv4_3"
}
layer {
  name: "rpn_conv/3x3"
  type: "Convolution"
  bottom: "conv4_3"
  top: "rpn/output"
  param {
    lr_mult: 1
  }
  param {
    lr_mult: 2
  }
  convolution_param {
    num_output: 512
    pad: 1
    kernel_size: 3
    stride: 1
    weight_filler {
      type: "gaussian"
      std: 0.01
    }
    bias_filler {
      type: "constant"
      value: 0
    }
  }
}
layer {
  name: "rpn_relu/3x3"
  type: "ReLU"
  bottom: "rpn/output"
  top: "rpn/output"
}
layer {
  name: "rpn_cls_score_new"
  type: "Convolution"
  bottom: "rpn/output"
  top: "rpn_cls_score"
  param {
    lr_mult: 1
  }
  param {
    lr_mult: 2
  }
  convolution_param {
    num_output: 70
    pad: 0
    kernel_size: 1
    stride: 1
    weight_filler {
      type: "gaussian"
      std: 0.01
    }
    bias_filler {
      type: "constant"
      value: 0
    }
  }
}
layer {
  name: "rpn_bbox_pred_new"
  type: "Convolution"
  bottom: "rpn/output"
  top: "rpn_bbox_pred"
  param {
    lr_mult: 1
  }
  param {
    lr_mult: 2
  }
  convolution_param {
    num_output: 140
    pad: 0
    kernel_size: 1
    stride: 1
    weight_filler {
      type: "gaussian"
      std: 0.01
    }
    bias_filler {
      type: "constant"
      value: 0
    }
  }
}
layer {
  name: "rpn_cls_score_reshape"
  type: "Reshape"
  bottom: "rpn_cls_score"
  top: "rpn_cls_score_reshape"
  reshape_param {
    shape {
      dim: 0
      dim: 2
      dim: -1
      dim: 0
    }
  }
}
layer {
  name: "rpn-data"
  type: "Python"
  bottom: "rpn_cls_score"
  bottom: "gt_boxes"
  bottom: "im_info"
  bottom: "data"
  top: "rpn_labels"
  top: "rpn_bbox_targets"
  top: "rpn_bbox_inside_weights"
  top: "rpn_bbox_outside_weights"
  python_param {
    module: "rpn.anchor_target_layer"
    layer: "AnchorTargetLayer"
    param_str: "\'feat_stride\': 8"
  }
}
layer {
  name: "rpn_loss_cls"
  type: "SoftmaxWithLoss"
  bottom: "rpn_cls_score_reshape"
  bottom: "rpn_labels"
  top: "rpn_cls_loss"
  loss_weight: 1
  propagate_down: true
  propagate_down: false
  loss_param {
    ignore_label: -1
    normalize: true
  }
}
layer {
  name: "rpn_loss_bbox"
  type: "SmoothL1Loss"
  bottom: "rpn_bbox_pred"
  bottom: "rpn_bbox_targets"
  bottom: "rpn_bbox_inside_weights"
  bottom: "rpn_bbox_outside_weights"
  top: "rpn_loss_bbox"
  loss_weight: 1
  smooth_l1_loss_param {
    sigma: 3
  }
}
layer {
  name: "rpn_cls_prob"
  type: "Softmax"
  bottom: "rpn_cls_score_reshape"
  top: "rpn_cls_prob"
}
layer {
  name: "rpn_cls_prob_reshape"
  type: "Reshape"
  bottom: "rpn_cls_prob"
  top: "rpn_cls_prob_reshape"
  reshape_param {
    shape {
      dim: 0
      dim: 70
      dim: -1
      dim: 0
    }
  }
}
layer {
  name: "proposal"
  type: "Python"
  bottom: "rpn_cls_prob_reshape"
  bottom: "rpn_bbox_pred"
  bottom: "im_info"
  top: "rpn_rois"
  python_param {
    module: "rpn.proposal_layer"
    layer: "ProposalLayer"
    param_str: "\'feat_stride\': 8"
  }
}
layer {
  name: "roi-data"
  type: "Python"
  bottom: "rpn_rois"
  bottom: "gt_boxes"
  top: "rois"
  top: "labels"
  top: "bbox_targets"
  top: "bbox_inside_weights"
  top: "bbox_outside_weights"
  python_param {
    module: "rpn.proposal_target_layer"
    layer: "ProposalTargetLayer"
    param_str: "\'num_classes\': 2"
  }
}
layer {
  name: "roi_pool5"
  type: "ROIPooling"
  bottom: "conv4_3"
  bottom: "rois"
  top: "pool5"
  roi_pooling_param {
    pooled_h: 7
    pooled_w: 7
    spatial_scale: 0.125
  }
}
layer {
  name: "fc6"
  type: "InnerProduct"
  bottom: "pool5"
  top: "fc6"
  param {
    lr_mult: 1
  }
  param {
    lr_mult: 2
  }
  inner_product_param {
    num_output: 4096
  }
}
layer {
  name: "relu6"
  type: "ReLU"
  bottom: "fc6"
  top: "fc6"
}
layer {
  name: "drop6"
  type: "Dropout"
  bottom: "fc6"
  top: "fc6"
  dropout_param {
    dropout_ratio: 0.5
  }
}
layer {
  name: "fc7"
  type: "InnerProduct"
  bottom: "fc6"
  top: "fc7"
  param {
    lr_mult: 1
  }
  param {
    lr_mult: 2
  }
  inner_product_param {
    num_output: 4096
  }
}
layer {
  name: "relu7"
  type: "ReLU"
  bottom: "fc7"
  top: "fc7"
}
layer {
  name: "drop7"
  type: "Dropout"
  bottom: "fc7"
  top: "fc7"
  dropout_param {
    dropout_ratio: 0.5
  }
}
layer {
  name: "cls_score_new"
  type: "InnerProduct"
  bottom: "fc7"
  top: "cls_score"
  param {
    lr_mult: 1
  }
  param {
    lr_mult: 2
  }
  inner_product_param {
    num_output: 2
    weight_filler {
      type: "gaussian"
      std: 0.01
    }
    bias_filler {
      type: "constant"
      value: 0
    }
  }
}
layer {
  name: "bbox_pred_new"
  type: "InnerProduct"
  bottom: "fc7"
  top: "bbox_pred"
  param {
    lr_mult: 1
  }
  param {
    lr_mult: 2
  }
  inner_product_param {
    num_output: 8
    weight_filler {
      type: "gaussian"
      std: 0.001
    }
    bias_filler {
      type: "constant"
      value: 0
    }
  }
}
layer {
  name: "loss_cls"
  type: "SoftmaxWithLoss"
  bottom: "cls_score"
  bottom: "labels"
  top: "loss_cls"
  loss_weight: 1
  propagate_down: true
  propagate_down: false
}
layer {
  name: "loss_bbox"
  type: "SmoothL1Loss"
  bottom: "bbox_pred"
  bottom: "bbox_targets"
  bottom: "bbox_inside_weights"
  bottom: "bbox_outside_weights"
  top: "loss_bbox"
  loss_weight: 1
}
I1106 21:43:14.547564  4673 layer_factory.hpp:77] Creating layer input-data
I1106 21:43:14.556498  4673 net.cpp:106] Creating Layer input-data
I1106 21:43:14.556512  4673 net.cpp:411] input-data -> data
I1106 21:43:14.556524  4673 net.cpp:411] input-data -> im_info
I1106 21:43:14.556531  4673 net.cpp:411] input-data -> gt_boxes
I1106 21:43:14.563962  4673 net.cpp:150] Setting up input-data
I1106 21:43:14.563980  4673 net.cpp:157] Top shape: 1 3 900 1370 (3699000)
I1106 21:43:14.563987  4673 net.cpp:157] Top shape: 1 3 (3)
I1106 21:43:14.563992  4673 net.cpp:157] Top shape: 1 4 (4)
I1106 21:43:14.563995  4673 net.cpp:165] Memory required for data: 14796028
I1106 21:43:14.564000  4673 layer_factory.hpp:77] Creating layer data_input-data_0_split
I1106 21:43:14.564008  4673 net.cpp:106] Creating Layer data_input-data_0_split
I1106 21:43:14.564013  4673 net.cpp:454] data_input-data_0_split <- data
I1106 21:43:14.564019  4673 net.cpp:411] data_input-data_0_split -> data_input-data_0_split_0
I1106 21:43:14.564028  4673 net.cpp:411] data_input-data_0_split -> data_input-data_0_split_1
I1106 21:43:14.564059  4673 net.cpp:150] Setting up data_input-data_0_split
I1106 21:43:14.564065  4673 net.cpp:157] Top shape: 1 3 900 1370 (3699000)
I1106 21:43:14.564071  4673 net.cpp:157] Top shape: 1 3 900 1370 (3699000)
I1106 21:43:14.564074  4673 net.cpp:165] Memory required for data: 44388028
I1106 21:43:14.564079  4673 layer_factory.hpp:77] Creating layer im_info_input-data_1_split
I1106 21:43:14.564085  4673 net.cpp:106] Creating Layer im_info_input-data_1_split
I1106 21:43:14.564088  4673 net.cpp:454] im_info_input-data_1_split <- im_info
I1106 21:43:14.564093  4673 net.cpp:411] im_info_input-data_1_split -> im_info_input-data_1_split_0
I1106 21:43:14.564100  4673 net.cpp:411] im_info_input-data_1_split -> im_info_input-data_1_split_1
I1106 21:43:14.564123  4673 net.cpp:150] Setting up im_info_input-data_1_split
I1106 21:43:14.564134  4673 net.cpp:157] Top shape: 1 3 (3)
I1106 21:43:14.564139  4673 net.cpp:157] Top shape: 1 3 (3)
I1106 21:43:14.564143  4673 net.cpp:165] Memory required for data: 44388052
I1106 21:43:14.564147  4673 layer_factory.hpp:77] Creating layer gt_boxes_input-data_2_split
I1106 21:43:14.564152  4673 net.cpp:106] Creating Layer gt_boxes_input-data_2_split
I1106 21:43:14.564157  4673 net.cpp:454] gt_boxes_input-data_2_split <- gt_boxes
I1106 21:43:14.564162  4673 net.cpp:411] gt_boxes_input-data_2_split -> gt_boxes_input-data_2_split_0
I1106 21:43:14.564168  4673 net.cpp:411] gt_boxes_input-data_2_split -> gt_boxes_input-data_2_split_1
I1106 21:43:14.564193  4673 net.cpp:150] Setting up gt_boxes_input-data_2_split
I1106 21:43:14.564199  4673 net.cpp:157] Top shape: 1 4 (4)
I1106 21:43:14.564203  4673 net.cpp:157] Top shape: 1 4 (4)
I1106 21:43:14.564208  4673 net.cpp:165] Memory required for data: 44388084
I1106 21:43:14.564211  4673 layer_factory.hpp:77] Creating layer conv1_1
I1106 21:43:14.564224  4673 net.cpp:106] Creating Layer conv1_1
I1106 21:43:14.564229  4673 net.cpp:454] conv1_1 <- data_input-data_0_split_0
I1106 21:43:14.564235  4673 net.cpp:411] conv1_1 -> conv1_1
I1106 21:43:14.567096  4673 net.cpp:150] Setting up conv1_1
I1106 21:43:14.567111  4673 net.cpp:157] Top shape: 1 64 900 1370 (78912000)
I1106 21:43:14.567116  4673 net.cpp:165] Memory required for data: 360036084
I1106 21:43:14.567127  4673 layer_factory.hpp:77] Creating layer relu1_1
I1106 21:43:14.567134  4673 net.cpp:106] Creating Layer relu1_1
I1106 21:43:14.567138  4673 net.cpp:454] relu1_1 <- conv1_1
I1106 21:43:14.567144  4673 net.cpp:397] relu1_1 -> conv1_1 (in-place)
I1106 21:43:14.567152  4673 net.cpp:150] Setting up relu1_1
I1106 21:43:14.567157  4673 net.cpp:157] Top shape: 1 64 900 1370 (78912000)
I1106 21:43:14.567160  4673 net.cpp:165] Memory required for data: 675684084
I1106 21:43:14.567163  4673 layer_factory.hpp:77] Creating layer conv1_2
I1106 21:43:14.567170  4673 net.cpp:106] Creating Layer conv1_2
I1106 21:43:14.567174  4673 net.cpp:454] conv1_2 <- conv1_1
I1106 21:43:14.567180  4673 net.cpp:411] conv1_2 -> conv1_2
I1106 21:43:14.570041  4673 net.cpp:150] Setting up conv1_2
I1106 21:43:14.570055  4673 net.cpp:157] Top shape: 1 64 900 1370 (78912000)
I1106 21:43:14.570060  4673 net.cpp:165] Memory required for data: 991332084
I1106 21:43:14.570070  4673 layer_factory.hpp:77] Creating layer relu1_2
I1106 21:43:14.570076  4673 net.cpp:106] Creating Layer relu1_2
I1106 21:43:14.570080  4673 net.cpp:454] relu1_2 <- conv1_2
I1106 21:43:14.570086  4673 net.cpp:397] relu1_2 -> conv1_2 (in-place)
I1106 21:43:14.570093  4673 net.cpp:150] Setting up relu1_2
I1106 21:43:14.570098  4673 net.cpp:157] Top shape: 1 64 900 1370 (78912000)
I1106 21:43:14.570102  4673 net.cpp:165] Memory required for data: 1306980084
I1106 21:43:14.570106  4673 layer_factory.hpp:77] Creating layer pool1
I1106 21:43:14.570113  4673 net.cpp:106] Creating Layer pool1
I1106 21:43:14.570117  4673 net.cpp:454] pool1 <- conv1_2
I1106 21:43:14.570124  4673 net.cpp:411] pool1 -> pool1
I1106 21:43:14.570163  4673 net.cpp:150] Setting up pool1
I1106 21:43:14.570170  4673 net.cpp:157] Top shape: 1 64 450 685 (19728000)
I1106 21:43:14.570173  4673 net.cpp:165] Memory required for data: 1385892084
I1106 21:43:14.570178  4673 layer_factory.hpp:77] Creating layer conv2_1
I1106 21:43:14.570184  4673 net.cpp:106] Creating Layer conv2_1
I1106 21:43:14.570188  4673 net.cpp:454] conv2_1 <- pool1
I1106 21:43:14.570195  4673 net.cpp:411] conv2_1 -> conv2_1
I1106 21:43:14.571446  4673 net.cpp:150] Setting up conv2_1
I1106 21:43:14.571460  4673 net.cpp:157] Top shape: 1 128 450 685 (39456000)
I1106 21:43:14.571465  4673 net.cpp:165] Memory required for data: 1543716084
I1106 21:43:14.571473  4673 layer_factory.hpp:77] Creating layer relu2_1
I1106 21:43:14.571480  4673 net.cpp:106] Creating Layer relu2_1
I1106 21:43:14.571485  4673 net.cpp:454] relu2_1 <- conv2_1
I1106 21:43:14.571491  4673 net.cpp:397] relu2_1 -> conv2_1 (in-place)
I1106 21:43:14.571499  4673 net.cpp:150] Setting up relu2_1
I1106 21:43:14.571508  4673 net.cpp:157] Top shape: 1 128 450 685 (39456000)
I1106 21:43:14.571512  4673 net.cpp:165] Memory required for data: 1701540084
I1106 21:43:14.571516  4673 layer_factory.hpp:77] Creating layer conv2_2
I1106 21:43:14.571523  4673 net.cpp:106] Creating Layer conv2_2
I1106 21:43:14.571527  4673 net.cpp:454] conv2_2 <- conv2_1
I1106 21:43:14.571533  4673 net.cpp:411] conv2_2 -> conv2_2
I1106 21:43:14.572417  4673 net.cpp:150] Setting up conv2_2
I1106 21:43:14.572429  4673 net.cpp:157] Top shape: 1 128 450 685 (39456000)
I1106 21:43:14.572433  4673 net.cpp:165] Memory required for data: 1859364084
I1106 21:43:14.572440  4673 layer_factory.hpp:77] Creating layer relu2_2
I1106 21:43:14.572448  4673 net.cpp:106] Creating Layer relu2_2
I1106 21:43:14.572451  4673 net.cpp:454] relu2_2 <- conv2_2
I1106 21:43:14.572458  4673 net.cpp:397] relu2_2 -> conv2_2 (in-place)
I1106 21:43:14.572464  4673 net.cpp:150] Setting up relu2_2
I1106 21:43:14.572469  4673 net.cpp:157] Top shape: 1 128 450 685 (39456000)
I1106 21:43:14.572473  4673 net.cpp:165] Memory required for data: 2017188084
I1106 21:43:14.572476  4673 layer_factory.hpp:77] Creating layer pool2
I1106 21:43:14.572482  4673 net.cpp:106] Creating Layer pool2
I1106 21:43:14.572486  4673 net.cpp:454] pool2 <- conv2_2
I1106 21:43:14.572492  4673 net.cpp:411] pool2 -> pool2
I1106 21:43:14.572525  4673 net.cpp:150] Setting up pool2
I1106 21:43:14.572531  4673 net.cpp:157] Top shape: 1 128 225 343 (9878400)
I1106 21:43:14.572535  4673 net.cpp:165] Memory required for data: 2056701684
I1106 21:43:14.572538  4673 layer_factory.hpp:77] Creating layer conv3_1
I1106 21:43:14.572546  4673 net.cpp:106] Creating Layer conv3_1
I1106 21:43:14.572549  4673 net.cpp:454] conv3_1 <- pool2
I1106 21:43:14.572556  4673 net.cpp:411] conv3_1 -> conv3_1
I1106 21:43:14.573788  4673 net.cpp:150] Setting up conv3_1
I1106 21:43:14.573802  4673 net.cpp:157] Top shape: 1 256 225 343 (19756800)
I1106 21:43:14.573807  4673 net.cpp:165] Memory required for data: 2135728884
I1106 21:43:14.573817  4673 layer_factory.hpp:77] Creating layer relu3_1
I1106 21:43:14.573823  4673 net.cpp:106] Creating Layer relu3_1
I1106 21:43:14.573827  4673 net.cpp:454] relu3_1 <- conv3_1
I1106 21:43:14.573833  4673 net.cpp:397] relu3_1 -> conv3_1 (in-place)
I1106 21:43:14.573842  4673 net.cpp:150] Setting up relu3_1
I1106 21:43:14.573845  4673 net.cpp:157] Top shape: 1 256 225 343 (19756800)
I1106 21:43:14.573849  4673 net.cpp:165] Memory required for data: 2214756084
I1106 21:43:14.573853  4673 layer_factory.hpp:77] Creating layer conv3_2
I1106 21:43:14.573863  4673 net.cpp:106] Creating Layer conv3_2
I1106 21:43:14.573866  4673 net.cpp:454] conv3_2 <- conv3_1
I1106 21:43:14.573873  4673 net.cpp:411] conv3_2 -> conv3_2
I1106 21:43:14.575225  4673 net.cpp:150] Setting up conv3_2
I1106 21:43:14.575238  4673 net.cpp:157] Top shape: 1 256 225 343 (19756800)
I1106 21:43:14.575242  4673 net.cpp:165] Memory required for data: 2293783284
I1106 21:43:14.575249  4673 layer_factory.hpp:77] Creating layer relu3_2
I1106 21:43:14.575256  4673 net.cpp:106] Creating Layer relu3_2
I1106 21:43:14.575260  4673 net.cpp:454] relu3_2 <- conv3_2
I1106 21:43:14.575266  4673 net.cpp:397] relu3_2 -> conv3_2 (in-place)
I1106 21:43:14.575273  4673 net.cpp:150] Setting up relu3_2
I1106 21:43:14.575278  4673 net.cpp:157] Top shape: 1 256 225 343 (19756800)
I1106 21:43:14.575281  4673 net.cpp:165] Memory required for data: 2372810484
I1106 21:43:14.575285  4673 layer_factory.hpp:77] Creating layer conv3_3
I1106 21:43:14.575292  4673 net.cpp:106] Creating Layer conv3_3
I1106 21:43:14.575296  4673 net.cpp:454] conv3_3 <- conv3_2
I1106 21:43:14.575302  4673 net.cpp:411] conv3_3 -> conv3_3
I1106 21:43:14.576639  4673 net.cpp:150] Setting up conv3_3
I1106 21:43:14.576653  4673 net.cpp:157] Top shape: 1 256 225 343 (19756800)
I1106 21:43:14.576656  4673 net.cpp:165] Memory required for data: 2451837684
I1106 21:43:14.576663  4673 layer_factory.hpp:77] Creating layer relu3_3
I1106 21:43:14.576669  4673 net.cpp:106] Creating Layer relu3_3
I1106 21:43:14.576678  4673 net.cpp:454] relu3_3 <- conv3_3
I1106 21:43:14.576684  4673 net.cpp:397] relu3_3 -> conv3_3 (in-place)
I1106 21:43:14.576691  4673 net.cpp:150] Setting up relu3_3
I1106 21:43:14.576696  4673 net.cpp:157] Top shape: 1 256 225 343 (19756800)
I1106 21:43:14.576700  4673 net.cpp:165] Memory required for data: 2530864884
I1106 21:43:14.576704  4673 layer_factory.hpp:77] Creating layer pool3
I1106 21:43:14.576710  4673 net.cpp:106] Creating Layer pool3
I1106 21:43:14.576714  4673 net.cpp:454] pool3 <- conv3_3
I1106 21:43:14.576719  4673 net.cpp:411] pool3 -> pool3
I1106 21:43:14.576751  4673 net.cpp:150] Setting up pool3
I1106 21:43:14.576757  4673 net.cpp:157] Top shape: 1 256 113 172 (4975616)
I1106 21:43:14.576761  4673 net.cpp:165] Memory required for data: 2550767348
I1106 21:43:14.576764  4673 layer_factory.hpp:77] Creating layer conv4_1
I1106 21:43:14.576771  4673 net.cpp:106] Creating Layer conv4_1
I1106 21:43:14.576776  4673 net.cpp:454] conv4_1 <- pool3
I1106 21:43:14.576781  4673 net.cpp:411] conv4_1 -> conv4_1
I1106 21:43:14.579545  4673 net.cpp:150] Setting up conv4_1
I1106 21:43:14.579558  4673 net.cpp:157] Top shape: 1 512 113 172 (9951232)
I1106 21:43:14.579562  4673 net.cpp:165] Memory required for data: 2590572276
I1106 21:43:14.579569  4673 layer_factory.hpp:77] Creating layer relu4_1
I1106 21:43:14.579576  4673 net.cpp:106] Creating Layer relu4_1
I1106 21:43:14.579581  4673 net.cpp:454] relu4_1 <- conv4_1
I1106 21:43:14.579586  4673 net.cpp:397] relu4_1 -> conv4_1 (in-place)
I1106 21:43:14.579593  4673 net.cpp:150] Setting up relu4_1
I1106 21:43:14.579597  4673 net.cpp:157] Top shape: 1 512 113 172 (9951232)
I1106 21:43:14.579602  4673 net.cpp:165] Memory required for data: 2630377204
I1106 21:43:14.579604  4673 layer_factory.hpp:77] Creating layer conv4_2
I1106 21:43:14.579612  4673 net.cpp:106] Creating Layer conv4_2
I1106 21:43:14.579617  4673 net.cpp:454] conv4_2 <- conv4_1
I1106 21:43:14.579622  4673 net.cpp:411] conv4_2 -> conv4_2
I1106 21:43:14.584053  4673 net.cpp:150] Setting up conv4_2
I1106 21:43:14.584069  4673 net.cpp:157] Top shape: 1 512 113 172 (9951232)
I1106 21:43:14.584072  4673 net.cpp:165] Memory required for data: 2670182132
I1106 21:43:14.584084  4673 layer_factory.hpp:77] Creating layer relu4_2
I1106 21:43:14.584091  4673 net.cpp:106] Creating Layer relu4_2
I1106 21:43:14.584095  4673 net.cpp:454] relu4_2 <- conv4_2
I1106 21:43:14.584102  4673 net.cpp:397] relu4_2 -> conv4_2 (in-place)
I1106 21:43:14.584110  4673 net.cpp:150] Setting up relu4_2
I1106 21:43:14.584115  4673 net.cpp:157] Top shape: 1 512 113 172 (9951232)
I1106 21:43:14.584117  4673 net.cpp:165] Memory required for data: 2709987060
I1106 21:43:14.584121  4673 layer_factory.hpp:77] Creating layer conv4_3
I1106 21:43:14.584130  4673 net.cpp:106] Creating Layer conv4_3
I1106 21:43:14.584133  4673 net.cpp:454] conv4_3 <- conv4_2
I1106 21:43:14.584139  4673 net.cpp:411] conv4_3 -> conv4_3
I1106 21:43:14.588588  4673 net.cpp:150] Setting up conv4_3
I1106 21:43:14.588604  4673 net.cpp:157] Top shape: 1 512 113 172 (9951232)
I1106 21:43:14.588608  4673 net.cpp:165] Memory required for data: 2749791988
I1106 21:43:14.588615  4673 layer_factory.hpp:77] Creating layer relu4_3
I1106 21:43:14.588623  4673 net.cpp:106] Creating Layer relu4_3
I1106 21:43:14.588626  4673 net.cpp:454] relu4_3 <- conv4_3
I1106 21:43:14.588634  4673 net.cpp:397] relu4_3 -> conv4_3 (in-place)
I1106 21:43:14.588639  4673 net.cpp:150] Setting up relu4_3
I1106 21:43:14.588644  4673 net.cpp:157] Top shape: 1 512 113 172 (9951232)
I1106 21:43:14.588649  4673 net.cpp:165] Memory required for data: 2789596916
I1106 21:43:14.588652  4673 layer_factory.hpp:77] Creating layer conv4_3_relu4_3_0_split
I1106 21:43:14.588659  4673 net.cpp:106] Creating Layer conv4_3_relu4_3_0_split
I1106 21:43:14.588662  4673 net.cpp:454] conv4_3_relu4_3_0_split <- conv4_3
I1106 21:43:14.588667  4673 net.cpp:411] conv4_3_relu4_3_0_split -> conv4_3_relu4_3_0_split_0
I1106 21:43:14.588675  4673 net.cpp:411] conv4_3_relu4_3_0_split -> conv4_3_relu4_3_0_split_1
I1106 21:43:14.588711  4673 net.cpp:150] Setting up conv4_3_relu4_3_0_split
I1106 21:43:14.588718  4673 net.cpp:157] Top shape: 1 512 113 172 (9951232)
I1106 21:43:14.588722  4673 net.cpp:157] Top shape: 1 512 113 172 (9951232)
I1106 21:43:14.588726  4673 net.cpp:165] Memory required for data: 2869206772
I1106 21:43:14.588729  4673 layer_factory.hpp:77] Creating layer rpn_conv/3x3
I1106 21:43:14.588739  4673 net.cpp:106] Creating Layer rpn_conv/3x3
I1106 21:43:14.588743  4673 net.cpp:454] rpn_conv/3x3 <- conv4_3_relu4_3_0_split_0
I1106 21:43:14.588752  4673 net.cpp:411] rpn_conv/3x3 -> rpn/output
I1106 21:43:14.654742  4673 net.cpp:150] Setting up rpn_conv/3x3
I1106 21:43:14.654757  4673 net.cpp:157] Top shape: 1 512 113 172 (9951232)
I1106 21:43:14.654762  4673 net.cpp:165] Memory required for data: 2909011700
I1106 21:43:14.654767  4673 layer_factory.hpp:77] Creating layer rpn_relu/3x3
I1106 21:43:14.654774  4673 net.cpp:106] Creating Layer rpn_relu/3x3
I1106 21:43:14.654779  4673 net.cpp:454] rpn_relu/3x3 <- rpn/output
I1106 21:43:14.654785  4673 net.cpp:397] rpn_relu/3x3 -> rpn/output (in-place)
I1106 21:43:14.654793  4673 net.cpp:150] Setting up rpn_relu/3x3
I1106 21:43:14.654798  4673 net.cpp:157] Top shape: 1 512 113 172 (9951232)
I1106 21:43:14.654801  4673 net.cpp:165] Memory required for data: 2948816628
I1106 21:43:14.654805  4673 layer_factory.hpp:77] Creating layer rpn/output_rpn_relu/3x3_0_split
I1106 21:43:14.654811  4673 net.cpp:106] Creating Layer rpn/output_rpn_relu/3x3_0_split
I1106 21:43:14.654814  4673 net.cpp:454] rpn/output_rpn_relu/3x3_0_split <- rpn/output
I1106 21:43:14.654820  4673 net.cpp:411] rpn/output_rpn_relu/3x3_0_split -> rpn/output_rpn_relu/3x3_0_split_0
I1106 21:43:14.654826  4673 net.cpp:411] rpn/output_rpn_relu/3x3_0_split -> rpn/output_rpn_relu/3x3_0_split_1
I1106 21:43:14.654856  4673 net.cpp:150] Setting up rpn/output_rpn_relu/3x3_0_split
I1106 21:43:14.654861  4673 net.cpp:157] Top shape: 1 512 113 172 (9951232)
I1106 21:43:14.654866  4673 net.cpp:157] Top shape: 1 512 113 172 (9951232)
I1106 21:43:14.654870  4673 net.cpp:165] Memory required for data: 3028426484
I1106 21:43:14.654873  4673 layer_factory.hpp:77] Creating layer rpn_cls_score_new
I1106 21:43:14.654883  4673 net.cpp:106] Creating Layer rpn_cls_score_new
I1106 21:43:14.654887  4673 net.cpp:454] rpn_cls_score_new <- rpn/output_rpn_relu/3x3_0_split_0
I1106 21:43:14.654894  4673 net.cpp:411] rpn_cls_score_new -> rpn_cls_score
I1106 21:43:14.656051  4673 net.cpp:150] Setting up rpn_cls_score_new
I1106 21:43:14.656059  4673 net.cpp:157] Top shape: 1 70 113 172 (1360520)
I1106 21:43:14.656064  4673 net.cpp:165] Memory required for data: 3033868564
I1106 21:43:14.656069  4673 layer_factory.hpp:77] Creating layer rpn_cls_score_rpn_cls_score_new_0_split
I1106 21:43:14.656080  4673 net.cpp:106] Creating Layer rpn_cls_score_rpn_cls_score_new_0_split
I1106 21:43:14.656085  4673 net.cpp:454] rpn_cls_score_rpn_cls_score_new_0_split <- rpn_cls_score
I1106 21:43:14.656090  4673 net.cpp:411] rpn_cls_score_rpn_cls_score_new_0_split -> rpn_cls_score_rpn_cls_score_new_0_split_0
I1106 21:43:14.656097  4673 net.cpp:411] rpn_cls_score_rpn_cls_score_new_0_split -> rpn_cls_score_rpn_cls_score_new_0_split_1
I1106 21:43:14.656126  4673 net.cpp:150] Setting up rpn_cls_score_rpn_cls_score_new_0_split
I1106 21:43:14.656132  4673 net.cpp:157] Top shape: 1 70 113 172 (1360520)
I1106 21:43:14.656136  4673 net.cpp:157] Top shape: 1 70 113 172 (1360520)
I1106 21:43:14.656141  4673 net.cpp:165] Memory required for data: 3044752724
I1106 21:43:14.656143  4673 layer_factory.hpp:77] Creating layer rpn_bbox_pred_new
I1106 21:43:14.656152  4673 net.cpp:106] Creating Layer rpn_bbox_pred_new
I1106 21:43:14.656157  4673 net.cpp:454] rpn_bbox_pred_new <- rpn/output_rpn_relu/3x3_0_split_1
I1106 21:43:14.656164  4673 net.cpp:411] rpn_bbox_pred_new -> rpn_bbox_pred
I1106 21:43:14.658685  4673 net.cpp:150] Setting up rpn_bbox_pred_new
I1106 21:43:14.658699  4673 net.cpp:157] Top shape: 1 140 113 172 (2721040)
I1106 21:43:14.658704  4673 net.cpp:165] Memory required for data: 3055636884
I1106 21:43:14.658715  4673 layer_factory.hpp:77] Creating layer rpn_bbox_pred_rpn_bbox_pred_new_0_split
I1106 21:43:14.658721  4673 net.cpp:106] Creating Layer rpn_bbox_pred_rpn_bbox_pred_new_0_split
I1106 21:43:14.658725  4673 net.cpp:454] rpn_bbox_pred_rpn_bbox_pred_new_0_split <- rpn_bbox_pred
I1106 21:43:14.658732  4673 net.cpp:411] rpn_bbox_pred_rpn_bbox_pred_new_0_split -> rpn_bbox_pred_rpn_bbox_pred_new_0_split_0
I1106 21:43:14.658740  4673 net.cpp:411] rpn_bbox_pred_rpn_bbox_pred_new_0_split -> rpn_bbox_pred_rpn_bbox_pred_new_0_split_1
I1106 21:43:14.658773  4673 net.cpp:150] Setting up rpn_bbox_pred_rpn_bbox_pred_new_0_split
I1106 21:43:14.658781  4673 net.cpp:157] Top shape: 1 140 113 172 (2721040)
I1106 21:43:14.658787  4673 net.cpp:157] Top shape: 1 140 113 172 (2721040)
I1106 21:43:14.658789  4673 net.cpp:165] Memory required for data: 3077405204
I1106 21:43:14.658793  4673 layer_factory.hpp:77] Creating layer rpn_cls_score_reshape
I1106 21:43:14.658808  4673 net.cpp:106] Creating Layer rpn_cls_score_reshape
I1106 21:43:14.658813  4673 net.cpp:454] rpn_cls_score_reshape <- rpn_cls_score_rpn_cls_score_new_0_split_0
I1106 21:43:14.658819  4673 net.cpp:411] rpn_cls_score_reshape -> rpn_cls_score_reshape
I1106 21:43:14.658841  4673 net.cpp:150] Setting up rpn_cls_score_reshape
I1106 21:43:14.658848  4673 net.cpp:157] Top shape: 1 2 3955 172 (1360520)
I1106 21:43:14.658850  4673 net.cpp:165] Memory required for data: 3082847284
I1106 21:43:14.658854  4673 layer_factory.hpp:77] Creating layer rpn_cls_score_reshape_rpn_cls_score_reshape_0_split
I1106 21:43:14.658859  4673 net.cpp:106] Creating Layer rpn_cls_score_reshape_rpn_cls_score_reshape_0_split
I1106 21:43:14.658864  4673 net.cpp:454] rpn_cls_score_reshape_rpn_cls_score_reshape_0_split <- rpn_cls_score_reshape
I1106 21:43:14.658869  4673 net.cpp:411] rpn_cls_score_reshape_rpn_cls_score_reshape_0_split -> rpn_cls_score_reshape_rpn_cls_score_reshape_0_split_0
I1106 21:43:14.658875  4673 net.cpp:411] rpn_cls_score_reshape_rpn_cls_score_reshape_0_split -> rpn_cls_score_reshape_rpn_cls_score_reshape_0_split_1
I1106 21:43:14.658900  4673 net.cpp:150] Setting up rpn_cls_score_reshape_rpn_cls_score_reshape_0_split
I1106 21:43:14.658905  4673 net.cpp:157] Top shape: 1 2 3955 172 (1360520)
I1106 21:43:14.658910  4673 net.cpp:157] Top shape: 1 2 3955 172 (1360520)
I1106 21:43:14.658913  4673 net.cpp:165] Memory required for data: 3093731444
I1106 21:43:14.658916  4673 layer_factory.hpp:77] Creating layer rpn-data
I1106 21:43:14.659380  4673 net.cpp:106] Creating Layer rpn-data
I1106 21:43:14.659394  4673 net.cpp:454] rpn-data <- rpn_cls_score_rpn_cls_score_new_0_split_1
I1106 21:43:14.659399  4673 net.cpp:454] rpn-data <- gt_boxes_input-data_2_split_0
I1106 21:43:14.659404  4673 net.cpp:454] rpn-data <- im_info_input-data_1_split_0
I1106 21:43:14.659409  4673 net.cpp:454] rpn-data <- data_input-data_0_split_1
I1106 21:43:14.659415  4673 net.cpp:411] rpn-data -> rpn_labels
I1106 21:43:14.659423  4673 net.cpp:411] rpn-data -> rpn_bbox_targets
I1106 21:43:14.659431  4673 net.cpp:411] rpn-data -> rpn_bbox_inside_weights
I1106 21:43:14.659438  4673 net.cpp:411] rpn-data -> rpn_bbox_outside_weights
I1106 21:43:14.662358  4673 net.cpp:150] Setting up rpn-data
I1106 21:43:14.662374  4673 net.cpp:157] Top shape: 1 1 3955 172 (680260)
I1106 21:43:14.662379  4673 net.cpp:157] Top shape: 1 140 113 172 (2721040)
I1106 21:43:14.662384  4673 net.cpp:157] Top shape: 1 140 113 172 (2721040)
I1106 21:43:14.662389  4673 net.cpp:157] Top shape: 1 140 113 172 (2721040)
I1106 21:43:14.662391  4673 net.cpp:165] Memory required for data: 3129104964
I1106 21:43:14.662395  4673 layer_factory.hpp:77] Creating layer rpn_loss_cls
I1106 21:43:14.662403  4673 net.cpp:106] Creating Layer rpn_loss_cls
I1106 21:43:14.662408  4673 net.cpp:454] rpn_loss_cls <- rpn_cls_score_reshape_rpn_cls_score_reshape_0_split_0
I1106 21:43:14.662413  4673 net.cpp:454] rpn_loss_cls <- rpn_labels
…
I1106 21:43:14.681900  4673 net.cpp:157] Top shape: (1)
I1106 21:43:14.681903  4673 net.cpp:160]     with loss weight 1
I1106 21:43:14.681910  4673 net.cpp:165] Memory required for data: 3129104972
I1106 21:43:14.681915  4673 layer_factory.hpp:77] Creating layer rpn_cls_prob
I1106 21:43:14.681921  4673 net.cpp:106] Creating Layer rpn_cls_prob
I1106 21:43:14.681926  4673 net.cpp:454] rpn_cls_prob <- rpn_cls_score_reshape_rpn_cls_score_reshape_0_split_1
I1106 21:43:14.681933  4673 net.cpp:411] rpn_cls_prob -> rpn_cls_prob
I1106 21:43:14.681987  4673 net.cpp:150] Setting up rpn_cls_prob
I1106 21:43:14.681993  4673 net.cpp:157] Top shape: 1 2 3955 172 (1360520)
I1106 21:43:14.681996  4673 net.cpp:165] Memory required for data: 3134547052
I1106 21:43:14.682000  4673 layer_factory.hpp:77] Creating layer rpn_cls_prob_reshape
I1106 21:43:14.682008  4673 net.cpp:106] Creating Layer rpn_cls_prob_reshape
I1106 21:43:14.682013  4673 net.cpp:454] rpn_cls_prob_reshape <- rpn_cls_prob
I1106 21:43:14.682018  4673 net.cpp:411] rpn_cls_prob_reshape -> rpn_cls_prob_reshape
I1106 21:43:14.682040  4673 net.cpp:150] Setting up rpn_cls_prob_reshape
I1106 21:43:14.682046  4673 net.cpp:157] Top shape: 1 70 113 172 (1360520)
I1106 21:43:14.682049  4673 net.cpp:165] Memory required for data: 3139989132
I1106 21:43:14.682054  4673 layer_factory.hpp:77] Creating layer proposal
I1106 21:43:14.688434  4673 net.cpp:106] Creating Layer proposal
I1106 21:43:14.688449  4673 net.cpp:454] proposal <- rpn_cls_prob_reshape
I1106 21:43:14.688457  4673 net.cpp:454] proposal <- rpn_bbox_pred_rpn_bbox_pred_new_0_split_1
I1106 21:43:14.688462  4673 net.cpp:454] proposal <- im_info_input-data_1_split_1
I1106 21:43:14.688468  4673 net.cpp:411] proposal -> rpn_rois
I1106 21:43:14.690060  4673 net.cpp:150] Setting up proposal
I1106 21:43:14.690076  4673 net.cpp:157] Top shape: 1 5 (5)
I1106 21:43:14.690080  4673 net.cpp:165] Memory required for data: 3139989152
I1106 21:43:14.690085  4673 layer_factory.hpp:77] Creating layer roi-data
I1106 21:43:14.690222  4673 net.cpp:106] Creating Layer roi-data
I1106 21:43:14.690233  4673 net.cpp:454] roi-data <- rpn_rois
I1106 21:43:14.690239  4673 net.cpp:454] roi-data <- gt_boxes_input-data_2_split_1
I1106 21:43:14.690246  4673 net.cpp:411] roi-data -> rois
I1106 21:43:14.690254  4673 net.cpp:411] roi-data -> labels
I1106 21:43:14.690263  4673 net.cpp:411] roi-data -> bbox_targets
I1106 21:43:14.690269  4673 net.cpp:411] roi-data -> bbox_inside_weights
I1106 21:43:14.690275  4673 net.cpp:411] roi-data -> bbox_outside_weights
I1106 21:43:14.690578  4673 net.cpp:150] Setting up roi-data
I1106 21:43:14.690590  4673 net.cpp:157] Top shape: 1 5 (5)
I1106 21:43:14.690595  4673 net.cpp:157] Top shape: 1 1 (1)
I1106 21:43:14.690600  4673 net.cpp:157] Top shape: 1 8 (8)
I1106 21:43:14.690603  4673 net.cpp:157] Top shape: 1 8 (8)
I1106 21:43:14.690608  4673 net.cpp:157] Top shape: 1 8 (8)
I1106 21:43:14.690611  4673 net.cpp:165] Memory required for data: 3139989272
I1106 21:43:14.690615  4673 layer_factory.hpp:77] Creating layer roi_pool5
I1106 21:43:14.690623  4673 net.cpp:106] Creating Layer roi_pool5
I1106 21:43:14.690634  4673 net.cpp:454] roi_pool5 <- conv4_3_relu4_3_0_split_1
I1106 21:43:14.690640  4673 net.cpp:454] roi_pool5 <- rois
I1106 21:43:14.690646  4673 net.cpp:411] roi_pool5 -> pool5
I1106 21:43:14.690655  4673 roi_pooling_layer.cpp:30] Spatial scale: 0.125
I1106 21:43:14.690688  4673 net.cpp:150] Setting up roi_pool5
I1106 21:43:14.690695  4673 net.cpp:157] Top shape: 1 512 7 7 (25088)
I1106 21:43:14.690697  4673 net.cpp:165] Memory required for data: 3140089624
I1106 21:43:14.690701  4673 layer_factory.hpp:77] Creating layer fc6
I1106 21:43:14.690714  4673 net.cpp:106] Creating Layer fc6
I1106 21:43:14.690719  4673 net.cpp:454] fc6 <- pool5
I1106 21:43:14.690726  4673 net.cpp:411] fc6 -> fc6
I1106 21:43:14.900859  4673 net.cpp:150] Setting up fc6
I1106 21:43:14.900902  4673 net.cpp:157] Top shape: 1 4096 (4096)
I1106 21:43:14.900907  4673 net.cpp:165] Memory required for data: 3140106008
I1106 21:43:14.900918  4673 layer_factory.hpp:77] Creating layer relu6
I1106 21:43:14.900929  4673 net.cpp:106] Creating Layer relu6
I1106 21:43:14.900935  4673 net.cpp:454] relu6 <- fc6
I1106 21:43:14.900943  4673 net.cpp:397] relu6 -> fc6 (in-place)
I1106 21:43:14.900954  4673 net.cpp:150] Setting up relu6
I1106 21:43:14.900959  4673 net.cpp:157] Top shape: 1 4096 (4096)
I1106 21:43:14.900964  4673 net.cpp:165] Memory required for data: 3140122392
I1106 21:43:14.900966  4673 layer_factory.hpp:77] Creating layer drop6
I1106 21:43:14.900974  4673 net.cpp:106] Creating Layer drop6
I1106 21:43:14.900979  4673 net.cpp:454] drop6 <- fc6
I1106 21:43:14.900984  4673 net.cpp:397] drop6 -> fc6 (in-place)
I1106 21:43:14.901005  4673 net.cpp:150] Setting up drop6
I1106 21:43:14.901011  4673 net.cpp:157] Top shape: 1 4096 (4096)
I1106 21:43:14.901015  4673 net.cpp:165] Memory required for data: 3140138776
I1106 21:43:14.901018  4673 layer_factory.hpp:77] Creating layer fc7
I1106 21:43:14.901027  4673 net.cpp:106] Creating Layer fc7
I1106 21:43:14.901031  4673 net.cpp:454] fc7 <- fc6
I1106 21:43:14.901037  4673 net.cpp:411] fc7 -> fc7
I1106 21:43:14.935973  4673 net.cpp:150] Setting up fc7
I1106 21:43:14.936014  4673 net.cpp:157] Top shape: 1 4096 (4096)
I1106 21:43:14.936018  4673 net.cpp:165] Memory required for data: 3140155160
I1106 21:43:14.936029  4673 layer_factory.hpp:77] Creating layer relu7
I1106 21:43:14.936041  4673 net.cpp:106] Creating Layer relu7
I1106 21:43:14.936048  4673 net.cpp:454] relu7 <- fc7
I1106 21:43:14.936055  4673 net.cpp:397] relu7 -> fc7 (in-place)
I1106 21:43:14.936066  4673 net.cpp:150] Setting up relu7
I1106 21:43:14.936071  4673 net.cpp:157] Top shape: 1 4096 (4096)
I1106 21:43:14.936075  4673 net.cpp:165] Memory required for data: 3140171544
I1106 21:43:14.936079  4673 layer_factory.hpp:77] Creating layer drop7
I1106 21:43:14.936086  4673 net.cpp:106] Creating Layer drop7
I1106 21:43:14.936090  4673 net.cpp:454] drop7 <- fc7
I1106 21:43:14.936095  4673 net.cpp:397] drop7 -> fc7 (in-place)
I1106 21:43:14.936117  4673 net.cpp:150] Setting up drop7
I1106 21:43:14.936122  4673 net.cpp:157] Top shape: 1 4096 (4096)
I1106 21:43:14.936126  4673 net.cpp:165] Memory required for data: 3140187928
I1106 21:43:14.936131  4673 layer_factory.hpp:77] Creating layer fc7_drop7_0_split
I1106 21:43:14.936136  4673 net.cpp:106] Creating Layer fc7_drop7_0_split
I1106 21:43:14.936141  4673 net.cpp:454] fc7_drop7_0_split <- fc7
I1106 21:43:14.936146  4673 net.cpp:411] fc7_drop7_0_split -> fc7_drop7_0_split_0
I1106 21:43:14.936153  4673 net.cpp:411] fc7_drop7_0_split -> fc7_drop7_0_split_1
I1106 21:43:14.936187  4673 net.cpp:150] Setting up fc7_drop7_0_split
I1106 21:43:14.936192  4673 net.cpp:157] Top shape: 1 4096 (4096)
I1106 21:43:14.936197  4673 net.cpp:157] Top shape: 1 4096 (4096)
I1106 21:43:14.936200  4673 net.cpp:165] Memory required for data: 3140220696
I1106 21:43:14.936204  4673 layer_factory.hpp:77] Creating layer cls_score_new
I1106 21:43:14.936213  4673 net.cpp:106] Creating Layer cls_score_new
I1106 21:43:14.936218  4673 net.cpp:454] cls_score_new <- fc7_drop7_0_split_0
I1106 21:43:14.936225  4673 net.cpp:411] cls_score_new -> cls_score
I1106 21:43:14.937089  4673 net.cpp:150] Setting up cls_score_new
I1106 21:43:14.937103  4673 net.cpp:157] Top shape: 1 2 (2)
I1106 21:43:14.937106  4673 net.cpp:165] Memory required for data: 3140220704
I1106 21:43:14.937114  4673 layer_factory.hpp:77] Creating layer bbox_pred_new
I1106 21:43:14.937121  4673 net.cpp:106] Creating Layer bbox_pred_new
I1106 21:43:14.937126  4673 net.cpp:454] bbox_pred_new <- fc7_drop7_0_split_1
I1106 21:43:14.937134  4673 net.cpp:411] bbox_pred_new -> bbox_pred
I1106 21:43:14.938105  4673 net.cpp:150] Setting up bbox_pred_new
I1106 21:43:14.938113  4673 net.cpp:157] Top shape: 1 8 (8)
I1106 21:43:14.938117  4673 net.cpp:165] Memory required for data: 3140220736
I1106 21:43:14.938130  4673 layer_factory.hpp:77] Creating layer loss_cls
I1106 21:43:14.938138  4673 net.cpp:106] Creating Layer loss_cls
I1106 21:43:14.938143  4673 net.cpp:454] loss_cls <- cls_score
I1106 21:43:14.938148  4673 net.cpp:454] loss_cls <- labels
I1106 21:43:14.938154  4673 net.cpp:411] loss_cls -> loss_cls
…
